results/dad_ate_doggy/LearnFightStandard/checkpoint.pt (torch, 466463 bytes, 61 tensors)

discrete_act_size_vector f4 [1, 4]
000000 00 00 40 40 00 00 00 40 00 00 00 40 00 00 00 40
       3.0 2.0 2.0 2.0

network_body._body_endoder.seq_layers.0.weight f4 [128, 8]
000000 54 17 24 3f b4 1b c6 bd b3 6b bd be ac ae fc 3d
       0.64098096 -0.09673253 -0.3699623 0.123380035
000010 d8 88 12 3f 1c 9c ec be 40 5c ca 3e d9 e2 c4 be
       0.57240057 -0.46212852 0.39523506 -0.3845432
000020 e0 43 06 3f d8 1b a6 be ec 6b ee 3d 0c d3 a4 be
       0.5244732 -0.32443118 0.11641678 -0.32192266
000030 a6 60 db 3d 41 cd 63 3e a8 95 90 be be 3b cb bd
       0.107117936 0.22246267 -0.2823918 -0.09923504
000040 45 80 41 3e fd 0f db 3d 88 86 1a bf 66 9c 2a 3f
       0.18896587 0.10696409 -0.6036153 0.66644895
000050 e6 96 85 be e5 3f 00 bf 49 85 6b 3d 7d 52 e6 bd
       -0.2609169 -0.50097495 0.057500158 -0.11246202
000060 e6 2d 19 be e6 8d 17 3f a7 07 ca 3e 6e 14 88 3e
       -0.14958915 0.59200895 0.39458963 0.26578087
000070 2d 5f 83 3e 99 79 9f 3c 72 e2 40 bf 8a 31 12 3f
       0.2565855 0.019467162 -0.7534553 0.5710684
000080 e7 3a 6e be a4 90 03 3e 6e 53 e7 be 8d 35 c6 be
       -0.23264657 0.12848145 -0.4518084 -0.3871273
000090 9f cf 19 3f 6b 57 1a 3f cc 5e 91 3e 79 9f 02 bf
       0.6008243 0.6028964 0.28392637 -0.51024586
0000a0 98 cf 0a be 90 6d 90 be a0 d4 3c bf 80 89 5c 3e
       -0.13555753 -0.2820859 -0.7376194 0.21536827
0000b0 27 24 27 be 56 31 4b 3d 6c 24 cd 3d cd 73 07 3c
       -0.16322385 0.049607597 0.100167125 0.008267355
0000c0 ff 87 6b be d9 29 17 3f 69 f8 f0 3d ca 08 a1 3c
       -0.23001097 0.5904823 0.117661305 0.019657511
0000d0 51 69 f7 be 33 08 65 3e ab e3 27 bf a7 ac e9 3d
       -0.48322538 0.22366409 -0.6558177 0.11409884
0000e0 6e e5 29 3e 7a f5 8c bc 48 9b 49 be 1d 0c db 3e
       0.16591427 -0.017206896 -0.19688141 0.4278268
0000f0 7a 13 51 bd 63 9c bc be 5c b7 96 3d 9d 71 20 be
       -0.051043965 -0.36838064 0.07359192 -0.1566834
000100 40 22 04 be 21 97 8b 3e 31 45 cf bd 61 37 87 3e
       -0.1290369 0.2726374 -0.10120619 0.26409438
000110 bc fe 1c bd 8a fd ea 3d 0c 1d 15 bf c7 75 3f be
       -0.03832887 0.1147414 -0.58247447 -0.18697272
000120 c3 e0 e9 3d 8e 7f 3f 3e bd 17 1f 3e 80 85 54 3d
       0.11419823 0.18701002 0.15536399 0.051885128
000130 7d 96 59 bd 6c 01 be 3e a9 e6 44 3e 02 22 0c 3d
       -0.053122032 0.3711046 0.19228615 0.03421212
000140 3d f8 4d be 9d 57 9b 3e c2 a9 d8 3d 7d 18 a8 bc
       -0.20114227 0.3034028 0.10579254 -0.02051949
000150 b6 a1 5a bf 67 b4 f7 bd 39 33 02 bd 5a 2d 80 be
       -0.85403 -0.12094956 -0.03178713 -0.250346
000160 bc 5c 00 bd bd 60 53 be 09 c9 30 3d d2 f7 ac be
       -0.03133844 -0.20642371 0.043160472 -0.33782822
000170 3a a2 9c be a4 f1 a1 3c 81 80 2f bf 24 fd 92 be
       -0.3059252 0.019768544 -0.68555456 -0.28708756
000180 d8 e5 42 bd 69 f2 0f 3f df 7b 4a 3e f2 7e 13 bf
       -0.047582477 0.56229264 0.19773816 -0.5761558
000190 28 09 cc 3d fb 94 8f 3e 2a 4e c6 be 7f 9a f3 be
       0.09962684 0.2804335 -0.3873151 -0.4757881
0001a0 8a f7 45 3f 35 cd 06 3e 3a 98 07 be 6c 27 e2 be
       0.7733084 0.13164218 -0.13241664 -0.44170702
0001b0 24 6e 03 bf f8 e2 8f be e1 0a 8f bd cf d1 4d 3f
       -0.51339936 -0.2810285 -0.06984497 0.8039827
0001c0 3e 0e 27 bf 53 39 ad 3e ad 6d ce bd ac fe a5 3e
       -0.65256107 0.33832797 -0.10079513 0.32420862
0001d0 a3 1a e2 bd 9e 43 a6 be 16 22 d0 be 01 1f 1c bf
       -0.11040237 -0.32473463 -0.40651006 -0.6098481
0001e0 eb c7 4e 3e 82 b6 3b be 1e c9 be 3e c4 a9 10 be
       0.2019345 -0.1833134 0.37262815 -0.1412726
0001f0 30 18 63 bd 0b 07 a7 3e bb 07 0d 3e 5e e5 c2 be
       -0.05544299 0.3262256 0.1377248 -0.38065618
000200 b5 e9 17 bf 1a af ee be 12 10 7b bd 75 da 96 3c
       -0.59340984 -0.46617967 -0.061294623 0.018414715
000210 d8 de be be ae 85 9d 3d 0f d8 21 3e a2 0a 70 3e
       -0.3727939 0.07691513 0.15805076 0.23441556
000220 14 d5 08 bd 41 c7 ef bd 3d b9 69 bd 43 30 a4 3e
       -0.033406332 -0.117079265 -0.057061423 0.3206807
000230 3e e2 9d be bd ec 3e ba 8c 94 65 3e ae 11 07 3e
       -0.30836672 -0.00072832016 0.22419947 0.13190338
000240 e3 3b 11 bd 3e a8 18 3f 67 c9 0c bf 66 6d 4d be
       -0.035457503 0.5963172 -0.54994816 -0.20061263
000250 78 66 21 be 0e a5 b6 be 8c 26 cc be ce 73 9c 3e
       -0.15761745 -0.35672802 -0.3987316 0.30557102
000260 2c c5 4b bf 18 21 99 3e 84 2c d0 3d f7 e0 39 be
       -0.79597735 0.2990806 0.10164741 -0.18152224
000270 48 0a 42 bf 50 cc 03 3e 06 2e fe bd 4a 93 a8 3e
       -0.7579694 0.12870908 -0.12411122 0.32924873
000280 ac bb 42 be 82 61 8b bf 63 e1 bd be 29 25 9d 3e
       -0.19016904 -1.0889132 -0.3708602 0.30692413
000290 07 d6 7d 3e c1 e0 2b bf ca e8 14 3f 68 c8 be 3d
       0.24788676 -0.6713982 0.5816771 0.09315568
0002a0 ce 90 80 3f af 91 04 bf 79 d7 d5 3e 46 98 47 3d
       1.0044191 -0.51784796 0.41765955 0.048729204
0002b0 8e 9b a2 3e 3b ac 93 3e 3b 3d a3 be bc e5 4e bf
       0.31759304 0.2884234 -0.31882653 -0.80819297
0002c0 95 cb 70 3d b4 ab 8b 3d c7 eb 7e 3e 98 d8 f4 3c
       0.0587879 0.06819859 0.2489463 0.029888436
0002d0 0d 1e ea 3d 6b 7c 73 3c fb 7a 55 bd 1c 08 64 be
       0.11431513 0.0148612065 -0.052119236 -0.22268718
0002e0 13 bd 0c 3e 97 ae ca 3d 64 8d fa be 7d 1d 83 be
       0.13744001 0.098965816 -0.48935997 -0.25608435
0002f0 11 60 0f 3f cc af 8e bc 49 f8 c0 3e 2c e7 ce 3c
       0.5600596 -0.01741781 0.37689427 0.025256716
000300 bd 13 d6 be 95 82 2c be c6 e6 d1 3e 97 a7 72 3e
       -0.41811934 -0.16846688 0.4099638 0.23696743
000310 eb 71 35 be 3e 6c 06 bd 3a 9e c9 be 08 ad 3e bf
       -0.17719238 -0.03281807 -0.3937853 -0.74482775
000320 03 82 93 3e 6d bf 71 3e cd 75 de be 99 11 55 bd
       0.2881013 0.2360818 -0.4344925 -0.052018736
000330 a9 85 12 be 95 3e 20 3f 89 01 68 bd a9 13 4f be
       -0.143088 0.6259549 -0.05664209 -0.20222344
000340 83 3c 2a bf 9c aa 7e be bc 0e 21 be 5b fb c5 be
       -0.66498584 -0.2486977 -0.15728277 -0.38668332
000350 77 52 af be 22 5f 03 3e a2 70 11 3e b2 ae a6 3b
       -0.34242603 0.12829259 0.14203122 0.0050867433
000360 18 84 a4 3e 81 72 51 be bf 79 d4 be 60 12 21 bf
       0.3213203 -0.20453836 -0.41499135 -0.62918663
000370 de ec e7 bd 0e 25 b3 be 1c 39 1c 3e be 9b dc 3d
       -0.11324476 -0.34989208 0.1525616 0.10771893
000380 e0 4b de be 1d bd f9 3e c9 fc 91 bf 42 af a2 3d
       -0.43417263 0.48777094 -1.1405269 0.07943584
000390 06 da c9 bd 27 af 1a bf 6b aa 6e bd e2 a9 b3 3d
       -0.09856038 -0.6042351 -0.058267992 0.08772637
0003a0 61 f4 52 be af c6 68 be 7f 41 f8 3c 92 26 05 bd
       -0.20601036 -0.22732042 0.030304668 -0.032507487
0003b0 2f 1c c3 be 15 d4 e5 3e c5 05 83 3e 53 cd 08 3d
       -0.3810744 0.44888368 0.2559034 0.033398937
0003c0 61 ed ef bc 86 51 52 3e e9 2e d9 be b6 d3 2b bf
       -0.029287996 0.20538911 -0.42418602 -0.6711992
0003d0 ba 63 3b 3e 21 b1 d7 3d 26 e7 80 3e 1f ed 87 bd
       0.18299761 0.105318315 0.25176352 -0.06637024
0003e0 7e 9f 09 3f 88 fe 90 be 33 e1 c5 be 05 37 3d be
       0.5375899 -0.28319192 -0.38648376 -0.1847802
0003f0 55 df fd bd 68 5e cd be 77 a1 8e bd 26 27 2f be
       -0.12396113 -0.4011109 -0.06964391 -0.17104778

network_body._body_endoder.seq_layers.0.bias f4 [128]
000000 92 d4 81 3d dc a3 12 bd 8d 4d 87 3d 84 9b 38 bd
       0.06339373 -0.0358008 0.066065885 -0.045070186
000010 e8 e8 ef bd d8 ed c0 bd 69 fb 62 bc 99 92 fb 3c
       -0.11714345 -0.09420365 -0.013853886 0.030709552
000020 a1 82 2e bd 77 23 02 bd ad b8 7b bc e8 ce 9c 3d
       -0.042605046 -0.031772103 -0.015363854 0.07656652
000030 35 22 46 bd 6d 97 b1 bd b8 09 10 bd fb 03 c4 bc
       -0.048372466 -0.0867146 -0.03516552 -0.02392768
000040 11 62 85 bd 37 2b 65 bd 70 47 cb bd 47 b4 bc bd
       -0.06512845 -0.055949416 -0.09925735 -0.09214073
000050 ba ae c7 3c 30 6b 0f 3d 35 76 08 bb ab f1 d9 3c
       0.024375308 0.03501433 -0.002082241 0.026604494
000060 57 e6 a7 3d 86 67 08 be 74 63 44 bd f8 3c 64 3d
       0.08198231 -0.13320741 -0.04794641 0.055722207
000070 b0 58 eb bd ed 71 b5 3d 9d 86 62 bc 3f 44 f1 3c
       -0.11491525 0.0885962 -0.01382604 0.029451488
000080 1e b6 b9 3c 40 76 4c bd 0c 9d 34 bc 57 0f 98 bd
       0.022669848 -0.04991746 -0.011023771 -0.07424801
000090 3e a0 0e bc 3a ae 13 3c 43 49 2f 3d 20 e2 23 bc
       -0.008705197 0.009013707 0.042794477 -0.010002643
0000a0 9a fc 29 3a 99 d7 91 3d d9 b6 b4 bc 31 60 8e bd
       0.0006484479 0.071212 -0.022059845 -0.06951941
0000b0 5f 39 c3 3d 6f 1f 10 be ae 21 39 3c 07 ac 80 bd
       0.09532427 -0.14074491 0.011299534 -0.062828116
0000c0 53 a6 9a bc 16 86 0b be 2e 8e 99 3d 22 83 df 3d
       -0.018878138 -0.13625368 0.07497822 0.109136835
0000d0 b8 b4 d9 3d 57 18 a1 bd 2b 17 6e bd 7e 35 e1 bd
       0.106301725 -0.078659706 -0.058127563 -0.10996531
0000e0 1f a9 8f 3d e2 38 9b bd 87 49 7e bd d2 68 a9 3c
       0.07014679 -0.07579209 -0.06208184 0.020679865
0000f0 59 84 bf bd fb b6 6d 3d a9 9b c5 bc 94 83 a0 3d
       -0.09351415 0.058035832 -0.024122076 0.078375965
000100 76 5d 0c be 28 97 9f 3c 17 54 ac bd 95 6f 81 bd
       -0.13707528 0.019481257 -0.08414476 -0.06320111
000110 3a 6e fd bc 29 c1 7a 3d 9f 82 de bc 06 f2 fb 3d
       -0.03093635 0.061219368 -0.027161894 0.12302022
000120 eb d8 14 3d 00 4c 7f 3d ac 7d 23 be a3 bf 6f bd
       0.03633968 0.06232834 -0.15965909 -0.05853237
000130 e0 01 04 bd 06 2d ca bc 09 2d 0f bd 62 80 73 3d
       -0.03222835 -0.024679672 -0.03495506 0.059448607
000140 20 c3 43 bd 17 c0 10 bd 07 77 99 bd 9f 33 0b bd
       -0.047793508 -0.03533944 -0.07493406 -0.033984777
000150 fe b4 b8 bd 0f 44 44 bd 4d 2e b7 3b 41 30 30 bd
       -0.090188965 -0.04791647 0.0055902363 -0.04301477
000160 4b 0e 32 bd 78 c2 31 be 09 5f 74 bd d9 93 61 3d
       -0.043470662 -0.1735934 -0.059660945 0.05507264
000170 b4 65 e6 bc 27 6b 96 bc a1 93 03 bc 51 13 e7 bd
       -0.028124668 -0.018361641 -0.008030803 -0.11282981
000180 80 fc b3 bb d1 ff a1 3d 2b 3e 8e bb 3b bf b4 bd
       -0.005492747 0.07910121 -0.004340907 -0.08825537
000190 dc 95 ad bc c2 0b 84 3d b1 75 51 bd 4d 9f a9 3c
       -0.021189623 0.06447555 -0.05113763 0.020705843
0001a0 0e c6 8a bc b2 c8 d1 bd d8 ed 8d 3d 6d 16 a8 bc
       -0.016940143 -0.10243358 0.06930131 -0.020518506
0001b0 64 c4 b7 bd 26 b0 62 bd f5 93 89 3d 3a ce b7 bd
       -0.089730054 -0.05534377 0.06717674 -0.089748815
0001c0 c8 c4 84 bd 3e 86 27 3d a7 39 87 3c a0 67 35 3d
       -0.064828455 0.040899508 0.016506983 0.044288278
0001d0 6c 8e 38 bd 82 c4 da 3c 71 75 d0 3c 8e 55 7a bd
       -0.0450577 0.02670503 0.025446625 -0.061116748
0001e0 c4 61 95 bb e9 22 ca bd 39 75 3e 3d 62 f9 49 bc
       -0.0045587737 -0.0986994 0.04649851 -0.012327524
0001f0 12 42 82 bd 6e 20 f0 bd f9 41 a7 3c 02 12 5d bc
       -0.06360258 -0.117249355 0.0204172 -0.013493063

network_body._body_endoder.seq_layers.2.weight f4 [128, 128]
000000 54 00 ba 3c 06 b5 a1 bb 04 91 9a 37 db 49 26 bd
       0.022705235 -0.0049349098 1.8425759e-05 -0.040597778
000010 1b 5c 15 3e 76 75 f2 3d 02 12 3c be 6a ac bf bc
       0.14585917 0.1183881 -0.18366244 -0.023397643
000020 04 3b b0 3d e2 65 98 3d 0e c7 56 3e fd 65 8d bd
       0.08605006 0.074413076 0.20974371 -0.06904218
000030 64 eb db 3d d6 66 1c 3c 87 4b 0f be b8 88 51 3e
       0.107382566 0.009546002 -0.13993655 0.2046231
000040 c7 eb 73 3d f3 6e e8 bd 85 e9 ae 3d da a2 ed bd
       0.059551027 -0.11349287 0.08540634 -0.11603327
000050 00 e0 75 be 43 24 ee 3c 4f 5c 47 3b 26 e3 9c bd
       -0.2401123 0.029070025 0.003042001 -0.076605126
000060 e0 33 ca be 07 d7 ac 3d 06 b2 a0 3c 6d 0d 43 3d
       -0.39492702 0.08439451 0.019616138 0.047620226
000070 67 9c 0a 3a 92 97 90 bd e6 59 d2 3c b3 25 b0 bd
       0.0005287588 -0.0706016 0.025677633 -0.086009406
000080 0e f4 5e 3d d2 2f b8 bd 9d f0 2f 3e 6a 5b a4 3d
       0.054431967 -0.08993496 0.1718163 0.08025248
000090 1d 3c 6e bd 8b 75 c5 bc bd b2 38 3d 90 df aa 3b
       -0.058162797 -0.0241039 0.045092333 0.005214639
0000a0 9d ec d0 bd d1 5e 0c 3d 87 b2 6f 3d 45 c4 58 3d
       -0.102013804 0.03427011 0.058519866 0.052921552
0000b0 17 c0 41 bd 0d 7d 82 3d 75 76 d9 bc e7 92 ff bc
       -0.04730233 0.06371508 -0.026545743 -0.031197978
0000c0 3c a2 1e be 08 a0 4e be a3 e5 ba bd cb 6a 54 3d
       -0.15491575 -0.20178235 -0.09125831 0.05185966
0000d0 f3 fd fe bd ff b1 86 3c c2 96 50 bd 23 4c 7a 3c
       -0.12450781 0.016442297 -0.050925024 0.0152769415
0000e0 29 23 af bd 59 72 34 bd c9 dd 10 3d 9d 85 10 3e
       -0.08551628 -0.044054363 0.03536776 0.1411347
0000f0 c3 68 4c 3e 6c e4 09 bd 45 7b 95 3d 5d dd b6 bd
       0.19961838 -0.033665106 0.072989024 -0.089289404
000100 f2 00 2f 3d 02 0f b2 3b fc 4c 22 be a5 10 42 bb
       0.04272551 0.005433918 -0.1584968 -0.0029611972
000110 88 82 7c 3e e5 c4 cc 3d 7d d8 f6 bd 0c d9 35 3c
       0.24659169 0.09998492 -0.120530106 0.011099111
000120 57 dc 28 bc f2 0e e3 bd 2b bb 1d 3d 79 35 eb bd
       -0.010306439 -0.11086835 0.038508575 -0.114848085
000130 27 b6 85 3d a1 3f 28 bd 70 54 73 bd 12 f1 8b 3d
       0.065288834 -0.041076306 -0.059406698 0.0683309
000140 c2 3e 43 3e 01 55 4d 3c 43 94 92 3b 36 32 b8 3a
       0.19066909 0.012532474 0.0044732406 0.001405305
000150 5a 6f e4 3d f0 e0 5d bd a4 86 e0 bd 25 d2 1e 3e
       0.11154051 -0.054169595 -0.10963181 0.15509851
000160 4e eb 02 be 42 1b 64 3d fc 43 52 bd 59 b0 fe bc
       -0.12785074 0.055690058 -0.051334366 -0.031089948
000170 f6 e0 0f be 5d 70 42 3d 08 08 29 be b5 34 12 be
       -0.1405066 0.04747044 -0.1650697 -0.14277919
000180 b2 d2 76 be 12 bc a6 bd c5 d4 d5 bd 72 07 60 3d
       -0.24103811 -0.0814134 -0.10440973 0.0546946
000190 ed ba 79 bd 04 6f 14 be 50 a5 24 3d e4 99 09 3e
       -0.060969282 -0.14495474 0.040196717 0.13437611
0001a0 01 47 d0 3d 26 8e 42 be fd bf 15 bd 34 8f 46 bd
       0.10169793 -0.18999538 -0.036560047 -0.048476413
0001b0 ab f8 a4 3a 5c 66 36 bd 5a f7 14 be b4 c9 9d 3d
       0.0012586316 -0.04453121 -0.14547482 0.077044874
0001c0 b4 27 bc 3b 16 89 ff 3c 03 b5 36 bd 2e 1f f5 bd
       0.0057420377 0.031193297 -0.04460622 -0.11968838
0001d0 aa 73 dd bd 1a 69 73 3d 66 a4 73 bd b6 04 c9 3d
       -0.10813077 0.059426405 -0.059482954 0.09815352
0001e0 5b b3 93 bd d7 25 80 3d 33 79 45 3a 91 be 98 3d
       -0.07211944 0.062572174 0.00075330137 0.07458223
0001f0 14 a7 38 3d 15 a3 87 be 2c af 57 bc 11 a7 d4 bd
       0.045081213 -0.2649161 -0.013164323 -0.10383428
000200 1e 5b 5e 3d f3 4b 8c bd d2 02 c5 be 4a b4 9b bc
       0.054286115 -0.06850424 -0.38478714 -0.019006867
000210 ae c5 b9 bd ac 89 7a bd f9 d1 37 be d2 2d 72 be
       -0.090709075 -0.06116645 -0.17951192 -0.23650292
000220 8c e0 41 be 01 07 9c bd ba 7f 01 bf c9 bd 81 bd
       -0.18933314 -0.076185234 -0.5058552 -0.06335027
000230 20 dc cc bd 45 34 7e 3d cd 5f 89 be 32 7c ed 3d
       -0.10002923 0.062061567 -0.26830903 0.11595954
000240 2d 4a b6 bc b3 b0 ca 3c 5b 0b 6d 3d c0 2d 83 be
       -0.022252167 0.02474246 0.057872158 -0.25620842
000250 3e ec f3 bc 35 88 90 be 98 01 0f be 59 a4 be bd
       -0.029775735 -0.28228918 -0.13965452 -0.093086906
000260 af 6a e0 bd 55 78 59 bd a5 ce 82 bd 60 91 de 3c
       -0.10957848 -0.053093273 -0.063870706 0.02716893
000270 e2 86 91 be 01 5c 3c be f0 9e 5a 3d 23 92 90 3d
       -0.2842322 -0.18394472 0.05337423 0.07059123
000280 ca 9b 2f be 07 27 c6 bd 74 01 2b be cd 77 0d 3e
       -0.17149273 -0.096754126 -0.16699773 0.13815232
000290 27 e9 a6 3c 8b a6 2f be 8c ac 7b be 40 50 b2 be
       0.020374848 -0.17153375 -0.2457754 -0.3482685
0002a0 49 59 02 bd 23 6d 41 3d ef 7c ff bd c0 41 63 bd
       -0.03182343 0.04722322 -0.12475001 -0.055482626
0002b0 5a 39 66 be 94 4c 25 bd 29 dc 4f be 90 da 30 bd
       -0.22482815 -0.040356234 -0.20298828 -0.043177187
0002c0 74 8d 05 be 00 bf 9d bc 33 ef fd 3d 28 1f 63 be
       -0.13042241 -0.019256115 0.12399139 -0.22179854
0002d0 b2 5c 78 3c b4 6f 41 be b5 5a 63 be 2c cb 8c be
       0.015158819 -0.18890268 -0.2220257 -0.27498758
0002e0 25 99 21 3d 4f 8c 3d be 85 0d 69 bd b3 9c 1c be
       0.03945269 -0.18510555 -0.05689766 -0.15294151
0002f0 64 99 f2 bd d6 12 7e be f5 80 e6 bd da dc f2 bd
       -0.11845663 -0.24811873 -0.11255065 -0.1185853
000300 26 0d 0f be 49 8a 71 bd 36 9b 0b bd f5 6c fd bd
       -0.1396986 -0.05896977 -0.034083568 -0.123742975
000310 bc e9 1d 3d 4a 04 ad bd c1 53 0a be 37 f2 5d be
       0.038552985 -0.08448084 -0.13508512 -0.21674429
000320 54 94 00 be fb a9 61 bd 0a a9 17 3e 15 06 8c 3c
       -0.12556583 -0.055093747 0.14810577 0.017092744
000330 0d d4 15 be 5f 77 c8 3d c0 cb 0e be 88 f8 90 bd
       -0.14631672 0.09788393 -0.13944912 -0.070786536
000340 9e af 93 be 07 2d ed bd 9d da 79 be 7c a4 25 be
       -0.28844923 -0.11580854 -0.243998 -0.16176027
000350 40 ba 43 be a9 07 42 3d d7 47 09 be 8e 54 f3 bc
       -0.19114017 0.047370587 -0.13406311 -0.029703405
000360 5b bc 10 3e 8f 1a 2c be e7 d2 22 3d fa b4 14 be
       0.14134352 -0.16807006 0.039751913 -0.14522162
000370 4b 24 ba 3d 48 f0 83 bd e8 0d 42 3d 6a 05 0c bd
       0.090889536 -0.064423144 0.047376543 -0.03418485
000380 26 c5 11 3b a8 06 ba 3d ba d0 e0 bd 8c 41 69 bd
       0.0022242754 0.09083301 -0.109773114 -0.056947276
000390 17 26 6b 3d de cb 2a be af b2 3e be 11 37 5a be
       0.057409372 -0.16679332 -0.1862285 -0.21310069
0003a0 d9 8f 9b bd ce ec bf bc 5e d7 85 bc 57 c6 74 be
       -0.07595796 -0.023428347 -0.016338047 -0.23903786
0003b0 31 34 67 be af 77 cb 3d 46 97 d0 3c 09 b5 cf bd
       -0.22578503 0.09934937 0.025462758 -0.101419516
0003c0 8d dc ff bd 54 58 e0 bd a3 b0 f8 bd aa 8f ba 3d
       -0.124932386 -0.10954347 -0.12143066 0.09109433
0003d0 17 b6 fe 3d f8 8c 0f 3e c6 c5 74 be 96 25 81 bd
       0.12437075 0.14018619 -0.2390357 -0.06305997
0003e0 4f d0 9b 3d ce f0 40 be 82 a9 80 3e 56 2f 1c be
       0.07608091 -0.1884186 0.25129324 -0.15252432
0003f0 ed 6d 0b be 43 7d 90 be c3 d6 bc 3d 75 8b 8f be
       -0.13616152 -0.28220567 0.0922065 -0.28036085

network_body._body_endoder.seq_layers.2.bias f4 [128]
000000 e5 57 3e bd ca fa d8 3d ae be 17 bc 0f 69 4a 3d
       -0.04647054 0.10594709 -0.00926177 0.049416598
000010 a4 cd ca bd 74 73 c3 bb a1 da 31 bd 62 73 5a bc
       -0.09902504 -0.005964691 -0.04342139 -0.0133331735
000020 6e 6a 12 bd 9d e4 44 bd 61 27 52 bd ec 7e f6 3c
       -0.03574603 -0.048069585 -0.051307086 0.030089818
000030 dc e5 b5 3c 99 c7 49 3d 6d bd 2d 3d da 19 c7 3c
       0.022204332 0.049262617 0.04241698 0.02430432
000040 8c b7 29 bd f8 2a a4 bd b5 50 27 bd 44 4b 49 3d
       -0.04143481 -0.08016008 -0.040848453 0.049144045
000050 21 9f 8c 3c 34 a4 8b bc f2 04 99 3b 10 a7 4f 3d
       0.017165722 -0.017046072 0.004669779 0.050696433
000060 1f 91 94 3c 49 1f c5 bc ba 5a 89 bd 47 f3 02 bd
       0.018135605 -0.02406277 -0.06706758 -0.03197029
000070 34 4e 7c bd 98 a7 82 3d b7 70 25 3b e8 1b cd 3d
       -0.061598018 0.06379622 0.0025244185 0.10015088
000080 bc 88 72 3d a7 02 bc bc 7b bc 9c bc f4 eb 55 bd
       0.05921243 -0.022950483 -0.019132843 -0.052226976
000090 ab 2a 7a 3c 40 4a fe bb 9e 8f 90 3d 73 f0 3f bd
       0.015268962 -0.007760316 0.07058643 -0.04686017
0000a0 69 62 14 bd af 9b 42 bd 25 05 2a bd a3 48 b3 3d
       -0.036226664 -0.047511753 -0.041508812 0.08754089
0000b0 5f 30 09 3d 27 95 85 bd 1e 89 90 bd f3 04 14 bc
       0.033493396 -0.06522589 -0.07057403 -0.009034383
0000c0 21 bc 5e bd 30 e1 c5 3d ed 7f 99 bc e4 4a b2 bc
       -0.054378632 0.09662092 -0.018737758 -0.021764226
0000d0 78 6a 94 3c 0e 9f 3e bd 30 6c 11 bd bb e6 ba bc
       0.018117175 -0.046538405 -0.035503566 -0.022815099
0000e0 67 f2 20 3d a2 6f d8 bb 53 2b 96 bd 7b 0f bc bc
       0.039293673 -0.0066051045 -0.07332482 -0.0229566
0000f0 5b e7 b7 bc f4 3a a2 bd fb fd dd bc 97 f6 e5 bc
       -0.022449186 -0.07921401 -0.027098646 -0.028071685
000100 ac 6b 97 bd 4b ea 17 b8 ab 69 c2 bd 39 aa 37 3d
       -0.07393584 -3.6219408e-05 -0.09492811 0.04484007
000110 db 47 31 bd b7 ac b2 3c 9c e3 ca bc 92 d9 38 bd
       -0.043281417 0.021810872 -0.024766736 -0.045129366
000120 ff 9b be bd 78 f7 79 3d ca a4 99 3b 9b 53 54 3d
       -0.09307098 0.06102702 0.004688834 0.051837545
000130 b3 cc 8b 3b f9 b3 58 ba 85 d0 3a bd c0 9e b6 3b
       0.0042663454 -0.0008266564 -0.045609016 0.0055731237
000140 3a 89 ec bc c3 22 7a 3d c3 70 af bd 01 3d 8e 3c
       -0.028874028 0.061068308 -0.085664295 0.017363073
000150 b0 e7 a9 3c 35 ff 46 3d 0f 81 51 bd d6 5e bb bc
       0.02074036 0.04858323 -0.05114847 -0.02287237
000160 ff b0 87 bd 54 8d 07 bd 01 4b 14 bd 6e f6 08 3d
       -0.06625556 -0.033093765 -0.03620434 0.03343814
000170 72 cf 3d bd 85 ef 06 bd 29 b8 93 3d be 0d dc 3c
       -0.046340413 -0.032943267 0.0721286 0.026862022
000180 dd c5 5e bc 8c 4f 27 bd 65 35 df bc de 12 d3 3d
       -0.013596979 -0.040847346 -0.02724714 0.10306333
000190 9a 91 94 3c 07 88 99 bd 1c 8d 53 bd ed ed d3 3d
       0.018135834 -0.07496648 -0.051648244 0.10348115
0001a0 c9 f2 6b 3c 23 60 d0 3c 60 b6 19 3e a7 e5 cb 3d
       0.014401146 0.025436467 0.15010977 0.09955912
0001b0 7d 9b c4 bc da 10 3d bd e2 01 36 3d b6 04 98 3d
       -0.023999924 -0.04615865 0.04443539 0.074227735
0001c0 92 18 10 bd ea a1 1c bd e2 18 46 3a 0c 6c a0 3d
       -0.035179682 -0.03824035 0.00075568084 0.07833108
0001d0 ce 0a 75 bc 46 51 7e bd d6 f5 31 3c 87 a0 47 3d
       -0.014956189 -0.062089227 0.0108618345 0.048737075
0001e0 97 a8 8f bd d6 63 ee bc 10 6d 1c bd 32 4b b6 3d
       -0.07014578 -0.02910034 -0.038189948 0.08901061
0001f0 1e 70 fc 3b 9a 8d a9 bb cd 0c 29 bd fa 34 6b 3d
       0.007703795 -0.005174351 -0.041271973 0.05742357

action_model._continuous_distribution.log_sigma f4 [1, 2]
000000 df 6f 9c bc cb 22 83 bb
       -0.019096313 -0.0040019504

action_model._continuous_distribution.mu.weight f4 [2, 128]
000000 0d a4 9b 3b 77 53 cd bc ed 5e fc bc 37 d2 ac bc
       0.004749781 -0.025064213 -0.030806983 -0.021096332
000010 84 89 82 3c c0 4c 94 bb 11 54 0c 3d 70 a7 20 3d
       0.015934713 -0.004525751 0.03425986 0.03922218
000020 21 c8 0d 3d 14 cc ad 3c 8d c6 b0 bc 8f 50 af 3d
       0.034614686 0.021215476 -0.021579051 0.08560287
000030 8b 45 67 3d 31 0d 43 3c ac 09 b4 bc ad 46 89 bc
       0.056462806 0.011905001 -0.021977268 -0.016757334
000040 4b d5 f0 bc 49 a7 e0 3c 66 75 43 bd 7c 41 9b bc
       -0.029398581 0.027423518 -0.04771938 -0.018952124
000050 e1 77 b2 3c ca 09 c5 3c 05 fd d0 3b 10 24 73 3c
       0.021785678 0.02405252 0.0063778185 0.014840141
000060 e9 73 21 bd 32 22 41 bd ba 62 8a 3c d6 fe ce bc
       -0.03941718 -0.04715175 0.01689278 -0.025268
000070 04 37 89 bc ea 61 fc bb 9d 60 7b bc ad 20 f3 bc
       -0.016749866 -0.007702102 -0.015342859 -0.029678667
000080 1e d0 0f 3d 62 6e 08 bd df 21 63 bd f5 a3 0b 3c
       0.035110585 -0.033308394 -0.055452224 0.008522977
000090 e4 df fd bd 05 2d c6 3c 3c 15 d5 3a 81 ec cd ba
       -0.123962194 0.024191389 0.0016256939 -0.0015710742
0000a0 c1 46 61 bc 4a d8 d9 bc 29 37 a0 ba 30 52 a7 bb
       -0.013749779 -0.026592392 -0.001222347 -0.005106233
0000b0 b2 8f 44 3d 54 6d 70 bc 41 74 88 bc ee 4b af bc
       0.0479886 -0.014674503 -0.016656997 -0.02139851
0000c0 d4 47 44 bc 3d a1 09 bd f1 f3 0c 3c 22 c5 82 bc
       -0.011980016 -0.033601034 0.008603082 -0.01596314
0000d0 4d 2e 6b 3c 07 b0 be bc 02 bc 31 bd 73 c1 b1 3c
       0.014354301 -0.023277296 -0.04339219 0.02169869
0000e0 b9 14 8a bd eb 70 08 3d 33 46 45 bc 15 5d 59 bd
       -0.06742234 0.033310812 -0.012040663 -0.053067286
0000f0 0d e0 43 bd 71 92 0f bc 6d c7 06 3c d9 07 16 3d
       -0.047821093 -0.008762942 0.008226258 0.036628578
000100 b9 41 1c 3d 43 60 5a 3c eb 5e b1 3c 6d 67 15 3d
       0.038148616 0.013328615 0.021651706 0.036475588
000110 0b 67 26 bd 1b 3a 7c bc da 7d d1 bc da b0 00 bb
       -0.040625613 -0.015394713 -0.025572706 -0.0019636662
000120 39 09 8e 3a 3b 3c 16 3b f0 09 af 3b 17 11 cb bb
       0.0010836489 0.0022924084 0.005341761 -0.0061971056
000130 6e 11 a3 3c d9 93 07 bc da 3c 33 bd 7b 71 a0 3d
       0.019905772 -0.008274996 -0.043759204 0.07834145
000140 40 06 af bb 6c 21 20 bc 4e a5 fb ba 35 de ae bc
       -0.005341321 -0.009773593 -0.0019199045 -0.021346191
000150 23 7d c9 bc 16 bc 20 bd 58 c9 e5 bc c5 d5 03 3d
       -0.024595803 -0.039241873 -0.02805011 0.03218629
000160 6b 4c 45 bc 57 a1 3d 3b 31 46 a0 3d ab 25 2e 3c
       -0.012042145 0.0028935277 0.07825888 0.010629098
000170 77 06 f8 bb 25 2f 5c 3d 67 cb 29 3c 9a c2 94 bc
       -0.00756913 0.053755898 0.010363436 -0.0181592
000180 b8 a2 ab 3c ca 1f 1a bc b4 1d 52 3d 9a 78 a3 bb
       0.020951614 -0.009406993 0.05129786 -0.004988742
000190 36 29 13 bc ab 39 73 bd dc f4 9a bc 93 26 fc bc
       -0.008981993 -0.05938117 -0.018915586 -0.030780112
0001a0 cc 3a a8 bb c4 7d ad 3b b8 a6 83 3c cc 07 e4 bc
       -0.0051339623 0.0052945334 0.016070709 -0.02783575
0001b0 37 fa a3 bc c8 1e dc 3b 48 c8 49 bd 2e 9a 68 3c
       -0.020016773 0.0067175366 -0.04926327 0.014196916
0001c0 9f b5 87 bb e3 0b 50 3c fe 57 6b bd 0f 96 85 3a
       -0.004141524 0.0126981465 -0.057456963 0.0010191816
0001d0 cf a1 ca 3a 2b be 86 bc 8c 88 08 3d b7 f2 73 bb
       0.00154596 -0.016448101 0.033333346 -0.0037223527
0001e0 c8 9f 95 3b c3 e9 46 3a 1a 0c 5c 3b 1a 79 e2 3c
       0.0045661665 0.0007587934 0.003357655 0.027645636
0001f0 1f 77 f5 bd 3e c3 52 3d ef 76 40 bc aa 36 ab 3c
       -0.11985611 0.05145573 -0.011747106 0.02090009
000200 b7 14 02 3d 57 e0 e4 3c 29 65 c2 bb 8d 16 63 bd
       0.031758036 0.027939005 -0.0059324694 -0.055441428
000210 d2 fe aa 3c b3 83 0f 3d 1c 99 4e bd 76 a5 01 3d
       0.02087346 0.035037708 -0.050438985 0.031651936
000220 41 38 a0 3c 53 26 58 3d 56 4a dd bb 32 36 b4 bc
       0.019558074 0.052770924 -0.0067532463 -0.021998499
000230 18 45 2f 3d b6 d4 b2 bc 6e ed d7 bd 34 e3 19 3d
       0.042790502 -0.021829944 -0.10543333 0.037570193
000240 24 b0 7c 3d a2 14 b0 3c 22 90 6b 3d 38 81 fe bc
       0.06169142 0.021494213 0.057510503 -0.031067476
000250 6c 87 b9 3c e4 e6 aa bb 6a 67 65 3d f8 df 73 bc
       0.022647582 -0.0052155126 0.056006826 -0.014884941
000260 bb e4 d4 3d 1d 21 d3 bc ef 67 a8 3c 35 01 49 3d
       0.103951894 -0.025772626 0.020557372 0.049073417
000270 9b d4 28 3d 10 86 47 bc 12 c1 c3 3d ef e2 b2 bc
       0.04121838 -0.012177959 0.095583096 -0.021836726
000280 58 ab 38 3d 60 24 2e 3d e3 8d 17 3d c5 bd 82 3d
       0.04508528 0.04251516 0.037000548 0.06383852
000290 b6 ff 26 3e b7 3f d8 3b 91 91 09 bd 7b ae b2 3c
       0.16308483 0.0065993923 -0.03358609 0.021811714
0002a0 3e 4e 7a 3d 72 93 2a 3d 26 8d f5 3c 65 d5 3b bd
       0.061109774 0.04164452 0.029974531 -0.045857806
0002b0 e0 99 28 3d 89 64 b0 3c dd 75 8c 3d a2 55 2d 3d
       0.04116237 0.021532314 0.06858418 0.042317994
0002c0 45 fd 81 3d 71 64 b8 bd 3b 37 16 3c de 5e 87 3d
       0.063471355 -0.09003533 0.009168441 0.06609891
0002d0 0d 5f 50 bc 11 d4 36 bc 3e 51 b2 3d f9 3b 94 3c
       -0.012717974 -0.011158959 0.08706902 0.018095003
0002e0 fd 3f 24 bc 11 83 cd 3c 19 ec 9c 3d d6 b9 1a bc
       -0.010025022 0.025086911 0.076622196 -0.009443721
0002f0 a4 d0 81 3c 82 d6 72 3d bb 58 ac 3c 56 71 fd 3d
       0.015846558 0.0592866 0.021038404 0.12375133
000300 8e bb fc 3a 54 20 fd 3c 4b 2e 83 3d b7 21 77 3d
       0.001928197 0.030899204 0.06405314 0.060334887
000310 e1 47 8b bb b3 ae 8e 3d 40 91 08 bd 4b 1e 2a bd
       -0.004250512 0.06966915 -0.033341646 -0.041532796
000320 fa 8d c1 3d 5a ef 90 bc 2f 05 5a 3c e6 c0 1a 3c
       0.09450908 -0.017692257 0.0133069 0.009445405
000330 a2 e8 fe 3a 03 81 1c 3d a7 51 07 3d 57 99 57 3c
       0.0019447992 0.038208973 0.033036854 0.013159118
000340 a7 58 44 3c 09 32 a8 bc 40 e1 be ba e4 e4 a4 ba
       0.011984027 -0.020531671 -0.0014562979 -0.0012580422
000350 1b 13 97 bb e6 81 30 3d d7 04 5c 3d 41 3f ad 3b
       -0.004610432 0.04309263 0.053715553 0.0052870815
000360 42 9a 9b 3c b9 b7 af 3c a7 a5 96 3b 84 39 c1 3c
       0.018994454 0.02144991 0.004597384 0.023586996
000370 3e 41 cf 3d cf 52 f9 3c 0c c2 18 3b 72 d0 4e 3d
       0.10119866 0.030434994 0.002330902 0.050491758
000380 f3 ab 83 bc 3f ee 88 3d 8d 07 bb bb 9b 5e 92 bd
       -0.016073203 0.06686067 -0.005707687 -0.07146951
000390 e6 bb 8b 3d d9 0c 40 3b 06 84 5b 3d 7b 45 06 bd
       0.06822948 0.0029304533 0.053592704 -0.032781105
0003a0 ee 27 db 3b b4 9e b3 bc f9 e1 da bb 4f ab 10 3d
       0.0066881096 -0.021926261 -0.00667977 0.035319623
0003b0 ee 55 46 3c c6 16 68 3d 69 db 4e 3d 7a cf 7f bc
       0.012105448 0.056662343 0.050502215 -0.015613431
0003c0 c8 ab b0 bc f4 d4 40 3c ad 0d 75 3d 64 09 f4 3b
       -0.021566287 0.011769522 0.059827495 0.0074474085
0003d0 ee fb 94 3d d1 34 60 3d 2e 23 8c bd 1e 63 22 3c
       0.07274614 0.05473787 -0.068426475 0.009911327
0003e0 2b 07 e5 3c 3e 59 91 3d 9c 61 28 3d 52 5d e0 bb
       0.02795752 0.070971 0.041108713 -0.006847062
0003f0 ad 6b e3 3d 35 08 10 3d d3 6c db 3c d7 a5 1c bd
       0.11104522 0.035164077 0.02678529 -0.038244095

action_model._continuous_distribution.mu.bias f4 [2]
000000 88 88 01 3d 98 bf 62 bd
       0.031624347 -0.0553585

action_model._discrete_distribution.branches.0.weight f4 [3, 128]
000000 85 0f a7 bd 56 8f 9a 3d 74 58 fa bc dc 3e 1d bc
       -0.08157257 0.075468704 -0.030559756 -0.009597506
000010 2f be 0d bd 9e b1 9e bd df 48 ff bc 14 5a bf 3d
       -0.0346052 -0.077487215 -0.031162677 0.09343353
000020 ee 1f 37 3d 8a 36 a5 bd 00 30 bb 3c 6d 89 84 bd
       0.044708185 -0.08067043 0.022850037 -0.064715244
000030 b3 ed af bd 16 12 54 3d 3d 01 b7 bd 79 4a e5 bd
       -0.085902594 0.05177506 -0.08935783 -0.11195845
000040 a1 63 28 be b3 9e 94 bd 47 fc f2 bd f2 6a 24 bc
       -0.16444255 -0.07256832 -0.11864524 -0.010035263
000050 de a2 87 3b a4 e9 f0 3c 3d 77 98 bd 9b d8 c7 3c
       0.0041392883 0.029408284 -0.07444618 0.024395278
000060 aa 97 98 bd 77 e7 88 3c 94 c5 ad bd 59 d9 97 bd
       -0.074508026 0.016711934 -0.08484951 -0.07414503
000070 72 c2 da bd ae 0a 5b 3d 7a b2 13 bc 30 4c d0 3d
       -0.10681619 0.05347698 -0.00901472 0.101707816
000080 8b 37 a2 3d ce 74 f4 bd 8f 1b 8c bd a7 8d 6b 3d
       0.0792075 -0.11936341 -0.06841194 0.057508137
000090 a1 31 56 bd a8 65 73 bd c3 48 a8 3c ef b3 a5 bd
       -0.052293424 -0.05942312 0.020542508 -0.0809096
0000a0 ed 8a 61 bd 91 02 12 bd 32 9a 8b bd b0 71 92 3a
       -0.05506413 -0.03564698 -0.0681652 0.0011172798
0000b0 7c 4d 7f bd 5d af ac bd 65 2d 97 bd b1 76 9f bd
       -0.062329754 -0.084318854 -0.07381705 -0.077863105
0000c0 77 61 c3 bd c5 8a d3 3d 09 d7 5b 3c 50 fe 96 bd
       -0.09540074 0.103292026 0.013417968 -0.07372725
0000d0 fc c4 26 bd a0 f9 8f 3b 1a ef ce bc a6 62 b6 bd
       -0.040715203 0.0043937713 -0.025260497 -0.089055344
0000e0 81 e9 f8 3c bf 1f 15 3d d9 ac f9 bc 0b 38 db 3d
       0.03038478 0.03640723 -0.030477928 0.10704049
0000f0 90 ef d1 3d 55 39 45 3b d3 81 bb ba 11 ff 24 3d
       0.10250771 0.0030093987 -0.0014305658 0.040282313
000100 34 52 88 bd 11 9f 7a bd 71 bc a8 bd ea 43 c9 3d
       -0.06656304 -0.061186854 -0.08239067 0.09827407
000110 ca 64 40 bc 31 fc bd bd 4c 35 a4 bc cb 91 3c 3b
       -0.01174278 -0.09276617 -0.020044945 0.0028773423
000120 75 3f 9e bd bc 75 02 3c 71 5c d1 bb 07 ac df 3a
       -0.07726947 0.00796264 -0.0063891937 0.0017064818
000130 d2 5b 96 3c f6 fc 27 3d 6c 2d a5 3c 18 80 93 bd
       0.01835433 0.041012727 0.02016326 -0.07202166
000140 0f 1a 31 bd 3f b3 e3 bc 11 d0 59 bc 28 ca d4 3b
       -0.043237742 -0.027795432 -0.013294236 0.0064938255
000150 1c 04 45 bd 91 43 83 3d f2 39 59 bd 38 c6 1e bd
       -0.048099622 0.06409372 -0.053033777 -0.038763255
000160 b3 8f f8 3b 2d 0c 9f 3b 4e eb 0b be a6 87 1f bd
       0.0075854897 0.0048537464 -0.1366398 -0.038947724
000170 83 60 82 bd 1b 36 2d bb e2 1b 99 3c 8e fd b6 3d
       -0.063660644 -0.0026429954 0.018690053 0.089350805
000180 32 b2 bc 3c 7e 15 b0 bd b9 5c 4c bd 21 33 f2 bc
       0.023034189 -0.08597849 -0.049893115 -0.029565396
000190 b7 dc 04 be b0 a6 24 3d da f8 5a bd 70 3b 99 3c
       -0.12974821 0.040198028 -0.05345998 0.0187051
0001a0 23 73 3f 3d ad 22 bb 3d fd dc 7e 3c e5 54 28 bc
       0.046740662 0.09137473 0.015555617 -0.010274147
0001b0 fa ff 88 bd 80 2e f0 bd 41 4a a3 3d 3f 2a 3c 3d
       -0.06689449 -0.11727619 0.07973147 0.045938727
0001c0 39 1b 1a 3d f0 bc 0a bc 73 70 d3 bc ff 8b ac 3c
       0.037623618 -0.008467898 -0.025810456 0.02106285
0001d0 b5 c2 e1 bd 52 7e 70 bd dd 2a cf bd 6d b1 2b 3d
       -0.110234655 -0.05871422 -0.101155974 0.041917253
0001e0 7e 2d 0a bd 16 d3 a7 bb e5 27 ce bd f1 fa d4 3c
       -0.03373479 -0.005121599 -0.10066203 0.025998564
0001f0 5b ae 67 bd cc 26 41 bd 7d f1 c1 bd 95 e3 8f 3d
       -0.056562763 -0.04715614 -0.09469888 0.0702583
000200 d9 3f 1c 3d ea e8 83 bc 93 55 77 bb c6 ce a4 3b
       0.038146827 -0.016102273 -0.0037740215 0.005029532
000210 ec 44 15 3d 2b f7 2c 3d ed 24 a7 bd b2 b2 f0 3c
       0.036442682 0.042227905 -0.0816134 0.029382084
000220 92 46 96 bd 75 33 3f 3c 31 32 0a bd 68 4f 8b bd
       -0.07337679 0.011669983 -0.033739273 -0.06802255
000230 bd 9b c2 bb b4 c4 fc bc 4b 62 59 3d ad 56 79 3d
       -0.0059389756 -0.030855514 0.053072255 0.060873676
000240 47 a1 cc 3d 97 3c 97 bb 31 83 58 3d 95 70 34 3d
       0.09991699 -0.004615377 0.05285949 0.04405268
000250 75 33 ae 3c a9 dc 8a bd 1a f0 6c 3d 3b 91 8d bc
       0.021264771 -0.06780369 0.057846166 -0.017281165
000260 be 3f b9 3c 65 ed b7 bc 72 4a f3 3c 92 43 03 bc
       0.022613402 -0.022452066 0.029698584 -0.0080117155
000270 f9 75 a8 bb 83 7c ef bc a7 ff 50 bd 85 96 25 3d
       -0.0051410166 -0.029234177 -0.05102506 0.04042675
000280 61 f1 ab bc 3c f4 d2 3d e4 65 14 bd f3 e4 87 bc
       -0.020989122 0.1030049 -0.036229983 -0.016588664
000290 91 d6 34 bb ff 8a 0a 3d f3 4b 3d 3d 53 b1 5c 3d
       -0.0027593712 0.033823963 0.04621501 0.053880047
0002a0 3a 31 2c 3d e3 53 5a bc 71 86 1e 3d 0f f4 31 3d
       0.042039134 -0.013325664 0.038702432 0.043445643
0002b0 ac ed d2 3c 9c 17 d1 3b ca 0e 99 3c 00 3f 80 3c
       0.025748096 0.0063809883 0.01868381 0.01565504
0002c0 f4 5d de 3b 0a 07 6d bd 75 5a af bc e4 bf dc 3b
       0.0067861024 -0.05786804 -0.021405438 0.0067367423
0002d0 f4 60 96 bc 9d 99 6e bd dd 98 73 3c 73 2b a1 3d
       -0.018356778 -0.058251966 0.014867988 0.078696154
0002e0 e7 f1 67 3a 34 b7 28 bb 3b dd 8b bd 2c 2c ad bd
       0.0008847997 -0.0025743963 -0.06829306 -0.08455691
0002f0 17 77 37 bd 0c 04 be bb 71 24 7f 3d 3a e8 42 3d
       -0.044791307 -0.0057988223 0.062290613 0.04758475
000300 be f3 fb 3c d8 44 24 3d f0 e1 ee 3c 68 98 d3 3c
       0.030755874 0.040104717 0.02916047 0.025829509
000310 72 bf 69 3d a1 85 f4 bc bc 31 b2 3d f8 02 82 bc
       0.057067342 -0.029848875 0.08700892 -0.015870556
000320 10 01 c8 3a 86 88 84 3d 69 66 a7 bc 57 37 72 3c
       0.0015259106 0.06471352 -0.020434575 0.014783702
000330 46 85 00 bd e0 ca be 3c 40 10 55 bc 7e 24 23 3d
       -0.0313771 0.023290098 -0.013004363 0.039829724
000340 07 29 e0 3d 2a 4e 14 3d 65 5f c8 bc 0e 97 2e bd
       0.10945325 0.036207356 -0.02445955 -0.042624526
000350 10 df 28 3d 91 21 b7 bc 9f 3e 5f bd 2d 91 d1 bd
       0.041228354 -0.022354873 -0.05450308 -0.10232768
000360 ac e6 c3 bd 7f 05 73 3d 8c 5c be 3d 72 38 a5 3d
       -0.095654815 0.059331413 0.09294996 0.08067407
000370 2d e7 08 bb 1c 2f bf b4 62 e4 2e bd 55 c2 80 bd
       -0.0020889745 -3.56108e-07 -0.04269827 -0.06287066
000380 b4 c4 00 be d4 78 5b 3c 52 d9 6d bd 04 9c 9e bb
       -0.12575036 0.013395507 -0.05806858 -0.004840376
000390 e8 6c 52 3d 4d 7a a9 bb 68 99 d1 3c 9e 00 4b 3c
       0.051373392 -0.00517205 0.025585845 0.012390284
0003a0 a9 a8 2c bd 8d fc b0 bd 30 fe 3c 3c ea 3d 59 3c
       -0.042153034 -0.0864192 0.011535212 0.01325939
0003b0 74 27 f3 3c 70 96 94 3d 31 5c 84 3a 73 f1 04 3c
       0.029681899 0.07255256 0.0010098276 0.008114207
0003c0 e5 6e 80 3c db 2f 39 3d aa 0e 8b bd 43 ac 7a bc
       0.015677879 0.045211654 -0.06789906 -0.015299859
0003d0 22 82 bc 3b ac 4e d5 3c 7b 9b 0a bd cf 10 e3 3b
       0.0057528177 0.02603849 -0.033839684 0.006929494
0003e0 f9 15 20 bd 28 d8 2f 3c 8d 08 32 3d 68 59 6a bd
       -0.039083455 0.010732688 0.043465186 -0.05721417
0003f0 18 de d2 3c 78 61 6e bc 60 04 87 3b b5 0e aa 3d
       0.025740668 -0.014549606 0.0041203946 0.083035864

action_model._discrete_distribution.branches.0.bias f4 [3]
000000 9d d1 b5 3d bd e9 ed bc 87 3f 51 bd
       0.08877871 -0.02904212 -0.051085975

action_model._discrete_distribution.branches.1.weight f4 [2, 128]
000000 c8 d1 37 3c 2c 43 8b 3c a3 b2 9e bd 80 ce fb 3d
       0.011219449 0.016999803 -0.07748916 0.12295246
000010 7b b8 82 bd d5 42 08 be ef f7 56 bd 48 b0 66 bc
       -0.06382843 -0.13306744 -0.05248254 -0.014080115
000020 e2 11 35 3d 0c 7c 1f be e4 f6 1a bd 57 3a a2 3c
       0.044206508 -0.15574664 -0.03783311 0.01980321
000030 1d b9 dc bd ee e6 c7 3d ce de 31 3d 6e 53 78 be
       -0.10777495 0.09760843 0.043425374 -0.24250576
000040 94 c5 31 be 1e 76 1e be dd de 5f be 5a 5c 15 3e
       -0.17360526 -0.15474746 -0.2186236 0.1458601
000050 83 d0 c2 bd 29 7b d4 bc 4d 24 81 bd 67 7b 34 3d
       -0.09512427 -0.025937634 -0.06305752 0.044063
000060 54 c4 d5 bd ff cf 28 bc 47 24 f7 bd 93 70 03 bd
       -0.10437837 -0.010303496 -0.12067466 -0.03208978
000070 63 f8 0c be 38 dd 1e 3e b8 fe af bd 4c b6 11 3c
       -0.13766627 0.15514076 -0.085935056 0.008893561
000080 b1 82 a2 3d 22 4b 3c be 92 4f 01 bd 6a 7f 99 bd
       0.07935084 -0.18388036 -0.031570025 -0.074950054
000090 fa 47 0e be 61 48 2a be 26 6d eb 3d 07 60 ca bd
       -0.13894644 -0.16629173 0.11495428 -0.09881597
0000a0 cb 94 27 be 95 fe 96 bd 97 0c 2e be 7e ae e5 3d
       -0.16365354 -0.073727764 -0.1699699 0.11214922
0000b0 44 9f d5 bd c0 2d 4b be 2d 68 39 be ee 98 d4 bd
       -0.10430768 -0.19841671 -0.18106146 -0.103807315
0000c0 20 67 f3 bd 0e 38 34 3d 83 a9 8b bd 2d a1 ee bd
       -0.11884904 0.04399877 -0.06819441 -0.116518356
0000d0 c6 42 06 be 8e 0e 99 bc 0d 53 0f be 4e d1 47 be
       -0.1311141 -0.018683698 -0.13996525 -0.19513437
0000e0 ba 69 a5 3c 60 3e c6 bd 01 a0 b7 bd 48 fa 6b bd
       0.020192016 -0.09679866 -0.08966065 -0.057611734
0000f0 05 35 aa 3b c7 cf d9 bc 5a bc 5e bd cd 99 d9 bd
       0.0051943087 -0.026588334 -0.054378845 -0.10625038
000100 df 8e 14 be 8e da 7b 3c a4 e0 0f be c7 e3 76 3d
       -0.14507626 0.015371932 -0.14050537 0.06027582
000110 78 6e 9c bd c8 ae 2e bd 03 27 97 be 10 34 92 bd
       -0.07638258 -0.042647153 -0.2952195 -0.071388364
000120 ea 12 65 bd 1b 52 cc 3d e6 62 76 3d f0 88 1e 3e
       -0.05592624 0.09976598 0.06015291 0.15481925
000130 31 c5 08 3e 65 5a 0b be 6f 6a c4 bd da 11 96 bc
       0.13356473 -0.13608702 -0.09590613 -0.01831906
000140 f7 ab 18 be f0 dc fd bc 04 c9 8e bd c4 c3 d9 3d
       -0.1490935 -0.03098914 -0.069719344 0.106330425
000150 6e 7d ab bd 65 a6 61 bd 2e ca 26 be 06 0d 7a bd
       -0.08373533 -0.055090327 -0.16288063 -0.061047576
000160 36 5b 25 bd b2 b2 8e be f0 9d 41 be 34 e6 a0 3d
       -0.04037019 -0.2787071 -0.18907905 0.07856408
000170 aa d8 b2 bd 6b 96 e2 bd 49 86 01 3e 6b 5e 95 bd
       -0.08732732 -0.11063846 0.12648882 -0.072933994
000180 1b a7 04 be a7 c5 1c be 55 5c a5 3d 8a 78 2d 3e
       -0.1295437 -0.15309773 0.080742516 0.16940513
000190 df 81 0d be de 68 ff bd a7 6f 0f bd b1 6b 04 3e
       -0.13819073 -0.12471174 -0.03501859 0.12931706
0001a0 9e af d7 3d 3f bf 21 3d 03 2e 8f 3e ad 3f b9 3d
       0.10531543 0.039489027 0.27964792 0.09045348
0001b0 65 31 10 be 7a 88 52 be f9 f0 13 be bf 7e 5a bd
       -0.14081343 -0.20559874 -0.14447393 -0.05334353
0001c0 d1 b1 f1 bb a2 03 ea bd 1a 3e 01 be e1 32 4f 3e
       -0.0073759337 -0.11426474 -0.12621346 0.20234253
0001d0 fe 83 39 be eb ad ae bd 6f 6a 82 bd d4 88 b9 bd
       -0.18116757 -0.08529266 -0.06367957 -0.09059301
0001e0 77 94 a3 bd aa 9d 91 bd f6 0f c8 bd 19 68 44 3e
       -0.07987302 -0.0711015 -0.09768669 0.19180335
0001f0 01 fa b7 bd 41 70 b6 bd 7b d8 76 bd 18 34 c1 3d
       -0.08983231 -0.089081295 -0.060265046 0.09433764
000200 2f f0 cc bc 21 62 a2 bc a7 82 d5 3d e3 4a d2 bd
       -0.025016872 -0.019822182 0.104253106 -0.1026819
000210 fb fa 95 3d 05 15 06 3e 40 23 1f 3d b6 af ef bb
       0.07323261 0.13093956 0.038851976 -0.0073146475
000220 fc 84 1a bd 61 0f 2e 3e 32 da 3e 3c 56 be 02 bd
       -0.03772448 0.16998054 0.0116487015 -0.0319198
000230 7a 01 00 3e 8b 67 c8 bd b0 fa f7 bc 12 0a 71 3e
       0.12500563 -0.09785374 -0.030270904 0.23538998
000240 e3 e0 36 3e 17 01 2d 3e 3c 16 63 3e 39 2b 02 be
       0.17859225 0.16894947 0.2217645 -0.127118
000250 2c 2e cb 3d 4a 3f f6 3c c5 5a 55 3d ff d6 65 bd
       0.09920916 0.030059475 0.052088518 -0.05611324
000260 5e 8a cd 3d f3 d5 89 3c 64 9f ec 3d 8c 5c 95 3c
       0.10036157 0.016825652 0.11553839 0.018232606
000270 a5 2b 0b 3e 3e 8a 28 be 6a 78 90 3d 59 8b de bc
       0.13590868 -0.16458985 0.07054217 -0.027166056
000280 b5 b2 97 bd 11 8c 31 3e d1 31 f4 3c 76 7e 92 3d
       -0.074071325 0.17338587 0.02980891 0.07153027
000290 f1 7d 20 3e 30 1f 2a 3e c4 ec ed bd 81 da ea 3d
       0.15673043 0.1661346 -0.11617425 0.114674576
0002a0 a9 3d 32 3e 4b c9 93 3d 62 ac 3f 3e 25 33 bf bd
       0.17406334 0.07216128 0.18718103 -0.09335927
0002b0 0d 8f a5 3d 4e 74 59 3e 00 39 2f 3e 23 cd fb 3d
       0.080839254 0.21235773 0.17111588 0.12294986
0002c0 75 7c 02 3e 84 67 55 bd a1 4a 91 3d 10 d2 02 3e
       0.12742789 -0.052100673 0.070943125 0.12775445
0002d0 76 9d 0b 3e 38 92 36 3d 83 b1 15 3e d8 f0 52 3e
       0.13634285 0.04457304 0.14618497 0.20599687
0002e0 82 30 84 bc 98 0b c7 3d 76 cb b6 3d 19 a7 36 3d
       -0.016136412 0.09719008 0.08925526 0.04459295
0002f0 2a a5 d2 bc 48 d7 b2 3c 57 be 5e 3d ac 14 d5 3d
       -0.025713522 0.02183117 0.05438074 0.104043335
000300 58 45 0d 3e ef 76 da bc 29 46 1b 3e 3c b0 8d bd
       0.13795984 -0.02666804 0.15163483 -0.0691838
000310 aa 6c a1 3d 7a ff ff 3c 1c 84 96 3e 7f 38 b5 3d
       0.07882054 0.03124975 0.29397666 0.088486664
000320 ca f8 82 3d d0 17 08 be c8 72 66 bd 8b 5e 28 be
       0.06395109 -0.13290334 -0.056261808 -0.16442315
000330 e6 77 1a be 05 ea 04 3e ee 09 ca 3d 08 52 b4 3b
       -0.150848 0.12979896 0.09865175 0.005502943
000340 44 0b 0b 3e a7 c4 3e 3d 57 2b 9a 3d 64 9c ca bd
       0.13578516 0.04657426 0.07527798 -0.098931104
000350 7a d7 a1 3d 71 2f 5c 3d 02 eb 25 3e f9 2a 14 3d
       0.07902427 0.05375618 0.1620293 0.036173794
000360 95 1b c3 3c 93 39 84 3e 3c 70 44 3e 33 07 a6 bd
       0.023816863 0.25825176 0.19183439 -0.08106842
000370 fc 71 bc 3d 45 a1 d5 3d 1c 5f f9 bd 06 08 8f 3d
       0.09201428 0.1043115 -0.12176344 0.06983952
000380 24 a6 04 3e 9f 49 2f 3e 2d 1f 9b bd 1d a6 2b be
       0.12954003 0.17117928 -0.07574306 -0.16762586
000390 b2 33 fa 3d e2 f9 04 3e 16 28 20 3d 93 cc d9 bd
       0.12216891 0.12985948 0.03910073 -0.106347226
0003a0 4d 8c bf bd dd 03 aa bc 0e e2 8b be ef 76 75 bd
       -0.09352932 -0.020753795 -0.27320904 -0.059927877
0003b0 84 4a 27 3e cc e0 4e 3e 26 86 1c 3e 3d bc 00 3d
       0.16337019 0.2020294 0.15285549 0.031429518
0003c0 db de e9 3c bd 63 f2 3d 1f 23 f9 3d 85 c2 55 be
       0.028548649 0.1183543 0.12164902 -0.20874985
0003d0 7d 09 34 3e b1 01 77 3d e4 75 97 3d a5 fa a9 3d
       0.17581744 0.060304347 0.07395533 0.0829976
0003e0 44 6c 8b 3d 2d 1a 75 3d 6d e0 cb 3d 3c 43 4b be
       0.068077594 0.059839416 0.09954915 -0.19849867
0003f0 b7 3b b3 3d f5 c4 b6 3d a7 02 99 3d 3b f4 e2 bd
       0.08751624 0.08924285 0.07471209 -0.110817395

action_model._discrete_distribution.branches.1.bias f4 [2]
000000 2a 52 ea 3d e7 51 ea bd
       0.11441453 -0.11441403

action_model._discrete_distribution.branches.2.weight f4 [2, 128]
000000 29 91 66 ba e2 4a 1f be bf e6 80 3d d4 31 37 3c
       -0.0008795434 -0.1555591 0.06294011 0.011181314
000010 ba 48 d7 3c 15 de 0b 3a 31 42 85 3d 78 ba 83 3c
       0.026279796 0.0005335522 0.06506766 0.016080126
000020 95 c5 90 3d 11 a6 9a 3d 7a 61 2a bd 9a a7 5a bd
       0.07068936 0.07551206 -0.041596867 -0.053382494
000030 fb 9f 5d 3d ac 72 45 3d 8d 32 1a 3d 26 f3 6e b9
       0.054107647 0.048205063 0.037645865 -0.00022788029
000040 04 2d 82 3d 13 df b1 3c 3b f7 21 3d 2d 86 f2 3b
       0.06356242 0.021712815 0.039542418 0.007401249
000050 d6 46 cd 3d f3 b9 57 3d 40 61 a3 3d ff 3f 42 3c
       0.100232765 0.05266757 0.07977533 0.011856078
000060 23 3c 62 bd 9d af 0c 3c 98 4f 5e 3d 41 4e 8a 3c
       -0.055233132 0.008586791 0.054275125 0.016883017
000070 da 7e 0e bd 19 f7 63 3d 32 3f a9 3d 72 49 1c be
       -0.034788944 0.055655573 0.08264007 -0.15262392
000080 03 07 2d bd 59 16 9c 3d 9f a2 ca bc bf 8f 19 3d
       -0.042243015 0.0762145 -0.024735747 0.037490603
000090 0b f1 6e bd 05 c5 fb 3d 86 f1 bb bc cc de 8d bc
       -0.058335345 0.12293438 -0.022942316 -0.017318152
0000a0 6a 2b 3f 3d cf dc c7 3c ad 78 4f 3d c3 0f 65 3b
       0.046672262 0.024397282 0.050652195 0.0034952022
0000b0 72 81 e2 3d a6 9f 21 3d b3 54 ce 3a 37 cd 07 3c
       0.11059846 0.039458893 0.0015741795 0.008288673
0000c0 72 fd f6 3c c6 e4 9e bd 0e 7c 88 3d d7 73 f0 3c
       0.030150149 -0.07758479 0.066642866 0.029352112
0000d0 24 05 2f bc 82 7b 9b bd 62 7d a0 3c 96 42 b5 bb
       -0.010682378 -0.075919166 0.019591037 -0.0055316193
0000e0 57 a4 d3 3b 62 74 5e 3d fc 3c d4 3b b0 b0 4d bc
       0.0064588 0.05431021 0.0064769965 -0.012554333
0000f0 1f 78 44 3c 80 74 6e bd bf e8 82 3d 0e df db 3b
       0.01199153 -0.05821657 0.06392049 0.00670994
000100 49 28 c0 3d d1 5f 8e bc f7 5d e9 3c c2 5a 90 bc
       0.09382684 -0.017379673 0.028487189 -0.017621402
000110 22 ee 51 bd 9c 5b 63 bc 89 a2 83 3d cc 45 5a 3d
       -0.05125249 -0.013876822 0.064274855 0.05328922
000120 79 f1 66 3d 4b cc 55 3a 7e 56 c6 3c 25 2a a0 bc
       0.05638263 0.0008155747 0.024211165 -0.019551346
000130 aa 6b 7b bd 61 a0 b6 3c 2e 23 5e 3d a2 42 a0 3c
       -0.061381973 0.022293271 0.05423277 0.019563023
000140 ba dc db 3c 55 e4 4b bd 54 27 d3 3c b2 57 9e 3b
       0.026838649 -0.0497783 0.025775589 0.0048322314
000150 c8 2f 5c bd 06 7e 71 3a 0f 99 69 3d c8 9c e2 3d
       -0.053756505 0.00092121994 0.057030734 0.1106506
000160 c8 24 0c bc b1 73 88 3d b1 b2 db 3d 47 3e d9 bb
       -0.008553691 0.066626914 0.10727442 -0.0066297385
000170 40 56 3f 3c 78 9b fd 3d f0 b4 d8 bc 2f 50 b9 bc
       0.011678278 0.12383169 -0.026453465 -0.022621242
000180 e7 05 9f 3c a5 da 60 3d b5 ff ed bd 8b fc 32 bc
       0.019411994 0.054896016 -0.11621038 -0.010924469
000190 32 28 db bb 0a 2b 84 3d ea 2a fc 3c a9 d2 da bb
       -0.0066881413 0.064535215 0.030782182 -0.0066779447
0001a0 a7 18 9b 3c f7 00 00 3d af a7 1f bd 00 50 49 be
       0.018932654 0.03125092 -0.038978275 -0.19659424
0001b0 1f 81 1b bd f0 96 49 3d fa 68 ad bd 3c a7 67 bd
       -0.037964936 0.04921621 -0.08467288 -0.05655597
0001c0 ea 4d a4 3c 22 30 0d 3e ae d3 8a bc 86 5a 05 bd
       0.020056684 0.13787892 -0.01694664 -0.032557033
0001d0 f9 ea 09 3d 1e c6 6e 3d 79 11 16 bd 6e ec 7c bd
       0.033671353 0.058294408 -0.036637757 -0.061748914
0001e0 bd e8 a2 bc a3 a2 52 3c ae 25 80 3d 51 1b 63 bd
       -0.019886369 0.012856158 0.06257187 -0.055445973
0001f0 1e 38 11 bd a9 ae 89 3b 86 7d a1 3d 6e b7 8a bc
       -0.03545391 0.0042017293 0.0788527 -0.01693317
000200 68 69 3b bc bc 46 17 3e 6e c9 6d bd 23 be 4a 3b
       -0.011438705 0.14773077 -0.058053426 0.0030936084
000210 e0 49 d5 bc b0 6e 61 3b 17 b7 a8 bd 8e 02 2e bd
       -0.026036203 0.003439825 -0.082380466 -0.042482905
000220 a9 38 9b bd c7 a4 72 bd 50 b4 2c 3d 3e 7b 36 3d
       -0.075791664 -0.059239175 0.042164147 0.044551127
000230 b6 fb 61 bd e5 57 aa bc 96 8b 1f bd 96 28 03 3c
       -0.05517169 -0.020793865 -0.03895148 0.008005282
000240 59 09 8a bd 36 f1 0a bd b5 47 f9 bc c1 f7 81 39
       -0.06740064 -0.033921443 -0.0304297 0.00024789388
000250 48 06 8f bd fa 06 f8 bc 9b 19 78 bd 69 46 f5 bb
       -0.0698362 -0.030276764 -0.060571294 -0.0074852
000260 6d 04 32 3d c6 fd 87 bc 1e 32 36 bd f5 5a ea bc
       0.043461252 -0.0166005 -0.04448139 -0.028607825
000270 85 2e 0b 3d 64 4c bf bc 47 fc 92 bd ab d3 24 3e
       0.03397991 -0.023351856 -0.07177024 0.1609637
000280 5d e7 38 3d 1e 6f 8f bd fe d7 ad 3c ae dd c1 bc
       0.04514252 -0.07003616 0.021221157 -0.023665275
000290 be e2 c4 3c f5 55 f2 bd c5 f7 e2 3c 20 43 86 3b
       0.0240339 -0.11832801 0.027706036 0.0040973574
0002a0 8d bc 27 bd c3 81 e8 bc f9 7f 26 bd 21 91 6e ba
       -0.0409513 -0.028382188 -0.040649388 -0.00091006054
0002b0 36 06 d4 bd 6f a9 f6 bc c2 00 97 3c b3 be a7 bc
       -0.10352747 -0.03011009 0.018432979 -0.020476675
0002c0 16 b9 21 bd 39 a8 8c 3d 27 78 85 bd 6e f0 ba bc
       -0.039483152 0.068680234 -0.06517058 -0.022819724
0002d0 cd 51 77 3c 8c 05 9d 3d 31 22 fb bc d9 da 1b bc
       0.015095186 0.076670736 -0.030655952 -0.009512627
0002e0 a6 06 d4 bc 1a c5 6b bd ca b6 61 bc b3 d3 a4 bb
       -0.025882076 -0.057561018 -0.01377649 -0.0050301193
0002f0 80 b2 8c 3c 4d 86 0d 3d 32 cb a8 bd bd b9 00 bb
       0.01717496 0.034551907 -0.082418814 -0.0019641959
000300 87 3e 9b bd 59 21 3a 3c 63 27 d3 bc 7a 7b ef 3c
       -0.075802855 0.01136049 -0.025775617 0.029233683
000310 d2 53 61 3d aa e7 0a 3c 1f 2a 81 bd 77 f0 74 bd
       0.055011578 0.008478085 -0.06306862 -0.059799638
000320 b8 d2 4f bd a2 c4 63 3c be d9 b8 bc 2c 1f df 3c
       -0.050738066 0.013901861 -0.022564765 0.027236544
000330 cc 3e 7c 3d ea af 00 bd 04 22 80 bd 88 20 74 3b
       0.061583325 -0.031417765 -0.06256488 0.0037250835
000340 22 c6 1e bd 2d 97 4c 3d 01 27 06 bd da b1 0b bb
       -0.038763173 0.04994886 -0.03275204 -0.0021315725
000350 4b 51 87 3d db 0e 26 3c 9b 20 8b bd fa c5 e2 bd
       0.06607302 0.010135378 -0.067933284 -0.11072917
000360 b4 43 80 bb a0 19 79 bd 99 6f ba bd 7e 71 cc 3b
       -0.003914321 -0.060815454 -0.09103317 0.0062391153
000370 4d 64 8d 3b 02 2f e7 bd b2 2e f6 3c 3f dd b2 3c
       0.0043149353 -0.11288263 0.030051563 0.021834014
000380 bd d9 c7 bc 73 0c 60 bd ee e1 04 3e df 58 ea 3b
       -0.024395818 -0.054699373 0.1297681 0.0071517075
000390 1f 02 d8 3b d4 56 86 bd db ff 58 bd 0a 11 1f 3b
       0.0065920497 -0.0655953 -0.052978378 0.002427163
0003a0 de 0b 11 3c 3c 42 2c bc a9 7b 00 3d 6a 0a 41 3e
       0.008852927 -0.010513838 0.03136793 0.18851629
0003b0 4b e1 00 3d e3 e2 84 bd 89 28 99 3d 4a b3 80 3d
       0.031464856 -0.06488588 0.074784346 0.06284197
0003c0 e8 b5 2a bd 58 f0 17 be 1a c2 23 3d a5 bb 92 3c
       -0.041677386 -0.14837778 0.03998003 0.017911742
0003d0 e8 05 f8 bc 3e 20 a8 bd 0b 07 39 3d 1c 3c 8f 3d
       -0.030276254 -0.08209275 0.045172732 0.06993887
0003e0 4f 12 1f 3d 65 d8 9c 3b d6 64 a2 bd 82 fe 94 3d
       0.03883582 0.0047865384 -0.07929389 0.07275106
0003f0 d7 eb 88 3d 5d 47 93 bc 4d 23 8c bd 9a ae 16 3d
       0.06685608 -0.017978365 -0.068426706 0.036787607

action_model._discrete_distribution.branches.2.bias f4 [2]
000000 ed 7c da bd f0 7c da 3d
       -0.10668359 0.10668361
