results/dad_ate_doggy/LearnFightSword/checkpoint.pt (torch, 471631 bytes, 67 tensors)

discrete_act_size_vector f4 [1, 5]
000000 00 00 40 40 00 00 00 40 00 00 00 40 00 00 00 40
       3.0 2.0 2.0 2.0
000010 00 00 00 40
       2.0

network_body._body_endoder.seq_layers.0.weight f4 [128, 8]
000000 84 f4 4f 3e db 7d 96 be 99 03 df 3d b6 17 6a bd
       0.20308119 -0.29392895 0.10889358 -0.05715152
000010 6b f1 ad be 6b 47 f7 bc 38 e0 f2 bd e9 bd db 3d
       -0.3397325 -0.030185422 -0.118591726 0.10729582
000020 d3 4b 8e 3e a5 96 2c 3e 9d 9a 27 bf 2b 30 df 3d
       0.27792224 0.16854341 -0.65470296 0.10897859
000030 83 db 24 bf a8 cc a6 3e 60 f1 10 3f e2 4b 5c be
       -0.6439745 0.32578015 0.5661831 -0.21513322
000040 98 35 00 3e 8f ff 53 be 16 9a a3 be c1 e1 f2 be
       0.12520444 -0.20702957 -0.31953496 -0.47437862
000050 b9 1a c2 3e c0 14 10 3e 8b a7 27 3e 0d 5d 3c 3e
       0.37911013 0.14070415 0.16372506 0.18394871
000060 70 83 10 bf 98 64 a5 be 6c a7 02 3f dd 43 c8 be
       -0.5645056 -0.3230331 0.51036716 -0.39114276
000070 cf bb a5 3e 93 43 50 3e 21 89 d0 3e 82 60 c8 3e
       0.3236985 0.20338278 0.4072962 0.3913613
000080 42 5b cf 3e 67 26 20 be 34 c8 a0 bd d3 91 0f 3d
       0.40499312 -0.1563965 -0.07850686 0.03505118
000090 f8 1f 6e be a7 a9 a6 bd 8f b3 00 3d a6 88 93 3d
       -0.23254383 -0.08137827 0.03142124 0.07203798
0000a0 9c 23 df 3e 2b b7 1c be 4e e7 0d be fd fc b4 3e
       0.43581855 -0.15304248 -0.13857767 0.35349265
0000b0 10 0d a9 be 55 70 97 3e 11 0e 42 3e ad 25 0c 3d
       -0.33017778 0.2957789 0.18950678 0.034215618
0000c0 91 4b 82 be 74 cf 8c 3d 6a dc 77 3e e8 59 45 be
       -0.25448278 0.06875506 0.24205175 -0.19272578
0000d0 ed e0 6f 3e f0 1e 43 3f e9 4e 69 bd bf 21 1a bf
       0.23425646 0.7621908 -0.05696002 -0.6020774
0000e0 10 26 0d 3f 44 6b 9a be bc b6 2f 3e 6e 49 1c be
       0.55136204 -0.30159962 0.17159551 -0.15262386
0000f0 19 55 4e 3e 17 bf 2f 3e a1 fa 75 3e 2c 88 6f 3e
       0.2014965 0.17162739 0.24021389 0.23391789
000100 3d b1 2b bd 3d 55 44 bd 23 05 5a be 24 96 d0 bc
       -0.041917074 -0.047932852 -0.21291022 -0.025462218
000110 93 66 84 bd 8a 22 d1 3e 92 80 91 3e 39 fb 1e 3f
       -0.06464877 0.40846664 0.28418404 0.62102085
000120 22 ca 96 be 43 fa 9d bd 1f 1e 6a 3e b5 c4 5e 3d
       -0.2945109 -0.07713749 0.22863053 0.054386813
000130 80 c2 67 be df 30 2a bd 78 3d 8d 3e ce a3 87 3d
       -0.2263279 -0.041550513 0.2758596 0.0662304
000140 01 9b 87 be 69 63 2b 3d 92 60 1f be e6 50 35 3e
       -0.26485446 0.04184285 -0.15564182 0.17706642
000150 a8 b3 07 3e 4e b8 53 3d b8 47 83 be 82 70 2f 3f
       0.13252127 0.05168944 -0.25640655 0.6853105
000160 03 ab 03 be 35 7f 75 3e e3 ef e8 3b 4a c8 e8 3d
       -0.12858205 0.23974307 0.007108675 0.11366327
000170 2d d4 0a 3f 20 54 72 bc 0e 27 f0 be b9 c3 ae 3d
       0.54230005 -0.014790565 -0.46904796 0.08533425
000180 63 8f a4 3e 47 84 3c 3f 93 f2 54 be ec 36 98 3d
       0.32140645 0.7363934 -0.2079566 0.074323505
000190 26 94 48 bf ea 77 15 bf 74 0e 56 be 3c 29 d2 3d
       -0.78351057 -0.583861 -0.20903951 0.10261771
0001a0 8b a3 62 bd e6 6c 04 3f ca 1c f6 bd 19 b0 91 3e
       -0.055331748 0.51728666 -0.1201721 0.28454664
0001b0 91 39 4c bf 00 bd 15 bf 05 4f bd 3e ac b2 ff 3e
       -0.7977534 -0.58491516 0.3697435 0.49941003
0001c0 1b 60 a8 3e 73 c8 45 3e fa 8f dc bd 3f 16 80 3e
       0.32885823 0.19314747 -0.10769649 0.25016972
0001d0 9d 7f 82 bd 65 a1 29 be f5 2f 63 3d 3b 62 a0 3e
       -0.063719966 -0.16565473 0.055465657 0.31324944
0001e0 c8 73 a2 3e 84 14 7d bd c5 5d 72 3b 07 5a 71 be
       0.3172896 -0.061787143 0.003698216 -0.23569499
0001f0 9a 94 56 be c6 07 21 3e 02 28 a0 3e 19 42 14 39
       -0.20955124 0.15725622 0.31280524 0.00014139003
000200 61 7c 81 3c a9 6e 8b bd 1d bf 3b 3c 06 ac 5c 3e
       0.015806379 -0.06808216 0.011459139 0.21549997
000210 b3 51 18 be b0 f3 a9 3e c4 08 f0 3c 98 53 4b 3e
       -0.14874916 0.3319373 0.029301055 0.19856107
000220 60 37 5e 3e 78 c3 5a 3c 8b d9 52 3e ae 75 fb 3d
       0.21700811 0.013352267 0.20590799 0.12278305
000230 71 db a7 3e a4 4f b0 be 97 72 92 3d 84 5d eb be
       0.32784608 -0.3443576 0.071507625 -0.45969784
000240 08 65 0e 3e 9c f3 f0 be cc ff 71 3d 8f e9 f8 bd
       0.13905728 -0.4706086 0.059081838 -0.12153923
000250 1f d1 de 3e 23 9d 0e 3f 09 bc 19 be 9c 99 35 bf
       0.43518922 0.5570852 -0.15013136 -0.70937514
000260 40 20 53 bf f3 ad 2b 3d 9e e3 5f be 1f e4 15 be
       -0.82471085 0.041913938 -0.21864173 -0.14637803
000270 a9 79 a4 be 1f 3d 4b 3e 67 19 8f 3e bd 39 98 3d
       -0.3212407 0.19847535 0.27949068 0.07432888
000280 11 25 0b be 13 38 f5 3e 95 fb 9e 3d 3f 1b 22 3f
       -0.13588358 0.47894344 0.07762829 0.63322824
000290 61 e9 f7 be 8b 3b bf bd 97 69 16 bd db 91 be 3d
       -0.4842024 -0.09337529 -0.036721792 0.093051635
0002a0 9b cf e1 bd 6a 70 1f be a1 87 2c 3e e3 dd 9c 3d
       -0.11025926 -0.15570226 0.16848613 0.07659509
0002b0 43 e1 5f 3e eb 27 10 bf 8e 8d a5 3e 65 d4 88 be
       0.21863274 -0.5631091 0.3233456 -0.26724544
0002c0 0c 16 84 3e e0 c3 89 be 1d 55 a6 3e ad d4 20 bf
       0.2579807 -0.26907253 0.3248681 -0.6282452
0002d0 78 f6 22 be 91 1f a9 be e1 d8 06 3e 55 b6 ee 3a
       -0.15914333 -0.33031896 0.1316867 0.0018212298
0002e0 97 a4 77 3e 1c c4 3b be d5 52 3d 3e b8 92 3f 3d
       0.2418388 -0.18336529 0.18488629 0.04677078
0002f0 12 ca 64 be f7 99 67 3e 65 bd a1 be 20 46 37 bf
       -0.22342709 0.22617327 -0.3158981 -0.7159138
000300 ce f1 b0 be 27 b8 66 bd 53 92 a6 3e fc 30 84 3e
       -0.34559482 -0.056327965 0.32533512 0.25818622
000310 b1 ac b7 3e 39 0b e9 3e f4 12 20 be b0 62 89 3d
       0.3587394 0.45516375 -0.1563223 0.06708276
000320 d1 3a 0b be 11 55 d0 3e 19 d1 7c 3e a2 1d 6b bd
       -0.13596655 0.406899 0.2468914 -0.057401307
000330 f1 10 93 3e 60 9f 32 3f ad de d1 bc c7 8b 6d 3f
       0.28723863 0.69774437 -0.025618875 0.9279141
000340 4b 2b 49 3e 75 a3 28 3e e5 8e ad be d3 b2 0c 3b
       0.19645421 0.16468604 -0.33898082 0.0021468892
000350 83 96 a1 be f6 10 ba 3d 3a 84 81 be 31 d0 e5 bd
       -0.31560144 0.09085266 -0.25296193 -0.1122135
000360 46 02 7b 3e 12 c3 6b 3e a6 c9 d0 3e f3 fe a5 3e
       0.24512586 0.23023632 0.40778846 0.32421073
000370 8e f6 6a bf 8a 25 b9 3d 5b ed bc 3b ff 12 76 be
       -0.9178246 0.09040363 0.0057655997 -0.24030684
000380 85 e0 ab 3e a6 34 f9 3b 2f 3f 6c bd 4b 2e a7 bd
       0.33569732 0.007605153 -0.057677444 -0.081631266
000390 a8 70 4c 3c b2 04 c3 3e 20 15 6c 3d 35 80 94 3e
       0.012478031 0.3808952 0.057637334 0.29004064
0003a0 86 94 92 be eb 45 96 3e a7 d1 67 3f 85 5d 53 3f
       -0.2862894 0.29350218 0.9055428 0.82564574
0003b0 ef cc 42 be 53 f0 f8 3d 58 df 0a 3e ee 57 9d 3e
       -0.19023488 0.12155213 0.13561761 0.30731148
0003c0 03 d5 b7 bc 38 4c 0e bf 32 66 d6 3e 49 e7 7e be
       -0.02244044 -0.5558505 0.41874844 -0.24892916
0003d0 65 85 b3 3e 12 0f 9d 3e 0b d5 14 3e 01 10 9a 3e
       0.3506271 0.3067556 0.14534394 0.30090335
0003e0 8f 5e 0f 3d 3f 6d 7b be f4 00 0d 3e 8b 98 da bc
       0.035002287 -0.24553393 0.13769895 -0.026684066
0003f0 b4 1e 12 3d f2 80 ae 3e ca 65 8f 3d 94 58 cb be
       0.035673812 0.34082752 0.070018366 -0.39716017

network_body._body_endoder.seq_layers.0.bias f4 [128]
000000 05 01 7e 3c b8 95 90 bd d1 65 9a 3d ae 62 a7 bd
       0.015503173 -0.070598066 0.07538951 -0.081731185
000010 50 7c c8 3c 7e 30 91 bd 34 12 ae bc 83 7c 69 bd
       0.02447334 -0.07089327 -0.021248914 -0.05700351
000020 cb 77 79 3d b3 72 0a 3e bb 27 c8 bd 4e b8 a6 bd
       0.06090526 0.13520317 -0.09773203 -0.08140622
000030 e2 54 3e bd a2 86 19 bd 5a b1 3c bd 9f 5e 47 3d
       -0.04646767 -0.03748191 -0.046067573 0.048674222
000040 40 36 07 3d 56 cc a0 3b 9d 33 24 3c a1 1c 1e 3e
       0.03301072 0.0049071712 0.010022071 0.15440609
000050 81 47 1b 3d fc 56 15 bd 98 ee 04 bc 25 17 d4 3d
       0.03790999 -0.036459908 -0.008113526 0.10355977
000060 ef 94 07 bd df 79 d2 bd 88 98 e7 bc a4 b6 26 3d
       -0.03310102 -0.10277151 -0.028270975 0.040701523
000070 b9 2b 04 be 5c e4 74 bd a7 26 78 3c 36 db b3 3d
       -0.12907304 -0.059788093 0.015145934 0.087820455
000080 81 8b 6c bd 70 fb 28 3d 36 6e 44 bd db cb 80 bb
       -0.05775023 0.041255414 -0.047956668 -0.0039305515
000090 c2 7e fc 3c b2 44 4d bc 65 e9 9d bd de 21 40 3d
       0.030822162 -0.012528585 -0.07710532 0.0469073
0000a0 42 18 0a bc 9c e1 c1 bd 8d 2f 98 bc 6b 3f 2f 3c
       -0.008428635 -0.0946686 -0.018577361 0.010696272
0000b0 58 d3 47 bc 19 50 31 3c 02 68 1b bb 97 0e a6 bc
       -0.012196384 0.010822319 -0.0023713117 -0.020270629
0000c0 4b bf a1 bd 65 63 db bb ef 44 0d 3d c0 f4 8d bd
       -0.07897814 -0.0066951984 0.03448957 -0.06931448
0000d0 af 4a 1a bd a7 19 3a bc 96 66 b4 3d 7f 37 20 be
       -0.03766888 -0.011358655 0.08808629 -0.1564617
0000e0 fc e8 54 bd c7 24 a5 bd 51 8d a6 3d 19 2d 90 bb
       -0.051980004 -0.08063655 0.08132423 -0.0043999073
0000f0 1d 8c 33 bd 43 f5 61 3d 83 e0 86 bc 33 d0 90 bd
       -0.043834794 0.05516554 -0.016464477 -0.07070961
000100 3b e7 8c bc ae 47 2e bd 70 87 70 bd 18 0a 57 bd
       -0.017200103 -0.042548828 -0.058722913 -0.05249986
000110 d6 d2 4e 3d d5 dc d8 bd 0a dc 18 be d5 fb 9a 3c
       0.050494038 -0.10588995 -0.14927688 0.018918911
000120 8f 22 16 bd 4f fc c3 3b ed 7a 66 3b 9d 97 27 be
       -0.03665405 0.0059810053 0.0035168484 -0.1636643
000130 7a 93 32 bd 3b 96 ac 3d 55 df 49 be 88 59 b0 3d
       -0.043597676 0.08427092 -0.197141 0.08610827
000140 36 49 3d bd 69 96 68 3c 4b fc 8c bd 35 6f ef bc
       -0.046212398 0.014196017 -0.068840586 -0.029227832
000150 ca 48 73 bd 64 28 4f bc 5f 22 ac bc 9f 90 b9 3c
       -0.05939559 -0.012643907 -0.021012483 0.022651969
000160 0e ab 00 bd 1e 38 57 bc c6 62 bc 3d a2 4c cd bb
       -0.03141313 -0.013135938 0.09198527 -0.006265239
000170 38 fc 47 bd 52 55 b1 bd db ca 21 be 2a 8e ea 3c
       -0.04882452 -0.08658852 -0.1580004 0.028632242
000180 a2 0a c0 bd b4 d6 c1 bd 8e f4 09 3d 88 21 ac 3d
       -0.09377028 -0.094647795 0.03368049 0.08404833
000190 64 a2 42 bd 35 74 cb bd e1 9a 70 bd 8f d1 5b 3d
       -0.04751815 -0.09934274 -0.058741454 0.053666648
0001a0 df 7f 3f be dc db fa 3b d1 4e 39 bd 51 23 4e bc
       -0.18701123 0.007655604 -0.04524118 -0.012581662
0001b0 31 3e d9 3d bf f9 e8 bc 8c 13 8d 3c 2b 2d d0 bc
       0.10607565 -0.0284394 0.017221235 -0.025412163
0001c0 60 5a 8d 3d 32 50 6f bc 05 78 34 bd 66 c4 07 bd
       0.06902003 -0.014606522 -0.044059772 -0.033146285
0001d0 f6 a7 ca 3d 77 ee 44 bd 65 b5 86 bc 1b 28 42 39
       0.09895317 -0.04807898 -0.016443918 0.00018516222
0001e0 38 1a 79 bd b9 e6 85 bb 08 82 0d be ca 5b d1 3c
       -0.06081602 -0.004086342 -0.13819134 0.025556464
0001f0 50 29 36 bd fe ed cb bd d8 9c 53 bd 3e ca bc 3c
       -0.044472992 -0.09957503 -0.05166325 0.023045655

network_body._body_endoder.seq_layers.2.weight f4 [128, 128]
000000 76 92 32 bd e5 d0 9b bb 43 d9 69 bd 82 32 e5 bd
       -0.043596707 -0.004755127 -0.057091963 -0.11191274
000010 b0 30 42 be b3 f0 56 3d 7c 36 52 bd b9 1b 4a 3d
       -0.18963885 0.052475642 -0.05132149 0.049342845
000020 58 94 a2 bd 9c 66 d6 3d ed c9 39 bd 5f a4 ca bd
       -0.079384506 0.1046879 -0.045358587 -0.098946325
000030 d6 ab da bd 7d f3 5f 3d b1 f0 cc bd bb 89 60 be
       -0.10677306 0.054675568 -0.10006846 -0.2192754
000040 1a 77 f2 bb 55 05 11 be ca 71 8e bc f0 7f 28 3d
       -0.007399452 -0.1416219 -0.017388243 0.041137636
000050 8d c1 f0 bd dd 59 1a be 2e 83 a4 bd 60 83 72 3d
       -0.11755667 -0.15073343 -0.08032833 0.05920732
000060 67 9f 82 bd f5 a1 fb bd 8f b7 19 bd ab 2b 97 bc
       -0.0637806 -0.1228675 -0.03752857 -0.01845344
000070 46 c3 9d bd e0 47 aa 3c 6e 71 98 bd 6b cc c7 bd
       -0.07703261 0.020786226 -0.0744351 -0.097557865
000080 f3 1a 3e 3d ed db 0a be 8d 03 28 be 2c 0d 04 bc
       0.04641242 -0.13560458 -0.16407605 -0.008059781
000090 7a d1 f6 ba 6c 73 a5 bc b0 e8 0d bd 3c 22 05 be
       -0.001883074 -0.020196639 -0.034645736 -0.1300134
0000a0 e8 7a 80 3d 53 f9 a1 bd f0 d2 86 bc 8e 65 36 be
       0.062734425 -0.07908883 -0.016458005 -0.17812178
0000b0 74 31 b6 bd 02 9a 02 3d a3 a3 ce bc f0 07 88 3c
       -0.08896151 0.031885155 -0.025224512 0.016605347
0000c0 67 fa 46 be f5 5b 43 be 2e 55 85 bd 78 71 20 3e
       -0.19431458 -0.19078048 -0.06510387 0.15668285
0000d0 3f ef b0 bd ea 53 ed bc ef 67 23 be a6 02 f0 bc
       -0.086393826 -0.028970677 -0.15957616 -0.029298138
0000e0 b8 5a 87 3d 66 56 12 3d cd 4f ea 3d bd 71 fa bd
       0.066091 0.035726927 0.11441002 -0.12228725
0000f0 f8 9b 66 3d d8 d6 9b ba 2c 4e 47 be b0 bf 86 3c
       0.056301087 -0.001188959 -0.19463414 0.016448826
000100 0b b1 1d 3e db 53 a0 bc 79 51 4d bc 2a e9 a5 bd
       0.15399568 -0.019571235 -0.012531632 -0.08101113
000110 eb 5d 50 3d c6 07 76 bd d6 57 4e 3d 13 d6 18 bd
       0.050870817 -0.060066007 0.050376736 -0.037313532
000120 fe a1 e1 bd ad d2 7a 3d 58 e4 16 be 3b 75 b0 3d
       -0.11017226 0.061236072 -0.14735544 0.0861611
000130 30 a7 ea 3d 83 56 48 3d 96 df de 3c d7 d6 f6 3b
       0.1145767 0.04891063 0.027206223 0.007532935
000140 ea 32 4e bc 80 3b 81 3d cd 5d 7c 3d 8f 54 e5 bd
       -0.012585381 0.06310177 0.061612893 -0.11197769
000150 20 51 ca bd 1f 7d e0 3c 03 75 64 be 90 ab 7a 3d
       -0.098787546 0.027403412 -0.22310261 0.06119877
000160 77 1f 92 3d 5a 7a 87 3e dc a3 14 be 61 49 84 bb
       0.07134908 0.26460534 -0.14515632 -0.0040370678
000170 61 1c 99 bd cf 02 90 3d 54 a3 c9 bd 07 7e 0a 3e
       -0.07476116 0.07031786 -0.098456055 0.13524638
000180 c6 38 66 3d 38 80 1a 3e d7 bf dd 3d 14 5c 8b 3c
       0.056206487 0.15087974 0.10827606 0.01701168
000190 9a 2d 8f be 51 43 54 3c a6 1f 47 3e b1 96 1f 3e
       -0.2796448 0.012955503 0.19445667 0.15584828
0001a0 dd c9 b1 3d c4 73 a5 bd d2 c3 d5 bd 73 f3 d7 bd
       0.086810805 -0.08078721 -0.104377404 -0.10544481
0001b0 7b c6 3c 3d 3a 82 c6 3d 00 43 2e be 99 56 79 bd
       0.046087723 0.096928075 -0.17017746 -0.0608736
0001c0 34 b0 fe 3c 52 25 83 bd 93 26 ca bc cd e9 a3 3c
       0.03108988 -0.06403603 -0.024676597 0.020008946
0001d0 71 bc b5 3b ec 25 3f be fb 94 24 be ee e8 f4 3d
       0.0055461456 -0.1866681 -0.16072457 0.1195849
0001e0 2a 29 ae bd 09 d6 84 bc 02 ed 7b bd 89 39 18 bd
       -0.08503945 -0.016215341 -0.061505325 -0.037164245
0001f0 8e ec 02 be 7f 8e 49 3d 63 5b 10 3e 70 34 64 3d
       -0.12785551 0.04920816 0.14097361 0.05571407
000200 f7 f6 d8 bd 2c f1 3a 3d 95 93 ed bd 8a 8e 01 bd
       -0.1059398 0.045640156 -0.11600415 -0.031630076
000210 6f 79 80 3d 9e 51 08 3e f8 31 de bd 6b f6 07 be
       0.062731616 0.13312384 -0.108493745 -0.13277595
000220 db e9 a2 3d 45 05 aa bd 14 86 53 be 2c 0f 86 3d
       0.07954761 -0.08301786 -0.20656615 0.065458626
000230 dd ea de bd 4c ff 4c be 9e a8 27 3c 9e 8f 1a 3e
       -0.1088464 -0.20019263 0.010233073 0.15093848
000240 f5 c2 c6 bc 60 b1 84 bb cb 5f dc 3b 75 a0 cd 3c
       -0.024262885 -0.004049465 0.0067252866 0.025100926
000250 7b c4 1d be 55 6d 81 3d b4 f1 2f 3d f5 23 ba 3c
       -0.15406983 0.063196816 0.042955115 0.022722224
000260 e8 eb 6c bd 3e 64 ae 3d ef d4 65 3c f9 1f 9d bc
       -0.057842165 0.085152134 0.014027818 -0.019180285
000270 3f 7a f3 3b 07 b4 4a be b6 99 fb 3d 0a 28 4b 3d
       0.0074303444 -0.19795237 0.122851774 0.04959873
000280 23 50 19 be 83 3f 57 bd 17 bc bf bd 15 04 c3 3d
       -0.14971976 -0.052550804 -0.09362047 0.09522263
000290 93 4a 71 be 94 56 33 3e 97 6b 00 3e a4 07 36 3d
       -0.23563604 0.17513496 0.12541042 0.04444088
0002a0 43 d7 41 be fa 14 5f bc f1 20 71 bc f6 da 87 bd
       -0.18929772 -0.013615841 -0.0147173265 -0.0663356
0002b0 69 c0 de bd e4 ca ab 3b 5e cd 05 bb 76 41 2c 3d
       -0.10876543 0.0052426923 -0.0020416598 0.042054616
0002c0 fc 35 13 be 94 57 ef 3d da 97 16 3d 09 63 7e 3d
       -0.14376062 0.11686626 0.03676591 0.062106166
0002d0 d3 96 17 bc 1b b0 15 bd 49 7a 48 3e 59 27 19 3e
       -0.009252268 -0.0365449 0.19577898 0.14956416
0002e0 94 9b 26 3c 92 52 a9 bd 3c a3 9c bd 53 1e b4 3d
       0.010168929 -0.08267702 -0.07648322 0.087948464
0002f0 1c 58 f7 3d 6e ed d2 bd bf dc 8c bd 94 04 df 3d
       0.120773524 -0.10299192 -0.068780415 0.10889545
000300 47 31 58 be 03 60 ae 3d 59 28 33 be 81 44 ce bc
       -0.21112548 0.085144065 -0.1749586 -0.02517915
000310 5f 7b d9 bd 87 ff 70 3c fa 66 7a 3d b9 2d 8f 3d
       -0.10619234 0.01470936 0.061133362 0.06991143
000320 58 b7 3a be a9 a3 10 be 20 2b 54 3e 76 76 d2 bd
       -0.18234003 -0.14124931 0.20719576 -0.10276501
000330 75 c1 a9 3d b0 6a 02 3e 99 3f 6c bd e2 72 2b 3d
       0.08288852 0.1273601 -0.05767784 0.041857608
000340 cc a2 22 3d a6 55 5f 3c 5f 7e 95 3d 73 bc 47 be
       0.039706036 0.01363126 0.07299494 -0.19505481
000350 00 03 0d be de b9 12 be b4 0c 69 bd e4 f5 9d be
       -0.13770676 -0.14328715 -0.05689688 -0.30851662
000360 68 05 f0 3c 1e f1 44 be b8 b5 18 3e 8a 89 25 be
       0.029299453 -0.19232604 0.1491307 -0.16165748
000370 5f 8d 73 3c e4 b5 48 3d 61 4b 1c be b8 a2 9c bd
       0.014865248 0.04900159 -0.1526313 -0.07648224
000380 9a 6b f7 bd 2f 4f 63 bd a3 5e 29 bd 22 34 14 3d
       -0.1208107 -0.055495437 -0.04135002 0.03618253
000390 ad bd ac 3c 85 73 c6 bd ab 4b dc bd e0 49 84 bd
       0.021086538 -0.09690002 -0.1075662 -0.06459403
0003a0 b8 99 9e 3d 4d e8 0b 3e b8 47 6b bd d7 27 c7 bc
       0.07744163 0.13662834 -0.057441443 -0.02431099
0003b0 c6 65 52 be 0f f6 06 3e 49 e2 be 3d 41 e1 3b be
       -0.20546636 0.13179801 0.09320504 -0.18347646
0003c0 bc e7 17 be 21 92 93 bd db 9c db bc 65 6e 11 be
       -0.14834493 -0.07205606 -0.026808193 -0.14202268
0003d0 85 b9 2d bc a7 7d db 3c 0c b9 25 3e 5e f4 81 bd
       -0.010603313 0.026793314 0.16183871 -0.063454375
0003e0 c4 33 98 3c e9 e5 b0 3d 25 2b e5 bd 39 d7 21 3c
       0.018579371 0.08637602 -0.1118987 0.009877973
0003f0 d1 d3 ce bd be 82 4e 3e 75 6e 92 be 14 35 98 3c
       -0.100989945 0.20167062 -0.28599897 0.018579997

network_body._body_endoder.seq_layers.2.bias f4 [128]
000000 c2 c4 55 bd bd d8 7b 3c 49 5a 3b bc 5b 1c 0a bd
       -0.052189596 0.015371499 -0.0114351 -0.033718448
000010 40 cc e1 ba 0d 18 af 3b 42 c5 44 bd b3 84 4a bc
       -0.0017227009 0.0053434432 -0.048039682 -0.0123607395
000020 d6 e9 62 bd e4 2d 25 3d f5 b4 7f bd 68 21 2f 3d
       -0.055398785 0.040326968 -0.062428433 0.042756468
000030 49 fe 83 bd 74 88 1d bc 6b a6 4c bc 2c 3f fa bb
       -0.064449854 -0.0096150525 -0.012490849 -0.007636925
000040 f8 9f 6a 3c 17 64 b9 3c 48 33 95 bc 98 47 89 3d
       0.014320366 0.022630734 -0.01821293 0.067031085
000050 e6 5e c8 39 d5 c7 74 bd 7a 77 0d bd 39 e9 5e bd
       0.00038217678 -0.059760887 -0.03453777 -0.054421637
000060 ba 18 e7 bc 16 eb e6 3d 0d c4 8f 3c 32 95 97 bd
       -0.028210033 0.11275308 0.017549539 -0.074015036
000070 c4 07 e1 bc 3f 98 c0 bb f7 67 c9 bd ba a1 1e 3d
       -0.027469523 -0.005877524 -0.09834283 0.038728453
000080 20 5b 14 3d 3f 56 51 bd 18 d6 64 3c 74 42 d4 bb
       0.036219716 -0.05110764 0.01396706 -0.0064776484
000090 a0 79 86 bd df 02 f4 3c c3 96 53 bd 92 88 20 bd
       -0.06566167 0.029786525 -0.05165745 -0.039192744
0000a0 da a8 af 3c 75 64 79 3c 92 6a 74 bd a6 47 a1 bc
       0.02144282 0.015221705 -0.059671946 -0.019687485
0000b0 92 fe 9d 3c 08 35 81 bd 6f 0d 42 3c 8a 20 5c 3a
       0.019286428 -0.06308943 0.011844023 0.00083971827
0000c0 5d df 93 3d 88 21 33 bc 7e d7 2b 3d 43 d7 67 3c
       0.072203375 -0.010933287 0.041953556 0.0141504435
0000d0 70 2a 8c bc ad 1c 9e 3c bf 0b 59 bd 37 74 c8 bc
       -0.01711008 0.019300783 -0.052989718 -0.024469478
0000e0 c8 88 04 bd 6c 22 b7 39 ed 11 32 bc 29 22 e7 bc
       -0.032357007 0.00034930126 -0.010868532 -0.028214531
0000f0 28 69 c1 3c 08 16 52 3c c2 95 33 3c 85 bb 8e 3d
       0.023609713 0.0128226355 0.010960998 0.0696936
000100 7d 2f a4 bd 9c 1b ca bc e7 93 8d bd 61 13 4d 3c
       -0.0801687 -0.024671368 -0.06912976 0.012516827
000110 a1 ea 19 3c d9 48 82 3c 0e 72 a4 bb 72 f1 9d bb
       0.009394319 0.015903877 -0.005018479 -0.0048200423
000120 5e 0c f4 3d 51 5b 26 3d 2c c7 37 bc c8 d5 ed 3b
       0.11916421 0.04061443 -0.01121692 0.0072581507
000130 64 5f d3 ba 25 a6 4f bc 6c f9 ce bc 0e 27 19 bd
       -0.0016126451 -0.012673889 -0.025265418 -0.03739076
000140 93 71 72 bd bc 82 90 bc ec e5 17 3a da 1c 4d bd
       -0.059190344 -0.017640464 0.0005794454 -0.050076343
000150 d2 a7 9a bd 4d 83 5b bd 03 08 bf bd 6d d1 8f bd
       -0.075515404 -0.053592015 -0.093277 -0.07022367
000160 89 7f 7e bc 6f d4 48 3c 0f b8 21 3c 41 56 60 bd
       -0.015533336 0.012257679 0.009870543 -0.054769758
000170 1f c6 8f 3c a7 5a 63 bc 51 c0 86 bd 08 84 52 bd
       0.017550526 -0.013876594 -0.0657965 -0.051395446
000180 01 ec 50 bc 79 ca d4 bc 4e d8 87 3c f5 73 b9 bc
       -0.01275158 -0.025975453 0.016582634 -0.0226383
000190 6c 97 15 3b 4d 23 0a 3c 91 cd 35 bc b7 bc f3 bb
       0.002282585 0.008431268 -0.011096374 -0.007438268
0001a0 d0 6d b3 3c 00 b4 96 3d 77 e4 ce 3c 74 06 d8 3c
       0.021902949 0.07358551 0.025255425 0.026370265
0001b0 6f 00 5d bd 35 12 2c 3d ca bc a6 bc 97 1e a6 bd
       -0.05395549 0.04200955 -0.020353694 -0.08111303
0001c0 0d 8d d3 bc 73 a5 71 3a ec 4e 96 bc 1b 56 8f 3c
       -0.025824094 0.0009218074 -0.01834818 0.017497113
0001d0 ff 1d 11 3c bb f2 c9 bd 30 d6 92 3d 23 d5 22 bd
       0.008857249 -0.0986075 0.07169759 -0.039754044
0001e0 9c c6 f6 3b 2a 03 11 3e 42 cd 1f 3d 3f 6b 95 bd
       0.0075310003 0.14161363 0.03901411 -0.07295846
0001f0 8b 9c 0b 3c 9c a3 c8 bd 42 44 60 3d 90 4b 4f bc
       0.0085212095 -0.09796831 0.054752596 -0.012652293

action_model._continuous_distribution.log_sigma f4 [1, 2]
000000 26 d5 50 be df 29 03 be
       -0.2039381 -0.12808941

action_model._continuous_distribution.mu.weight f4 [2, 128]
000000 db 8b 02 bc ad 5c 24 3c a1 df b2 3c cd 07 6a 3c
       -0.007967914 0.010031861 0.02183515 0.014284086
000010 4c d9 15 bc a4 2e 16 bd da e0 99 3c 60 04 af bd
       -0.009146046 -0.036665574 0.018783975 -0.08545756
000020 64 59 7d bc 9f 04 c7 3b d1 d6 68 3c a4 3f 87 3b
       -0.015463207 0.006073549 0.0142113725 0.0041274596
000030 d8 64 14 bd 0f cc fb bc 0a 25 ca 3d 05 8a fc bc
       -0.036228985 -0.030736951 0.09870346 -0.030827532
000040 aa 72 99 3b e8 61 67 bd ae fd c4 bd 72 ae 84 bd
       0.0046828585 -0.056489855 -0.09618698 -0.06478585
000050 c4 e7 80 bd 02 e1 2b bc 7c d9 27 bd e9 23 bf bc
       -0.06294206 -0.010490658 -0.040978894 -0.023332553
000060 95 78 bf 3a fb 81 e4 3c bb 0c 7a 3c e4 b0 a1 3c
       0.001460808 0.02789401 0.015261824 0.019737668
000070 83 9b fb bc 3c 96 47 3c 21 e0 a6 bb 61 80 e9 3b
       -0.030713802 0.012181815 -0.005092636 0.0071258997
000080 8b b2 99 3d 35 98 56 3b 3d 63 38 bd cd 23 0e be
       0.075047575 0.003274453 -0.045016516 -0.13880844
000090 18 8c 3b bc 5c 7f 1d bd cb 8a da bc b3 f7 62 3d
       -0.011446975 -0.038451537 -0.02667751 0.055412006
0000a0 ec a5 7e 3b 37 db 3f 3c fd 29 0e bd 89 b4 3a bd
       0.0038856221 0.01170998 -0.034708012 -0.045582328
0000b0 2f e3 0e 3c 47 1f ce bd 15 e6 c5 3d f9 f1 d9 bc
       0.008721157 -0.100645594 0.09663025 -0.02660464
0000c0 b8 20 2f bc 77 ec fd bd 87 a5 12 3d 95 37 85 bb
       -0.010688953 -0.12398618 0.03580239 -0.004065464
0000d0 1d 89 44 3d 0e 82 1d bd 2f 9c d0 bc 8e c8 d2 3c
       0.047982324 -0.038454108 -0.0254651 0.025730398
0000e0 b1 93 12 3b 3f d5 f8 bb 8f 7a c8 3b aa c4 0c bd
       0.0022365863 -0.0075937803 0.0061181257 -0.03436724
0000f0 e9 ff 10 3d d7 22 62 3d 6f a9 82 bc 76 cb bd 3b
       0.035400305 0.055209007 -0.015949933 0.0057920767
000100 12 ae 3d bc 02 e3 74 bd 51 6b 4e bc 3a 91 3c 3d
       -0.011577146 -0.059786804 -0.012598828 0.046036936
000110 d0 9c bf 3c 3d 4e af 3c d1 7c 59 bd e2 7d 5d bd
       0.023390204 0.021399612 -0.05309755 -0.05407513
000120 ae 8b f8 3c c9 98 2e be 7e d3 84 3d 2b c8 e5 3a
       0.030340042 -0.1705047 0.064856514 0.0017530968
000130 96 14 53 bc 92 df 3f bc d8 e4 3a bc 7e 07 e0 bc
       -0.012883326 -0.011711018 -0.0114071 -0.027347323
000140 37 79 58 3b 12 40 52 3d 54 1b 10 3d 30 7b bf 3a
       0.0033031234 0.051330633 0.035182312 0.0014608856
000150 30 b4 0b bd d5 de 1e 3c 8e da 01 bc 24 ff 83 bd
       -0.034107387 0.009696682 -0.007925643 -0.064451486
000160 e8 e3 1c bd 0c 80 8f bd 16 ac 9a 38 ca 62 b8 ba
       -0.038303286 -0.07006845 7.375346e-05 -0.0014067527
000170 9e fa 80 bc d0 9d 00 bd 9a 40 7b bc 98 66 a9 bc
       -0.015744504 -0.0314005 -0.015335226 -0.020678803
000180 88 7c af bb e4 66 af 3c 84 bf f7 bd d3 29 68 bc
       -0.0053554215 0.021411367 -0.120970756 -0.014170128
000190 a9 82 54 bd ab 53 42 3c 93 51 94 bd ed 8f 69 bd
       -0.05188242 0.011860768 -0.072421215 -0.057022024
0001a0 64 3b 24 3c 34 ff 93 3b 76 15 1b bd b7 1f 81 ba
       0.010023925 0.0045165066 -0.037862264 -0.0009851371
0001b0 f3 e3 01 bd 44 4d 9c 3d 88 e2 86 3d cb e0 4e 3c
       -0.03171153 0.07631925 0.06586176 0.012626837
0001c0 92 2b 81 3c e0 9f b6 bb 38 64 3b bd cf 53 f7 bc
       0.015767846 -0.005573258 -0.045749873 -0.03019133
0001d0 6d 38 e3 bb d0 24 5a 3d f7 81 46 bc c9 b1 9b bc
       -0.0069342167 0.053257763 -0.012115947 -0.019005673
0001e0 ce 07 f6 3b c5 c5 7e 3b fd 0d 47 bc 71 64 58 3c
       0.0075082546 0.0038875204 -0.012149331 0.013207541
0001f0 ef 77 97 bc 1b de cd bb 6b ea de 3c ab 2d bb bc
       -0.018489806 -0.0062825806 0.027211389 -0.022848925
000200 77 f1 04 bd 98 73 0d bc 9a d0 4d bd 49 33 55 bd
       -0.03245684 -0.008633517 -0.050247766 -0.052050862
000210 66 6c 05 3d 7e b2 3a bd dd 30 8e bc 1f 4d 6b bd
       0.03257408 -0.04558038 -0.017357284 -0.057446595
000220 4e 41 d3 bd 5e 4b b6 3b ad 3f 80 bd 94 94 68 3b
       -0.1031519 0.0055631837 -0.06262145 0.003548895
000230 1d 6b 87 bc 7f 8c a1 3b c0 96 95 bc 44 2f 1b bd
       -0.016530568 0.0049300785 -0.01826036 -0.037886873
000240 57 55 14 bc a5 bf 9f bc 37 5a 5b bd 9d 42 0f 3d
       -0.00905355 -0.019500563 -0.053552832 0.034975637
000250 3b 8a b5 bc f9 35 53 bc f8 03 8d bc 5b 9c 5e bd
       -0.02216064 -0.012891286 -0.017213807 -0.05434833
000260 c4 1d 3f bd b7 f7 bc 3c 66 37 0d bd 71 8d 69 bd
       -0.046659246 0.023067338 -0.03447666 -0.057019655
000270 ab 7f f1 3c 9c 7d 4c bd 45 db 8d bd 6d 8c f5 bd
       0.029479822 -0.049924478 -0.06926588 -0.11989675
000280 bb fc b4 bd 7d d2 b1 3d 34 42 53 3c 39 23 c3 3c
       -0.08837267 0.086827256 0.012894202 0.023820506
000290 e3 fa 1c 3b 0a 42 37 bd a0 e1 05 bc 8e c8 27 b8
       0.002395325 -0.044740714 -0.008171469 -4.0002684e-05
0002a0 26 98 02 bc 1e bc 39 bd 8c e7 82 bd 8f af 93 bc
       -0.007970845 -0.04534542 -0.0639182 -0.018028049
0002b0 8e f5 bf bc 19 0e 8c bd 2f 4b 9d 3c b8 37 2e 3d
       -0.02343252 -0.068386264 0.01920089 0.042533606
0002c0 89 85 2b 3d 6b 38 2d 3c be 49 17 bd e7 91 20 bc
       0.041875396 0.010572533 -0.03693556 -0.009800411
0002d0 ec 2c ec bc 3d 32 8f 3c 70 a2 4b 3a 83 fb 39 3c
       -0.028830014 0.01748001 0.00077680405 0.011351469
0002e0 1d 69 89 3a 73 d1 78 bd d0 b7 29 3d c0 19 9c 3b
       0.0010483597 -0.06074662 0.041435063 0.004763812
0002f0 92 a8 27 bd 53 fe 89 bd 04 6e d9 3b c5 75 37 3d
       -0.040932246 -0.067379616 0.0066354293 0.04479005
000300 28 09 43 bd 13 c0 e6 bc 21 a9 82 bd e8 48 94 bc
       -0.047616154 -0.02816776 -0.06379915 -0.01810117
000310 21 8f 47 bc ee 9b 1c 3c 3f 45 7f 3c 55 f1 33 3b
       -0.012180121 0.009558661 0.015580474 0.0027457078
000320 c5 85 2e bc e0 8c 04 3d 4f 0e 35 bd 67 8a e5 3b
       -0.01065201 0.03236091 -0.0442031 0.0070050242
000330 ea f9 d3 3c 6b 4c 82 3d ca fa 6e bd 9b e3 3b bd
       0.025876004 0.06362232 -0.05834464 -0.04587136
000340 2f 96 b9 3a a3 7b 92 bc e7 8d 51 bd 2e 7e 8b bd
       0.0014159138 -0.01788122 -0.05116072 -0.06811176
000350 f5 62 a0 bd 55 bf cd bc 8a 5e 37 bd 47 ad cb bc
       -0.078313746 -0.025115648 -0.044767894 -0.024862899
000360 e6 39 0b bd cc ff 99 3d e0 1d 19 bc 33 73 ea bb
       -0.033990763 0.075194925 -0.009345502 -0.007154846
000370 33 53 ce bc 0d 52 86 3c 47 ab aa 3a c8 65 8e bb
       -0.025186157 0.016396547 0.0013021015 -0.0043456294
000380 04 d1 6b bd 09 9a 22 3d 44 e9 c7 bc fa f6 f2 bb
       -0.05757238 0.03969768 -0.024403222 -0.007414696
000390 75 9a f8 3c ec 83 15 bd 2b 17 ab bc 31 0e 81 bd
       0.030347088 -0.036502764 -0.02088507 -0.06301535
0003a0 d0 58 9d 3c 7e 41 0a 3d 3b d8 2c bd c5 e4 e5 bc
       0.019207388 0.033753864 -0.0421984 -0.028063187
0003b0 40 c9 18 bb 76 f5 99 3c 71 f0 8f bc 7e 9c fe bc
       -0.0023313314 0.018793803 -0.017570706 -0.03108048
0003c0 83 3e 38 bd f3 63 fa 3c 95 13 a6 bc e3 cd 37 3a
       -0.04498149 0.030565238 -0.02027301 0.00070115755
0003d0 a3 2e 18 bc a0 c4 05 bd 3f 8f a9 3d 9a ef cc bc
       -0.009288463 -0.03265822 0.08279275 -0.025016595
0003e0 52 aa b5 3c 5b ad 82 bc c4 3d 06 3c a7 2d 63 bd
       0.022175942 -0.015951803 0.008193437 -0.05546346
0003f0 b4 27 e3 bb fc bb 23 ba 7b ef 68 3d 70 b7 85 3c
       -0.006932223 -0.00062459684 0.05686901 0.016322821

action_model._continuous_distribution.mu.bias f4 [2]
000000 f1 43 71 bc 50 04 c8 bc
       -0.014725671 -0.024416119

action_model._discrete_distribution.branches.0.weight f4 [3, 128]
000000 18 7b b2 bc 26 b4 f5 3d d2 44 a3 bd da 0e af 3b
       -0.021787211 0.11997251 -0.07972111 0.0053423466
000010 b2 f9 93 3b 9c 55 bf 3c d5 94 b0 3b 73 49 a2 3b
       0.00451585 0.023356251 0.005388836 0.0049526035
000020 87 68 f0 3c e9 0a fa 3c b4 eb ef bc 36 fe fa 3d
       0.029346718 0.03052278 -0.029287197 0.12255518
000030 fc 5e 9d bc 25 25 20 3e 53 95 c3 bd 29 9c 61 bb
       -0.019210331 0.1563917 -0.09549966 -0.0034425354
000040 c1 ea be 3d e0 19 98 3b 8c 08 9f 3d bf 55 07 bd
       0.093221195 0.0046417564 0.07765302 -0.03304076
000050 a8 d7 15 39 4d c5 85 bc d8 a0 23 bc fd e4 18 3d
       0.00014290086 -0.016329432 -0.009987079 0.037327755
000060 a3 1f fa 3b 05 ca 61 3e c1 99 5a bd 2e 4c af 3d
       0.007633166 0.2204972 -0.053369287 0.08559452
000070 e5 31 bc 3d 14 46 2a 3d 04 4f c8 bc d6 87 9f 3d
       0.09189204 0.041570738 -0.02445174 0.077895805
000080 a6 0d 24 bd 8c d0 5b 3d d5 00 2e bc d8 84 0d bd
       -0.04005208 0.053665683 -0.010620316 -0.034550518
000090 e3 6b 01 3d 21 e6 ab 3d 47 62 9d 3c 7e de 83 3d
       0.03159703 0.08393503 0.019211901 0.064389214
0000a0 72 55 97 bd dd 1b 41 3b ca a1 8c 3d 75 a0 1a bd
       -0.07389344 0.002946607 0.06866796 -0.03775068
0000b0 13 97 3d 3c 5d 36 25 3d 66 2c 2b 3d e9 ba 37 3c
       0.011571663 0.040335048 0.04179039 0.011213996
0000c0 f8 5b 05 3e b1 5b 3d 3a 18 64 9a 3d ca e2 0f bd
       0.13023365 0.0007223441 0.075386226 -0.035128392
0000d0 9c 77 92 3d f5 08 ca 3d a0 53 51 bd 9a b3 f4 3c
       0.0715172 0.0986499 -0.05110514 0.029870797
0000e0 46 3a 35 bc 94 a9 29 3e 1a bd 23 3b 12 5c fe bc
       -0.011061257 0.16568595 0.002498454 -0.031049762
0000f0 9c 99 96 bd a5 e7 13 3c 6c 6c d7 3d c5 83 fb 3d
       -0.073535174 0.009027396 0.10518727 0.122809924
000100 a1 30 96 3c 9d 92 bb 3d c6 71 a8 3d b7 e3 a9 bd
       0.018333735 0.09158824 0.082248256 -0.08295386
000110 33 7f d9 3c 2e 6b ef bb cf f0 35 3c 67 00 cf bb
       0.026549911 -0.007306478 0.0111047765 -0.0063171866
000120 d9 e0 e6 bd c4 66 e5 3c 93 c0 10 bb ee e5 01 bd
       -0.11273355 0.028003104 -0.002208744 -0.03171342
000130 b9 23 ba 3d ca 5a 5a bd 1e 55 81 3d 01 90 54 bd
       0.09088845 -0.05330924 0.06315063 -0.051895145
000140 f1 ee a1 bc 86 4f 97 ba 3a 04 ab bb 9d 38 2e 3d
       -0.019767256 -0.0011544086 -0.0052190097 0.04253446
000150 a1 2f 97 3c cf a7 51 3d df 6d 14 bd 75 0c 28 3d
       0.018455328 0.051185425 -0.036237594 0.041027505
000160 ff 7b 27 3d 97 61 b3 bc 12 7a 90 bb dc ea 97 3c
       0.040889736 -0.02189712 -0.004409083 0.018544607
000170 71 ae 35 3d 80 77 14 3d 4b 49 7c 3d d1 bf 9a bc
       0.044355813 0.036246777 0.061593335 -0.018890293
000180 bf 20 c1 3d 01 71 b4 bc 81 58 28 bd 20 1c ab 3d
       0.09430074 -0.02202654 -0.04110003 0.08354974
000190 d8 3f 8f bc 6f 7a 18 3e b5 57 37 3d 22 35 3a 3d
       -0.017486498 0.14890455 0.04476138 0.045460828
0001a0 5b d7 55 bc 10 e4 2c 3e de 30 4c ba 68 17 2c 3d
       -0.013051833 0.16883874 -0.0007789264 0.04201451
0001b0 0b f4 18 bd c7 f7 d6 bd c7 c3 4e 3d ab 48 98 3c
       -0.037342113 -0.104964785 0.050479677 0.018589338
0001c0 5f f4 7c bc 9c 07 e0 3d ae 6d 6b bd 47 b0 5f 3c
       -0.015439122 0.109389514 -0.057477646 0.013652868
0001d0 d3 cd fc 3c cc a2 8c 3d a9 5c be 3d 0a f9 bb bc
       0.030859863 0.068669885 0.09295017 -0.0229459
0001e0 20 23 09 3e 30 32 28 bc a5 6b 09 3e b2 27 72 3c
       0.13392305 -0.010265872 0.1341997 0.014779972
0001f0 0d fc 43 3d 29 38 1e 3d be ce a9 bc 0d e7 f7 3d
       0.047847796 0.038627777 -0.020728465 0.12104616
000200 55 8a d2 3d 4a 3c dc bd 3f ca c3 3d 93 49 e0 3b
       0.10280291 -0.10753687 0.0956006 0.006844708
000210 c8 f1 f2 bc 48 f0 1a 3d 62 1b 01 be b3 94 0e 3d
       -0.029656306 0.037826806 -0.12608102 0.03480978
000220 ed bf 32 3d 28 1c eb 3b 5b b5 a0 3d 39 c0 39 bd
       0.043640066 0.0071749873 0.07847091 -0.045349333
000230 22 db 77 3d 4e 49 42 bc 25 a8 67 3d 6c 91 1d bd
       0.060511716 -0.0118582975 0.05655684 -0.038468763
000240 1a b3 a1 bd 5d 61 36 3c 99 34 0c 3d 47 c4 0b 3d
       -0.07895489 0.011131612 0.03422985 0.03412273
000250 2e 99 a5 3c 40 8f 8b 3d 8f c4 00 3d 67 f8 0e 3d
       0.020214643 0.06814432 0.031437453 0.034904864
000260 af 08 84 3d 58 8b 0c be 19 c1 c5 3c 0f 91 6a bd
       0.06446969 -0.1372503 0.024139928 -0.057267245
000270 70 7f b4 3d 07 0d 8a bb 0f 61 31 3d 4f be 95 3d
       0.08813369 -0.0042129788 0.043305453 0.07311689
000280 ce e6 b8 bc c4 23 9a bb b7 3e 5f bd 68 08 64 3d
       -0.022570994 -0.0047039706 -0.05450317 0.05567208
000290 98 60 8c 3d e9 cb 5e bd a9 0c 40 3d 11 9d 0f bd
       0.06854361 -0.054393683 0.046887074 -0.0350619
0002a0 c7 bd 76 ba 9c d0 fe 3d db 8d 23 bc 2b 47 d8 3c
       -0.00094124343 0.12442133 -0.009982551 0.026401123
0002b0 5e 6a 6e bd 66 c3 06 3e 4f 81 a4 3c 6a db 84 3d
       -0.05820691 0.13160476 0.02008119 0.064871624
0002c0 a4 f2 59 bc 2e c7 50 3d 6a e4 23 bd 38 91 be 3c
       -0.013302479 0.050971203 -0.040012754 0.023262605
0002d0 ec c4 86 39 f3 4a ee 3a f0 46 81 3d 50 06 df 3c
       0.0002570519 0.0018180296 0.063123584 0.02722469
0002e0 e4 f4 86 3d 17 5f d2 bd 0c 5f 3c bd f7 08 1c 3e
       0.06589678 -0.10272043 -0.04598908 0.15237795
0002f0 93 67 19 bd 19 5a 70 3d 0d e4 bb bd 5c 3f 3e bd
       -0.03745229 0.058679674 -0.091743566 -0.046447143
000300 1e e9 b4 3c ff 08 85 bd 93 99 df 3c 63 fe 0c 3d
       0.022083815 -0.064958565 0.02729491 0.03442229
000310 14 fa fe 3b 50 e3 ef bc 08 19 16 bd c0 aa 97 bb
       0.0077812765 -0.029283196 -0.036644965 -0.0046285093
000320 c1 13 9c 3d 0e f0 1f 3d 82 bc 8d 3d 2e ec bd bc
       0.07620955 0.039047293 0.06920721 -0.023183908
000330 d6 5d 68 bd e6 3e 99 bc ee 7a f7 3c c1 4a 11 3d
       -0.056730114 -0.01870675 0.030209985 0.03547168
000340 94 04 d7 bd 80 92 22 bc 7d 00 8d 3d 00 02 87 3d
       -0.1049892 -0.009922624 0.06884859 0.06592178
000350 30 fc cf 3c 67 96 30 3d 50 1d 7d 3d 88 c4 80 3d
       0.025388807 0.043112185 0.061795533 0.06287485
000360 30 07 0c bd e1 c1 97 3d 65 c9 88 3d 00 f3 25 3d
       -0.034186542 0.07410026 0.06679038 0.040514946
000370 ac 53 41 bd 35 31 3a bc fd ae e7 3d 2d 02 14 3d
       -0.047198936 -0.011364271 0.11312673 0.036134887
000380 b3 a1 80 3c e8 c4 08 bd a1 d4 cf 3c 32 52 1c be
       0.015702104 -0.03339091 0.025369944 -0.1526573
000390 94 72 20 bd 7a b7 19 bd 4e 78 13 3d 3c 76 55 3d
       -0.03917177 -0.037528493 0.036003403 0.05211471
0003a0 06 18 6a 3d 0c ef ce bd 7f 33 96 b8 32 e9 8f be
       0.057151817 -0.10104188 -7.162149e-05 -0.281076
0003b0 ee 42 9b 3d b7 b2 ea 3c 54 c5 0c bd 61 13 2c 3c
       0.07581125 0.028649671 -0.034367874 0.010502667
0003c0 8a 59 ce 3d 32 ab 63 3c 58 0c 9f 3c f4 2b 94 bd
       0.10075672 0.013895797 0.019415066 -0.07234946
0003d0 53 d3 01 bd 52 e3 52 bc 2b 9b a3 bc 67 39 1e 3c
       -0.031695675 -0.01287158 -0.01997145 0.0096572405
0003e0 22 3e 9d bd ba c8 c5 3c 95 6c fe bd 94 40 56 3d
       -0.076778665 0.024143565 -0.12423054 0.05230768
0003f0 06 41 96 3c ca 08 55 bc 0a bd 4d 3d 0a 79 d3 bd
       0.018341552 -0.013002584 0.05022911 -0.10325821

action_model._discrete_distribution.branches.0.bias f4 [3]
000000 6f 5c 61 3c 59 97 b9 3c 74 f9 03 bd
       0.013754948 0.022655176 -0.03222032

action_model._discrete_distribution.branches.1.weight f4 [2, 128]
000000 b9 e2 85 bd 27 2a 02 be 89 97 46 bd c1 b1 06 bd
       -0.065373845 -0.12711392 -0.04848436 -0.032884363
000010 aa 8f 46 bd 04 5c 36 3d 38 a1 89 3b d2 0d 7d 3d
       -0.048476852 0.044521347 0.004200127 0.06178076
000020 f1 42 b0 bc c7 0b 92 bc 90 35 9f 3d b5 fd 50 3c
       -0.021516295 -0.017827882 0.07773888 0.012755801
000030 ed 99 0e 3d 9c 51 c9 bc 9d df bb 3d 1f a7 2e bc
       0.034814764 -0.024575047 0.0917351 -0.010659962
000040 fd 6b 89 3c 82 9a b4 3d b1 97 fe bb ce 05 dc 3d
       0.016775126 0.088185325 -0.007769548 0.10743295
000050 d5 a1 93 3c e3 f4 6c bb d4 1a 8a 3d 83 e4 46 bd
       0.018021503 -0.0036156706 0.06743398 -0.04855777
000060 78 27 6e 3d 40 6a eb bd 5d c0 98 bc e4 92 ef 3b
       0.05814311 -0.11494875 -0.018646413 0.007311212
000070 95 98 9b bd a3 74 3f bd ae 2d 95 bc 62 2b 0f be
       -0.07597462 -0.046742093 -0.018210258 -0.13981393
000080 e9 c5 93 3b 2c ee ea bb e9 d6 a3 bc 22 37 43 3d
       0.0045096767 -0.0071695056 -0.019999938 0.04766
000090 2a 99 be bc 2f d8 04 bc b8 ba 21 bc e2 2c 2f 3c
       -0.023266394 -0.008108183 -0.009871177 0.010691853
0000a0 a8 5f de 3c 9c 7c f1 ba 21 76 de 3c 4a 37 5a bb
       0.027145222 -0.0018423977 0.027155938 -0.0033297115
0000b0 1f b0 06 bd 98 19 42 bd 58 be 15 3d 47 07 3d 3d
       -0.032882806 -0.04738769 0.03655848 0.04614952
0000c0 5a 12 8c bd 8e 22 28 3d 18 5a 29 bd d6 cb 10 bb
       -0.06839438 0.04104858 -0.041345686 -0.0022094152
0000d0 7b 70 bc bb f4 54 c4 bd 2b 0d 7b bc 0a 7d 1e ba
       -0.0057507134 -0.09586516 -0.015322964 -0.0006045854
0000e0 21 dd 46 3d 59 53 a7 bd 35 de ae bd a2 90 9a bd
       0.04855073 -0.08170194 -0.085384764 -0.07547118
0000f0 dd 9c 2a 3d 30 eb b8 bc 77 ef 38 bd 7f 30 ee 3c
       0.041653503 -0.022573084 -0.045150246 0.02907586
000100 44 f5 dc bc 2d 90 1d 3d 37 81 0f bd 8b b1 09 3d
       -0.02697242 0.038467575 -0.03503534 0.033616584
000110 ca a6 a4 39 6e b6 e7 3c 48 32 17 3d 6e 39 50 3d
       0.00031404785 0.028285231 0.036913186 0.05083602
000120 8a e3 c6 3c 38 6a 25 3c 45 f1 99 3c 57 c8 8e bc
       0.024278421 0.010096125 0.018791804 -0.017429514
000130 bb 1b cc bd 24 f6 4d 3c 10 c8 c2 bd 7f e0 33 bb
       -0.09966227 0.0125708915 -0.09510815 -0.0027447043
000140 da d4 10 3d fc a4 16 3d 77 32 cf bc 50 6c 8f 3d
       0.03535924 0.036778435 -0.025292618 0.07003081
000150 ef a4 94 bc cf df 23 bd 5d 5f 10 bd ae a2 eb bc
       -0.018145053 -0.040008362 -0.035247196 -0.028764095
000160 24 c1 05 3a f3 25 85 ba cf a1 c0 bc 47 8a d8 bc
       0.00051023276 -0.0010158404 -0.023514656 -0.026433123
000170 b2 a1 27 bd d4 e9 37 be 65 b1 92 3c d0 9f f2 bb
       -0.04092569 -0.17960292 0.017906854 -0.007404305
000180 65 4a af bb ca 9f 5e 39 77 1c 6b 3d 9d 2f 3a bd
       -0.0053494447 0.00021231096 0.057400193 -0.045455564
000190 6c 5e 37 bc 15 77 ab bd d5 4a 67 bc 68 41 2e bd
       -0.0111919455 -0.083723225 -0.014116962 -0.042542845
0001a0 e3 c4 fb bc 16 73 f1 bc f7 5c b8 3c ab 08 5c 3c
       -0.030733531 -0.029473823 0.022505267 0.013429801
0001b0 d5 f6 ac bd 89 01 c7 bd b7 31 9a bd 2d 58 6b 3d
       -0.08445517 -0.0971709 -0.075290136 0.057457138
0001c0 8c fc 0d 3d fe fd 01 bd f7 3a c6 bb 26 f3 0b be
       0.034664676 -0.031736366 -0.0060495096 -0.13666973
0001d0 8b 84 26 bd ca f1 3c bd de 7f a0 bd f2 14 88 3d
       -0.040653747 -0.046129026 -0.07836889 0.0664462
0001e0 cf 6c 4d bd 03 71 86 bd ee 06 2b bd 8c a6 41 3d
       -0.050152596 -0.06564524 -0.041754656 0.047277972
0001f0 cc 78 16 bd ef 58 59 b9 ac 80 23 3d ff b2 79 bd
       -0.036736295 -0.00020727863 0.039917633 -0.06096172
000200 d6 73 96 3d 11 b9 01 3e da df 45 3d 44 81 5b 3d
       0.07346313 0.12668253 0.048309185 0.053590074
000210 8b 35 6a 3d 27 1d c2 bc 9d 78 e9 bb 2e 38 ac bd
       0.05717997 -0.023695542 -0.007124974 -0.08409153
000220 e0 bd 4f 3c 2e 3d 86 3c 08 81 89 bd 4f 47 c2 bb
       0.012679547 0.016386595 -0.06714064 -0.005928911
000230 12 73 85 bc 9a 4d c9 3c 7d 46 c0 bd 0d 49 25 3c
       -0.016290221 0.024573136 -0.093884446 0.010088217
000240 c6 2d fc bc 37 4b ad bd 57 4e 28 3c d5 76 d9 bd
       -0.030783545 -0.08461612 0.010272584 -0.106183685
000250 9f 49 bd bc 97 b6 5b bb a9 e9 5b bd 90 28 3d 3d
       -0.023106394 -0.003352558 -0.053689633 0.04618126
000260 1b 08 2a bd 2d 39 e1 3d bf fe 04 3d b1 a4 11 bb
       -0.041511636 0.109972335 0.032469507 -0.0022223408
000270 b1 2d 9c 3d c1 2e 65 3d e6 15 67 3b 2c d0 e9 3d
       0.076259024 0.05595279 0.0035260855 0.11416659
000280 98 67 9b bc 30 7d 8d 3c ac 0b 7c 3c b4 c5 8c bd
       -0.018970296 0.017271608 0.015383642 -0.068736464
000290 2d d1 77 3c 4e 85 06 3c eb 7e 48 bc 72 06 5a 3c
       0.015125555 0.008210493 -0.012237291 0.013307201
0002a0 e5 bd 0b bd a6 06 e7 3b 08 24 a7 bc f3 ac 8b bc
       -0.034116644 0.007050353 -0.020402923 -0.017050242
0002b0 84 34 76 3c 2a b8 08 3d 8f 56 af bc a1 ad 62 bd
       0.015027169 0.033378758 -0.021403579 -0.055341367
0002c0 e1 2b a0 3d a5 6c 73 bd c9 cc 70 3d 16 f1 9e bb
       0.07820869 -0.059429783 0.05878905 -0.004850517
0002d0 2c ea 3c 3a 4f 36 b4 3d a1 0e 30 3d c3 1f 56 3b
       0.0007206525 0.08799421 0.0429827 0.003267274
0002e0 79 ff 36 bd 70 14 94 3d fe 0c 91 3d 24 93 b6 3d
       -0.04467723 0.07230461 0.07082556 0.089147836
0002f0 1c bf 4d bd c5 7f d5 3c 59 86 66 3d 97 ad 97 bc
       -0.050231084 0.026061902 0.056280468 -0.018515391
000300 87 d6 0d 3d 6c a1 11 bd b6 2c 8d 3c 93 30 0d bd
       0.034628417 -0.035554335 0.017233234 -0.034470152
000310 f2 ff 98 bb ea 33 b8 3b 20 29 1f bd 25 8e 6e bd
       -0.004669183 0.005621423 -0.03885758 -0.05824103
000320 aa de 13 bd 63 5d e3 bc ee 8d a8 bc 96 12 a9 3c
       -0.03610102 -0.027754491 -0.02057549 0.020638745
000330 9f e1 a1 3d 5d f7 7a bc fd ee ca 3d f5 89 97 3c
       0.07904362 -0.015317765 0.09908865 0.0184984
000340 7b e2 25 bd 92 d5 9e bc 8b 34 ed 3c 5d a9 70 bd
       -0.04049919 -0.019388948 0.028955719 -0.058755267
000350 b1 1e 8e 3c d2 e4 4a 3d cf 61 de 3c f8 c8 d2 3c
       0.01734862 0.049534626 0.027146248 0.025730595
000360 9b 58 b4 3a 10 64 23 3b 0d 2b f6 3c bf 67 d9 3c
       0.0013759317 0.0024931468 0.030049825 0.026538728
000370 43 dd 3d 3d 91 b8 3a 3e 19 02 23 3b c6 f6 8a 3a
       0.04635359 0.18234469 0.0024873076 0.0010602109
000380 dd 2c 97 bb a2 6f 3e bb 21 d2 89 bd 36 fc 66 3d
       -0.0046135024 -0.0029058238 -0.06729532 0.05639287
000390 2a 95 af 3b 6d 95 b6 3d 0a b1 42 bb 2a 61 36 3d
       0.005358358 0.089152195 -0.0029707574 0.044526257
0003a0 39 d6 58 3d f4 58 3f 3d df 29 ef bc 5e e0 90 bc
       0.052938674 0.04671569 -0.02919477 -0.017685112
0003b0 09 22 97 3d 9c 23 ae 3d 6c 77 d2 3d d3 d3 81 bd
       0.073795386 0.08502886 0.10276684 -0.063392304
0003c0 87 c7 3a bd a9 3d 30 3c 78 d3 e1 3c 04 91 f8 3d
       -0.04560044 0.010756888 0.027566656 0.121370345
0003d0 ba 74 49 3d b0 cf 17 3d cc 64 9b 3d 7a 4b 74 bd
       0.049183585 0.0370633 0.07587585 -0.059642293
0003e0 cb 4a 83 3d 23 fc 95 3d 45 09 00 3d 57 71 4a bd
       0.0641075 0.07323482 0.03125884 -0.049424496
0003f0 fb 1a 70 3d 8d 55 83 3c ae 5a 25 bc 2b 6e 28 3d
       0.05861948 0.016032005 -0.0100924205 0.04112069

action_model._discrete_distribution.branches.1.bias f4 [2]
000000 d9 fd b9 bd d3 fd b9 3d
       -0.09081621 0.09081616

action_model._discrete_distribution.branches.2.weight f4 [2, 128]
000000 e0 77 0d 3e f8 0f b2 bb 98 5f 9a 3c 23 40 46 bc
       0.1381526 -0.0054340325 0.01884441 -0.012100252
000010 77 5e 7e bc 3b 47 07 3e 02 0d b4 3d 22 4a 09 3e
       -0.015525452 0.13210766 0.087915435 0.13407186
000020 a6 f3 64 3d d2 11 7f bd b0 72 e6 3d 69 c9 05 3d
       0.055896424 -0.062272854 0.11252344 0.032662783
000030 31 68 e8 3d 78 52 45 3d 81 61 0b 3d dd 75 a4 3d
       0.11347998 0.04817435 0.034028534 0.08030293
000040 64 49 16 3d 4e 5f 13 3c 0c bc 49 3d dd a6 59 3d
       0.036691085 0.00899489 0.0492516 0.05313765
000050 79 84 ec 3c 83 f3 c1 bd 51 78 12 3e 7a 0d b5 3b
       0.028871762 -0.09470274 0.1430371 0.005525288
000060 dc df 23 3e 63 63 54 bd 0f a8 cc 3c f6 f4 5c 3d
       0.16003364 -0.051852595 0.02498248 0.05394455
000070 48 e4 9b 3d d1 6d a1 bb 34 ae 3e 3d 15 6b 0a 3e
       0.076119006 -0.004926421 0.04655285 0.13517411
000080 57 10 2e 3d b5 62 bf 3c 43 a9 bf bc 22 02 28 3e
       0.04249605 0.023362497 -0.02339614 0.16407064
000090 31 94 8f bb 9a 58 00 3d 90 ad f2 3c 8a 6a 98 3c
       -0.0043816795 0.031334497 0.029623777 0.01860549
0000a0 6f 10 95 bc 3d a0 07 3d 4b db e9 bc 86 97 77 bd
       -0.018196313 0.0331118 -0.02854695 -0.06044724
0000b0 ec 77 c8 bc 74 8d a1 3d 7f 28 0b 3e 17 56 e3 3d
       -0.024471246 0.07888308 0.13589667 0.11100405
0000c0 03 c1 33 3d 1d 83 88 bd 41 08 0a 3d 91 1d cd 3d
       0.043885242 -0.06665633 0.033699278 0.10015405
0000d0 b8 25 9a 3b dc 0a a1 bc 18 70 53 3d f3 e6 1a bd
       0.0047042035 -0.019658498 0.051620573 -0.037817907
0000e0 39 3a c2 bd 2b f5 a2 3d dd fe 88 3b 64 e7 81 3d
       -0.09483761 0.07956918 0.0041807727 0.063429624
0000f0 44 a1 57 bd 99 24 8b 3d d9 e7 5e bd 7d ff a9 3d
       -0.05264403 0.0679409 -0.054420326 0.08300684
000100 c1 b5 94 3c cf d4 c2 3d c9 2b 26 3d b5 d1 8e bd
       0.018153073 0.09513246 0.0405691 -0.06973592
000110 da 57 77 3c b1 a0 95 bc 0b 04 80 3d 10 f9 eb 3d
       0.015096629 -0.0182651 0.06250771 0.11522114
000120 11 f2 91 bd a1 5f 99 3d 18 ea 9a 3d 71 83 03 3d
       -0.07126249 0.07488943 0.07564181 0.032107774
000130 d8 7f ab bd f7 7b 57 3d bd df 20 3d b0 3a 14 bd
       -0.08373994 0.052608456 0.039275873 -0.03618878
000140 f1 94 aa 3d cb c6 8d 3d c6 b6 c8 3d 86 71 87 3d
       0.083291896 0.069226824 0.09800486 0.0661345
000150 4a e3 69 bd 47 8a d4 3d 34 40 53 be a0 64 29 3e
       -0.057101525 0.10377937 -0.2062996 0.16542292
000160 2b 15 38 3c 64 27 27 3d c2 1c 4f bc 2c 92 e7 3c
       0.011235516 0.04080905 -0.012641134 0.028267942
000170 3a dd 9c bc f3 56 e9 bc 0d c4 fd 3d f7 e5 12 bd
       -0.019148458 -0.028483843 0.12390909 -0.035863843
000180 2e 0a fb bc e1 80 8d bd aa a2 2d 3d 5a d2 0a 3c
       -0.030644502 -0.06909347 0.042391457 0.008473003
000190 d5 79 91 bc 26 dd df bc 2a dc 3c 3d a9 ec 68 3d
       -0.01775829 -0.027327131 0.046108402 0.05686632
0001a0 ca f0 8a bc 1f 5a f9 3c 0e 04 1d 3e f7 11 32 bb
       -0.01696052 0.03043848 0.15333578 -0.0027171352
0001b0 c8 60 d9 bb 33 2d db ba 30 20 68 3d 67 b4 52 3d
       -0.0066338517 -0.0016721844 0.05667132 0.051441576
0001c0 a6 60 0e 3d f6 d2 8c 3d 06 bb 29 3c d0 90 35 bc
       0.03476014 0.06876175 0.010359531 -0.011081889
0001d0 0a 1d e6 bc 83 07 c3 3c 3f f5 31 bd 1a 5e 47 3e
       -0.028090019 0.023807293 -0.043446776 0.1946949
0001e0 fb 55 01 3c a0 86 32 be 83 8c 93 bd b4 c4 65 bd
       0.0078940345 -0.17434168 -0.07204535 -0.056095794
0001f0 2a 41 0f be 21 6f af bb f2 3f 7d 3d 2e 93 55 bd
       -0.13989702 -0.005353824 0.06182856 -0.052142315
000200 10 c9 0d be d3 1f 49 3b b2 45 bc bc 4d 82 1d 3c
       -0.1384623 0.0030689135 -0.022982452 0.009613586
000210 db 91 7d 3c bf cf eb bd 91 b1 b2 bd de 02 09 be
       0.015476669 -0.11514234 -0.08725274 -0.1338
000220 fe 71 32 bd d6 dc ae 3d 30 a0 fd bd 24 2e 00 bd
       -0.043565743 0.08538215 -0.12384069 -0.031294003
000230 2d d4 b5 bd 5c 21 43 bd d7 a0 26 bd b0 17 8d bd
       -0.0887836 -0.047639236 -0.040680733 -0.06889284
000240 1f ea 06 bd 5f 8b 15 bc 4d 35 46 bd b5 8b 99 bd
       -0.03293812 -0.009127467 -0.048390675 -0.0749735
000250 dc ca 25 bd 82 06 b4 3d 2d 6c 17 be 50 1e c8 3b
       -0.040476665 0.08790304 -0.1478736 0.006107129
000260 e6 99 24 be cc d2 02 3d ff 8b c5 bc 01 71 95 bd
       -0.16074333 0.031939313 -0.024114607 -0.072969444
000270 54 9c 9a bd a1 65 c6 3c 0e 09 6d bd 1b 61 0b be
       -0.075493485 0.024218382 -0.057869963 -0.13611262
000280 d4 ea 2c bd 4b 84 0d bd f7 ac d5 3c 24 cb 34 be
       -0.042216137 -0.034549993 0.026083453 -0.17655617
000290 6e 1e b2 ba 13 2c e1 bc a1 5b 93 bc 18 96 9a bc
       -0.0013589391 -0.027486837 -0.017988028 -0.018870398
0002a0 29 56 ae 3b a4 12 17 bd d0 6b 9f 3c 3c ef 8d 3d
       0.0053203297 -0.03688301 0.019460589 0.06930396
0002b0 72 ba 9f 3c 61 a6 8c bd cd 14 31 be 91 ca 01 be
       0.019498084 -0.06867672 -0.17293091 -0.12674929
0002c0 15 da 55 bd 81 30 31 3d 8a ff 0b bd 84 d8 e7 bd
       -0.052209932 0.043259148 -0.034179248 -0.11320594
0002d0 a0 1b f4 bb 36 ce 81 bb 36 64 fb bc 67 b0 18 3d
       -0.007449582 -0.00396135 -0.030687433 0.037277605
0002e0 bc 70 8a 3d 67 37 b1 bd ba 4a 9f 3b 2a 77 cd bd
       0.067597836 -0.08653145 0.004861203 -0.10032494
0002f0 2c d4 49 3d 1f dc 9a bd 6a 5d 4d 3d 7c 97 83 bd
       0.04927461 -0.07561516 0.050137915 -0.06425378
000300 33 65 cb bc 97 2b a3 bd d1 93 12 bd a8 24 5b 3d
       -0.024828529 -0.079672985 -0.0357855 0.053501755
000310 37 da 16 bc 86 3f 43 bc 41 5b 8c bd 5c 60 e3 bd
       -0.0092073 -0.011917001 -0.06853343 -0.111023635
000320 14 02 81 3d 2a 43 8b bd f4 a5 95 bd dd 82 7e bd
       0.062992245 -0.0679992 -0.07307044 -0.06213652
000330 27 e5 f7 3d 2f 4d 64 bd 8f 2d a1 bc fa 51 14 3d
       0.12104254 -0.05573767 -0.019675044 0.03621099
000340 1e e8 c1 bd f5 54 92 bd 7d eb cb bd 72 88 84 bd
       -0.09468101 -0.071451105 -0.09957025 -0.064713374
000350 44 16 86 3d 06 4c e9 bd 33 0f 49 3e 99 86 2b be
       0.065472156 -0.113914534 0.19634704 -0.16750564
000360 2e 6b 62 3b a6 41 20 bd 30 44 42 3d 44 5f d9 bc
       0.0034548747 -0.039125107 0.04742831 -0.026534684
000370 ce 78 77 3c 49 2e 3b 3b 35 03 f3 bd 8d 61 de 3c
       0.015104486 0.0028561524 -0.11865846 0.027146125
000380 2a f4 4b 3d 9c b0 66 3d 6c 25 1a bd 3b af e2 bc
       0.0497934 0.05632077 -0.037633345 -0.027671447
000390 68 3b 5b 3b 0c a4 fd 3c cb ad df bc 16 7a 83 bd
       0.0033452157 0.030962013 -0.02730455 -0.064197704
0003a0 b1 5a d4 3b 29 b2 1b bd 81 2d 19 be 97 7b 36 bc
       0.006480538 -0.038011704 -0.14958765 -0.011137865
0003b0 0e 94 49 3c 0c 99 af 3b 47 a8 80 bd 11 5b 84 bd
       0.012303365 0.005358821 -0.06282096 -0.06462682
0003c0 76 70 d6 bc f4 12 b2 bd 91 f0 85 bb 77 ff 47 3b
       -0.026176672 -0.08695021 -0.0040875156 0.003051726
0003d0 59 32 01 3d 69 bc df bc ec 9c 42 3d e1 80 4c be
       0.031542156 -0.02731152 0.047512934 -0.19971038
0003e0 5b 28 10 bc be dd 38 3e 54 c8 8e 3d 5b 89 8f 3d
       -0.008798684 0.18053338 0.06971803 0.0700862
0003f0 32 29 03 3e fe 29 87 3b 7f 72 66 bd bc 18 6d 3d
       0.12808684 0.004124879 -0.056261536 0.057884917

action_model._discrete_distribution.branches.2.bias f4 [2]
000000 cf 52 18 be d3 52 18 3e
       -0.14875339 0.14875345
