results/dad_ate_dog/LearnFightSword/checkpoint.pt (torch, 471631 bytes, 67 tensors)

discrete_act_size_vector f4 [1, 5]
3.0 2.0 2.0 2.0 2.0
00000000: 0000 4040 0000 0040 0000 0040 0000 0040
00000010: 0000 0040

network_body._body_endoder.seq_layers.0.weight f4 [128, 8]
0.080828205 -0.22509699 -0.025872467 0.5574801 -0.11959777 0.688157 0.7698924 -0.95848596
0.21759441 0.51067847 0.6071943 -0.30682275 -0.09067906 -0.24942404 -0.098647915 0.4560008
-0.20082594 -0.28520334 0.70262134 -0.06950564 0.045692854 0.3332605 0.26449853 0.18062992
-0.051530562 0.610895 0.6524342 -0.25900194 -0.27864754 0.13752589 -0.06407726 -0.71443003
0.5329166 -0.19555521 0.09930595 0.4821088 -0.6669783 0.22957636 0.39941972 0.07340085
-0.2710529 -0.25280258 0.58228314 0.03445654 0.09006289 -0.14423545 -0.0149765555 -0.35657957
-0.2169313 -0.21924159 -0.09372518 0.6567868 -0.19747391 0.014989054 -0.3459172 0.21195103
0.08136255 0.09893451 0.43477926 0.27230072 0.20616406 0.16513757 -0.35710606 0.10190636
-0.074243814 -0.579962 0.49673477 -0.03453641 -0.13114886 0.41643456 0.0659327 0.08249808
0.25899243 -0.13988505 -0.206372 0.12343299 0.27950895 0.05596911 0.17553787 -0.65357244
0.3011201 0.14415476 0.20071062 0.48847517 0.0714878 -0.093745485 -0.08407585 -0.64910424
0.20947744 0.22621702 0.12154283 -0.33997023 0.091893524 0.41837397 -0.050904755 0.50575435
0.107494496 -0.16475521 -0.104286335 -0.5700101 0.1435066 -0.59589064 -0.6340571 -0.19834533
-0.19571723 0.43323427 -0.7099065 -0.4089372 0.14611699 -0.13737647 -0.06640167 -0.36248246
-1.0420365 0.052683286 0.12650613 0.07569818 -0.7955922 0.31883442 0.68017447 -0.5780314
-0.27928212 0.55887836 -0.43438357 -0.85620934 -0.4631424 -0.37144658 -0.3276216 0.18362801
0.8768166 -0.3137294 -0.1238532 0.27687177 0.30226403 -0.053092357 -0.013909107 -0.8787887
0.02484934 0.09632189 -0.24847059 -0.028939646 -0.084330425 -0.17928873 0.39825398 -0.30799186
-0.11550996 -0.1682265 0.961232 0.2885429 -0.23122032 -0.08055874 -0.100217015 0.3710496
-0.1345863 0.11738906 -0.13257393 -0.040932085 -0.34711543 -0.24563652 -0.41062418 -0.41634628
-0.1938586 0.42217305 0.76724124 0.22746031 -0.17004201 -0.1283959 0.5009677 -0.20220576
0.15224563 -0.16693105 0.30847207 0.41348276 -0.36305967 -0.4323921 -0.20490296 0.4528751
0.16740388 -0.38210428 -0.090406895 0.19055057 0.4589337 0.06186313 -0.15312137 0.54460835
-0.33475322 0.40367746 -0.13532646 0.670327 0.94782466 0.65217656 0.12928936 0.49698254
-0.48299617 0.22993664 0.60321456 -0.34216183 0.76095676 0.48516864 0.36752516 0.35784057
0.36667052 -0.3638266 -0.21057421 0.19337627 -0.45457345 -0.105942 0.26467618 -0.010180015
-0.13712397 -0.11848222 0.6776329 -0.20460993 -0.41655096 0.3841469 -0.13410994 -0.010989345
0.38053158 0.49309283 -0.16203843 0.01573595 -0.6699525 0.2596351 0.53662544 0.31257042
-0.38357246 -0.9384034 -0.3571228 0.63515586 -0.23227419 0.48050636 0.12589854 -0.04213269
0.59857774 0.71570456 -0.10404124 -0.23142141 -0.17442198 0.78724486 -0.07142083 0.22872362
-0.013006598 0.8206043 -0.3443185 0.14642459 -0.13341372 0.12227984 -0.2135314 -0.2665816
0.4196789 0.3324087 0.12889966 -0.5968432 -0.36691254 0.026749767 0.039628338 0.5883982
00000000: 4289 a53d d37f 66be 7ff2 d3bc 04b7 0e3f
00000010: adef f4bd 0f2b 303f ab17 453f 565f 75bf
00000020: 12d1 5e3e d3bb 023f 1671 1b3f df17 9dbe
00000030: f1b5 b9bd 0469 7fbe eb07 cabd f078 e93e
00000040: 51a5 4dbe 2c06 92be fede 333f f958 8ebd
00000050: 6e28 3b3d 1fa1 aa3e 5a6c 873e 0df7 383e
00000060: b611 53bd 9d63 1c3f ed05 273f e79b 84be
00000070: e4aa 8ebe 96d3 0c3e f03a 83bd e3e4 36bf
00000080: 396d 083f a03f 48be eb60 cb3d f7d6 f63e
00000090: 17bf 2abf 1116 6b3e be80 cc3e 2f53 963d
000000a0: 72c7 8abe 576f 81be 8210 153f 4d22 0d3d
000000b0: e472 b83d 75b2 13be 3a60 75bc 9991 b6be
000000c0: 3d23 5ebe de80 60be fdf2 bfbd 2e23 283f
000000d0: 9a36 4abe a694 753c 0f1c b1be b109 593e
000000e0: 69a1 a63d 2d9e ca3d 639b de3e 006b 8b3e
000000f0: ac1c 533e d319 293e 9bd6 b6be 48b4 d03d
00000100: 240d 98bd 6478 14bf 0554 fe3e 0d76 0dbd
00000110: e34b 06be e936 d53e b907 873d c1f4 a83d
00000120: a89a 843e 073e 0fbe 2e53 53be 6fca fc3d
00000130: cc1b 8f3e de3f 653d 33c0 333e 8650 27bf
00000140: 6a2c 9a3e 4e9d 133e 1687 4d3e 6b19 fa3e
00000150: 3268 923d a2fd bfbd f62f acbd b22b 26bf
00000160: 4181 563e 6fa5 673e 72eb f83d 9410 aebe
00000170: ac32 bc3d 1d35 d63e 8181 50bd 1e79 013f
00000180: 1326 dc3d 97b5 28be 1394 d5bd 2fec 11bf
00000190: 65f3 123e 4a8c 18bf 9151 22bf 0a1b 4bbe
000001a0: 196a 48be e2d0 dd3e 6fbc 35bf 3760 d1be
000001b0: b19f 153e 6bac 0cbe 99fd 87bd 4d97 b9be
000001c0: 7461 85bf 6eca 573d d38a 013e a607 9b3d
000001d0: eeab 4bbf 443e a33e ea1f 2e3f def9 13bf
000001e0: 11fe 8ebe a712 0f3f 8667 debe 8930 5bbf
000001f0: 0021 edbe 3f2e bebe 05be a7be fb08 3c3e
00000200: 0d77 603f 24a1 a0be bfa6 fdbd 23c2 8d3e
00000210: 5ac2 9a3e 5f77 59bd 06e3 63bc 4cf8 60bf
00000220: d890 cb3c 6944 c53d 136f 7ebe d612 edbc
00000230: 6eb5 acbd 7797 37be f2e7 cb3e 1cb1 9dbe
00000240: 7c90 ecbd 9143 2cbe 4d13 763f e5bb 933e
00000250: 05c5 6cbe fbfb a4bd 943e cdbd 37fa bd3e
00000260: fed0 09be ad69 f03d 76c1 07be 67a8 27bd
00000270: 1db9 b1be 2488 7bbe 553d d2be 572b d5be
00000280: de82 46be 1127 d83e ec69 443f 5beb 683e
00000290: 7e1f 2ebe 377a 03be 6b3f 003f 070f 4fbe
000002a0: 47e6 1b3e f9ef 2abe 0df0 9d3e 03b4 d33e
000002b0: f5e2 b9be 7f62 ddbe 15d2 51be 3fdf e73e
000002c0: ec6b 2b3e 2ca3 c3be 4027 b9bd b01f 433e
000002d0: 5cf9 ea3e 3264 7d3d d9cb 1cbe 746b 0b3f
000002e0: c664 abbe d0ae ce3e 0593 0abe 8d9a 2b3f
000002f0: a3a4 723f 0bf5 263f 6e64 043e 7f74 fe3e
00000300: 464b f7be 8374 6b3e 456c 1a3f d62f afbe
00000310: 10ce 423f 0668 f83e 422c bc3e e136 b73e
00000320: 3dbc bb3e 7b47 babe c4a0 57be 6e04 463e
00000330: dabd e8be 1ff8 d8bd a383 873e 14ca 26bc
00000340: 3a6a 0cbe cea6 f2bd 5a79 2d3f 4485 51be
00000350: 2b46 d5be e7ae c43e 1e54 09be a70c 34bc
00000360: 09d5 c23e aa76 fc3e 67ed 25be aee8 803c
00000370: 0282 2bbf e4ee 843e 4960 093f 3b09 a03e
00000380: 9c63 c4be 353b 70bf cdd8 b6be 9399 223f
00000390: 49d9 6dbe ee04 f63e 8ceb 003e 5493 2cbd
000003a0: 643c 193f 6a38 373f 9313 d5bd bcf9 6cbe
000003b0: ad9b 32be e188 493f 1645 92bd 8636 6a3e
000003c0: a019 55bc 2013 523f 844a b0be 54f0 153e
000003d0: 9b9d 08be da6d fa3d faa7 5abe 627d 88be
000003e0: 27e0 d63e 7931 aa3e 46fe 033e b7ca 18bf
000003f0: f6db bbbe 5422 db3c 5351 223d 44a1 163f

network_body._body_endoder.seq_layers.0.bias f4 [128]
0.026637869 -0.06183429 0.060782213 -0.10525065 0.05069414 0.01134104 -0.023691291 -0.113498785
0.043935314 0.012916517 0.055177357 0.044576623 -0.028993655 -0.0020463013 0.0059346594 -0.070834644
-0.033030294 -0.0035067145 0.009026965 -0.095278785 0.0042118183 0.016734874 0.001439972 -0.053374607
0.03519147 -0.07211978 -0.060884688 -0.13821429 -0.013772945 -0.07662878 0.079133585 -0.022296835
-0.038026612 0.0057042306 -0.084554404 0.041693836 0.060901165 -0.045035183 -0.15506066 -0.013438929
0.037520684 -0.079474546 -0.07999321 -0.08039352 -0.04766435 -0.056924216 -0.026798824 0.016247138
0.091210976 -0.0061162803 -0.16052821 -0.005200806 -0.038718954 -0.042445205 0.052829605 -0.05109766
0.019175392 -0.073085405 -0.10968037 -0.06235373 0.04178405 -0.008798028 -0.003972711 0.12486515
-0.010233723 -0.046296343 0.05239349 -0.020906277 -0.02408326 0.012005497 0.024917472 -0.0540736
-0.06371695 -0.13788538 0.0016440596 0.008097362 0.057670332 -0.068071395 -0.072809376 0.0025131898
-0.034175456 -0.0048656897 -0.015345702 0.030895494 0.05468375 -0.024120677 -0.062543765 0.07998994
-0.08716969 0.018748146 0.018124182 -0.0144592095 0.049175773 0.05758226 -0.010325792 0.041588373
0.06774892 0.07905278 0.047663182 0.010574351 -0.13178156 -0.008294234 0.012150884 -0.037487358
0.027675677 -0.022760166 -0.034323134 -0.08552395 0.0059786635 0.049412377 0.009248825 -0.049197003
-0.0695928 0.05503756 -0.19743359 0.0015973022 -0.022885682 0.09897015 0.08764195 0.002215165
-0.0012942024 -0.10147561 0.094819725 0.00059970526 0.027572315 -0.023076516 0.09289258 -0.013718207
00000000: a937 da3c f445 7dbd c5f6 783d a78d d7bd
00000010: a9a4 4f3d c5cf 393c 3d14 c2bc 0d72 e8bd
00000020: 84f5 333d cd9f 533c a701 623d fa95 363d
00000030: 1a84 edbc 3d1b 06bb 8877 c23b c111 91bd
00000040: c64a 07bd e8d0 65bb d6e5 133c 8621 c3bd
00000050: 4b03 8a3b 9317 893c 71bd bc3a 559f 5abd
00000060: ee24 103d 89b3 93bd 3962 79bd 0c88 0dbe
00000070: eba7 61bc 8def 9cbd ca10 a23d daa7 b6bc
00000080: cbc1 1bbd 8eea ba3b dc2a adbd 28c7 2a3d
00000090: 8073 793d d076 38bd 39c8 1ebe f42e 5cbc
000000a0: 4aaf 193d 8dc3 a2bd 7bd3 a3bd 5ca5 a4bd
000000b0: b23b 43bd 5e29 69bd 3589 dbbc b818 853c
000000c0: d2cc ba3d 146b c8bb 8261 24be 866b aabb
000000d0: c497 1ebd 06db 2dbd db63 583d c84b 51bd
000000e0: b615 9d3c cdad 95bd 1aa0 e0bd a066 7fbd
000000f0: c125 2b3d 9b25 10bc 842d 82bb 4db9 ff3d
00000100: 58ab 27bc 3ca1 3dbd 8e9a 563d a443 abbc
00000110: 424a c5bc b4b2 443c ba1f cc3c 477c 5dbd
00000120: 087e 82bd d331 0dbe 7c7d d73a ccaa 043c
00000130: ba37 6c3d 0469 8bbd 151d 95bd 54b4 243b
00000140: 90fb 0bbd 5d70 9fbb 8a6c 7bbc 8c18 fd3c
00000150: 11fc 5f3d ba98 c5bc f216 80bd c4d1 a33d
00000160: 0686 b2bd b695 993c 2a79 943c 52e6 6cbc
00000170: 896c 493d 60db 6b3d 832d 29bc 9258 2a3d
00000180: f2bf 8a3d 6de6 a13d 783a 433d 0b40 2d3c
00000190: bff1 06be 8ae4 07bc 8014 473c 588c 19bd
000001a0: 1ab8 e23c 8773 babc 6a96 0cbd 2e27 afbd
000001b0: aae8 c33b a264 4a3d 6288 173c cc82 49bd
000001c0: ac86 8ebd 116f 613d 082c 4abe 915c d13a
000001d0: c17a bbbc ddb0 ca3d 9f7d b33d 4d2c 113b
000001e0: 3aa2 a9ba 72d2 cfbd d830 c23d 8a35 1d3a
000001f0: 56df e13c f60a bdbc 773e be3d 55c2 60bc

network_body._body_endoder.seq_layers.2.weight f4 [128, 128]
-0.03731824 0.08019553 0.10019231 -0.0069031576 0.021307074 0.05837052 0.1601907 -0.064726226
-0.06815111 -0.02863792 -0.035784665 -0.02524282 -0.080781765 -0.18023476 -0.12578793 -0.09956737
0.027210271 -0.008633132 0.03261225 0.081787765 0.009533903 0.03814148 -0.04220812 0.024307579
-0.0351243 0.039652497 0.073970996 -0.0901985 0.19008704 0.061192185 0.06439859 -0.15223353
0.02681173 0.10781364 -0.04379815 0.07169935 0.07930766 0.02449948 -0.15490907 -0.0078065055
0.06396743 -0.11970404 -0.022648463 0.05273528 0.025341332 -0.08260271 0.111920916 0.16880232
-0.14133213 0.01963083 -0.047319274 -0.067150176 -0.10432439 -0.035430122 0.174548 0.10094989
0.058959503 0.007619895 0.06938828 -0.009795848 -0.03946667 0.15786852 -0.040233847 -0.0912024
0.04093207 0.057754785 0.06638539 0.14769639 0.07552436 -0.048510633 0.013036416 -0.110379726
0.010292135 -0.026268747 0.01886322 0.07568353 0.1210492 0.04461335 0.012989199 0.094130255
-0.06997073 0.16009295 0.12805834 0.09592233 0.007571236 -0.087761484 -0.13556358 0.13114846
-0.030611554 0.10012369 -0.07117509 0.00078824547 -0.005551377 -0.047922328 -0.085774526 0.102590315
-0.030971693 0.0023885977 -0.07976507 0.11915574 -0.06703825 0.10433629 0.041042604 -0.072364934
0.01404599 0.13080476 -0.05209805 -0.05426333 0.113979675 -0.045865264 0.06827456 -0.06367572
0.025440399 -0.13882637 -0.008310836 0.12594959 -0.1168805 0.09554639 0.017081052 -0.025014576
0.06698513 -0.029562078 -0.011254982 0.004737732 -0.0691014 -0.11631529 0.077358484 -0.053644173
-0.10075197 -0.030323826 -0.110147946 0.018641457 0.032480296 0.07485759 -0.16800322 0.0027881856
-0.0999773 -0.044747185 -0.07762432 -0.009820611 -0.013223774 0.0029804392 0.034910373 -0.18976606
-0.062000297 0.04968684 0.06214038 0.18166614 0.11207682 0.028474579 -0.029978875 0.009455804
-0.021384954 -0.056838684 0.047922473 0.034989774 -0.03571429 -0.06247595 -0.10701144 0.106341735
-0.17200671 0.0017075058 -0.05216409 -0.024891274 0.05085471 0.10930949 0.09963197 0.046757463
-0.12248302 0.15755789 -0.15746072 -0.060130894 -0.063214555 -0.04935453 -0.17457992 -0.117249876
0.045488108 0.1993313 0.055742845 -0.06361723 0.025689693 -0.2107743 -0.04367241 -0.021996638
-0.15701143 0.07140856 0.0901504 -0.10261754 0.12523104 -0.12241888 -0.0026875688 0.052262433
0.015692921 -0.044727925 0.074444495 0.07662765 -0.08187911 -0.011018424 -0.066094615 0.13977355
0.027848883 -0.12478468 -0.07025712 -0.0814961 -0.07459151 -0.105832405 -0.06385808 0.022446314
-0.013115167 -0.046586845 0.05715666 0.054686546 -0.1715843 0.005950341 -0.0035470026 -0.032530334
-0.0593079 0.11993531 -0.026585534 0.046707697 -0.1071457 -0.03635401 0.0312993 0.11685986
-0.03602995 0.01933801 -0.07779537 0.022254564 0.08851796 -0.08851169 -0.117061794 0.072202355
0.09122264 -0.09428094 -0.13460144 0.017489769 0.14074148 0.0022094466 -0.19032584 -0.09991349
0.044186093 0.033370607 -0.035707783 -0.08541046 0.14476682 0.027170759 -0.09992909 0.0011602992
-0.11370994 -0.19855666 0.11281511 -0.026436683 0.03029661 0.05846361 0.124707066 0.005981682
00000000: 03db 18bd 8e3d a43d a031 cd3d e233 e2bb
00000010: 2c8c ae3c ed15 6f3d 0809 243e 2f8f 84bd
00000020: cf92 8bbd 129a eabc f192 12bd 08ca cebc
00000030: e970 a5bd 768f 38be 8dce 00be fae9 cbbd
00000040: 13e8 de3c fb71 0dbc 6c94 053d 5880 a73d
00000050: 1634 1c3c 3e3a 1c3d 6ce2 2cbd b020 c73c
00000060: 7fde 0fbd a86a 223d 1b7e 973d feb9 b8bd
00000070: 2da6 423e a8a4 7a3d 68e3 833d 1be3 1bbe
00000080: 46a4 db3c 66cd dc3d b065 33bd 1cd7 923d
00000090: 0e6c a23d 22b3 c83c 7ca0 1ebe b7cd ffbb
000000a0: 5b01 833d 6427 f5bd 4589 b9bc f300 583d
000000b0: a098 cf3c 9c2b a9bd cb36 e53d 84da 2c3e
000000c0: 5fb9 10be d6d0 a03c dbd1 41bd 0886 89bd
000000d0: 07a8 d5bd 2d1f 11bd b6bc 323e d1be ce3d
000000e0: 857f 713d 50b0 f93b 711b 8e3d c47e 20bc
000000f0: cea7 21bd 49a8 213e 3fcc 24bd 53c8 babd
00000100: 63a8 273d 4890 6c3d 10f5 873d b93d 173e
00000110: 84ac 9a3d 16b3 46bd b196 553c c40e e2bd
00000120: 58a0 283c 8e31 d7bc 0a87 9a3c f7ff 9a3d
00000130: a5e8 f73d 7dbc 363d a6d0 543c 5dc7 c03d
00000140: d04c 8fbd 68ef 233e ba21 033e ed72 c43d
00000150: 2218 f83b 4bbc b3bd 2ed1 0abe c84b 063e
00000160: 15c5 fabc a60d cd3d 3fc4 91bd 42a2 4e3a
00000170: 53e8 b5bb 344a 44bd 8eaa afbd df1a d23d
00000180: 59b8 fdbc 058a 1c3b de5b a3bd ed07 f43d
00000190: 5a4b 89bd 44ae d53d 4a1c 283d 1134 94bd
000001a0: 2721 663c aff1 053e c464 55bd 3a43 5ebd
000001b0: 2d6e e93d 37dd 3bbd 88d3 8b3d 6a68 82bd
000001c0: 6268 d03c 8028 0ebe 2c2a 08bc eef8 003e
000001d0: 0b5f efbd d3ad c33d 90ed 8b3c 5eeb ccbc
000001e0: 802f 893d 2c2c f2bc d166 38bc fa3e 9b3b
000001f0: 0985 8dbd b636 eebd 206e 9e3d feb9 5bbd
00000200: 0d57 cebd ac69 f8bc 3f95 e1bd f8b5 983c
00000210: 0f0a 053d f04e 993d 0909 2cbe feb9 363b
00000220: e6c0 ccbd d348 37bd 80f9 9ebd a1e6 20bc
00000230: 87a8 58bc 7953 433b 2efe 0e3d 0952 42be
00000240: 06f4 7dbd 6e84 4b3d e986 7e3d b006 3a3e
00000250: 8888 e53d 8543 e93c 4296 f5bc 84ec 1a3c
00000260: 802f afbc aecf 68bd 5b4a 443d 7051 0f3d
00000270: 2649 12bd c8e6 7fbd d028 dbbd b2c9 d93d
00000280: 8722 30be 63ce df3a 03aa 55bd c9e8 cbbc
00000290: 074d 503d a7dd df3d d90b cc3d c184 3f3d
000002a0: 61d8 fabd db56 213e 623d 21be d04b 76bd
000002b0: a276 81bd fa27 4abd 14c5 32be b420 f0bd
000002c0: bd51 3a3d 811d 4c3e 9c52 643d c049 82bd
000002d0: 3173 d23c 38d5 57be d7e1 32bd 4b32 b4bc
000002e0: 9bc7 20be a73e 923d c6a0 b83d 2529 d2bd
000002f0: 913c 003e c0b6 fabd ec21 30bb 2211 563d
00000300: 718e 803c a134 37bd 5b76 983d f5ee 9c3d
00000310: 3cb0 a7bd 9f86 34bc 9d5c 87bd cc20 0f3e
00000320: 5723 e43c 1c8f ffbd f7e2 8fbd 6de7 a6bd
00000330: 6fc3 98bd a9be d8bd 06c8 82bd 55e1 b73c
00000340: ffe0 56bc d9d1 3ebd 1a1d 6a3d 00ff 5f3d
00000350: cbb3 2fbe 14fb c23b d474 68bb 873e 05bd
00000360: d7ec 72bd a5a0 f53d e8c9 d9bc 9250 3f3d
00000370: 346f dbbd f1e7 14bd b233 003d 3954 ef3d
00000380: 2494 13bd bf6a 9e3c 2e53 9fbd 344f b63c
00000390: e748 b53d 9e45 b5bd 18be efbd d4de 933d
000003a0: efd2 ba3d 5e16 c1bd f6d4 09be b446 8f3c
000003b0: 891e 103e 5dcc 103b c7e4 42be 729f ccbd
000003c0: 7afc 343d 9eaf 083d 5342 12bd aeeb aebd
000003d0: c13d 143e 3695 de3c 9fa7 ccbd 2e15 983a
000003e0: c2e0 e8bd 7052 4bbe 9c0b e73d be91 d8bc
000003f0: 9930 f83c 8a77 6f3d 6b66 ff3d fc01 c43b

network_body._body_endoder.seq_layers.2.bias f4 [128]
-0.00017863998 -0.050499965 -0.031701133 -0.032346506 -0.056865137 0.0036720878 0.018541325 0.003766336
-0.035487197 -0.03704367 -0.030171823 -0.0033818802 0.03820231 -0.04122075 0.028016718 0.0030981214
-0.042868253 0.015467063 -0.07247393 -0.0030801578 0.0033150166 -0.02253807 -0.038121212 0.050219998
-0.035906922 0.038506955 -0.010524695 0.016309423 0.0057245907 -0.048681803 -0.011890642 0.04407518
0.004964098 -0.04134274 0.016327158 -0.028195426 0.023310456 0.0046849926 -0.058635943 -0.0120971445
-0.0015493245 -0.017605888 -0.024219964 -0.012154345 -0.039479263 0.012358579 -0.0032149644 -0.0057573155
0.011949428 -0.005414313 0.012876671 0.042860962 0.007184521 -0.02388124 0.0021756487 0.011733073
0.0011793983 0.016244203 -0.0040815 -0.018921921 0.03130616 -0.033609316 0.0017990211 -0.026809204
-0.03867674 -0.0050657364 0.044401538 -0.02896706 0.034643214 0.017602518 -0.029053126 -0.03156205
-0.042029552 -0.03876827 -0.026832256 0.001313653 -0.03727169 0.010123733 0.041554507 0.014343087
-0.034720033 0.0119726 -0.06472132 0.08284071 0.0053903908 -0.042089902 0.07549467 0.10193291
0.009588924 -0.0446356 0.04895365 -0.035387613 -0.028346134 0.03198312 -0.0054065124 -0.006823123
0.019068306 -0.00968248 -0.04389106 0.01514797 0.016669253 -0.030627193 -0.035873964 0.003368141
0.02329815 0.009945863 0.0130136125 0.058577627 -0.03735952 0.050973292 0.046726856 2.8711967e-05
0.016181082 -0.027772887 0.018048419 -0.039216846 0.022602374 -0.04841184 -0.009063919 0.008161156
-0.02958665 0.00035406888 -0.04430157 -0.022859797 0.037225302 0.016037136 -0.040974144 -0.001803211
00000000: 4e51 3bb9 0dd9 4ebd 0cd9 01bd c57d 04bd
00000010: 6beb 68bd 69a7 703b fae3 973c a2d4 763b
00000020: 065b 11bd 1abb 17bd e62a f7bc 89a2 5dbb
00000030: 077a 1c3d 17d7 28bd 5183 e53c da09 4b3b
00000040: 9f96 2fbd 9069 7d3c 366d 94bd 79dc 49bb
00000050: c040 593b c2a1 b8bc fd24 1cbd 7cb3 4d3d
00000060: 2313 13bd 78b9 1d3d c56f 2cbc 579b 853c
00000070: 5995 bb3b 9266 47bd f8d0 42bc 2d88 343d
00000080: dfa9 a23b 0157 29bd 88c0 853c 18fa e6bc
00000090: 92f5 be3c 9184 993b 3e2c 70bd 1a33 46bc
000000a0: b412 cbba 393a 90bc f268 c6bc 0523 47bc
000000b0: 02b5 21bd a37b 4a3c 27b2 52bb dda7 bcbb
000000c0: 89c7 433c 8d6a b1bb acf8 523c fa8e 2f3d
000000d0: 216c eb3b 97a2 c3bc 5495 0e3b 133c 403c
000000e0: 0a96 9a3a 9012 853c 1bbe 85bb 2502 9bbc
000000f0: e33a 003d eca9 09bd 22cd eb3a fa9e dbbc
00000100: 806b 1ebd 7afe a5bb 63de 353d 544c edbc
00000110: 0be6 0d3d 2833 903c d200 eebc 3547 01bd
00000120: 2e27 2cbd 7acb 1ebd 52cf dbbc e12e ac3a
00000130: 33aa 18bd 04de 253c 0f35 2a3d 44ff 6a3c
00000140: 9836 0ebd b928 443c 9d8c 84bd 64a8 a93d
00000150: e0a1 b03b 7666 2cbd f39c 9a3d 34c2 d03d
00000160: dd1a 1d3c d2d3 36bd 9f83 483d 9af2 10bd
00000170: 2736 e8bc bb00 033d 1d29 b1bb 8194 dfbb
00000180: 2335 9c3c 44a3 1ebc 1dc7 33bd 312f 783c
00000190: f58d 883c e1e5 fabc 94f0 12bd 07bc 5c3b
000001a0: c3db be3c f9f3 223c 0c37 553c 18ef 6f3d
000001b0: 4c06 19bd 5fc9 503d a964 3f3d 7bda f037
000001c0: 308e 843c f783 e3bc 47da 933c d8a1 20bd
000001d0: 9d28 b93c 7e4b 46bd d580 14bc 5fb6 053c
000001e0: b45f f2bc 52a2 b939 9075 35bd 7844 bbbc
000001f0: 8f79 183d 5060 833c 81d4 27bd b959 ecba

action_model._continuous_distribution.log_sigma f4 [1, 2]
0.4020391 0.81774294
00000000: 12d8 cd3e 9a57 513f

action_model._continuous_distribution.mu.weight f4 [2, 128]
-0.006586423 -0.06561988 -0.023156898 -0.060086086 -0.020161599 0.057530943 0.011221555 0.00089919026
-0.0069413693 0.014964251 0.0057936343 0.07342611 0.023087401 -0.012290897 -0.00056830543 0.0032287485
-0.051109593 -0.016999276 0.023519784 0.028343504 -0.07283849 0.06551061 0.024130547 -0.010269383
0.008714135 0.036225 -0.004953684 0.035712726 -0.031366516 -0.032842148 -0.019060612 0.023795743
-0.032543447 0.033362206 0.0029301618 -0.026696686 -0.04610142 0.01252915 -0.008815018 -0.025845712
0.011972324 0.03451646 -0.079225466 0.004974864 0.03588798 0.021602347 0.011615307 0.00489753
0.016833838 -0.06993924 -0.013852479 0.0081383325 0.007951695 -0.08227159 0.010902862 0.013506572
0.083687626 0.0004453197 -0.040803656 0.02398445 -0.028970823 -0.021666184 -0.023011299 0.04364428
0.0067157173 -0.046142496 0.006813232 -0.0034621712 -0.073895134 0.11045736 0.033025447 0.052865796
0.02357187 -0.010124989 -0.0031859402 -0.058553007 0.02738227 -0.029916966 0.022003263 -0.021417158
-0.0677255 -0.02194351 -0.0025203424 0.011573178 0.0014812585 0.027986059 0.007458131 0.003723762
0.037772868 -0.021199724 0.06451449 -0.021490753 -0.00760584 -0.015138238 0.056666713 0.009729902
-0.017045824 0.029794887 0.06330116 0.020330809 0.03131003 -0.03570268 0.06558016 -0.028809825
0.009648953 -0.011944667 -0.07927077 0.009940139 0.045624074 -0.0033963146 0.027879415 0.044173133
-0.04079791 0.0027854894 -0.012571862 0.017476548 -0.0074270554 0.023263961 0.030351898 0.022239156
-0.010993552 0.0023218482 0.060757603 -0.0033359837 0.0083505 0.020847622 0.044524796 -0.0011683541
0.0014533226 -0.019071091 0.031279884 -0.006865136 -0.0177838 -0.02049724 -0.09384425 -0.0017704733
-0.03673922 -0.06061517 -0.028784368 -0.053382896 -0.03534912 -0.020609507 0.002762837 0.027222283
0.008645794 -0.08184827 -0.018515263 0.03272591 0.037474822 0.0020619703 0.014128516 -0.042114746
-0.016200468 -0.056040958 0.0072912043 0.024565976 0.023800746 -0.023635 0.023889445 0.0061841183
-0.022634503 0.034926735 0.005727612 0.0041029667 0.009996028 -0.039528083 -0.010906731 0.021101108
-0.047697138 -0.032209482 -0.023701236 0.025221772 -0.0006283472 0.020521969 0.02181279 0.03895281
0.004032052 -0.0022635025 -0.033291385 -0.018215341 -0.012980915 0.019997306 -0.021748079 0.034253664
-0.022398936 -0.022937857 0.0015817311 0.024244422 0.019214388 0.0005615772 -0.03743193 0.051243983
-0.014376268 0.014288481 0.028733548 -0.038607758 -0.014978404 0.033582773 -0.028058616 -0.011858019
0.014422855 -0.04287992 -0.04493386 -0.043394357 -0.008491509 -0.012416664 0.06460306 -0.01748306
0.01177527 -0.00045542148 0.0012250857 -0.09300836 0.007436124 -0.012519618 -0.10489758 9.185517e-05
-0.06618656 -0.008890925 0.023947671 0.010556111 -0.013055702 -0.06283168 0.02701808 -0.0052408897
0.013446908 -0.014238453 0.009454714 -0.031709112 -0.003263878 -0.023550263 0.016103229 -0.06098575
0.00034686105 -0.020958586 -0.012624961 -0.004193858 -0.031112788 0.012564445 -0.028742353 0.002601214
-0.03424679 -0.023943597 0.013861179 0.016457716 0.021123402 -0.02664603 0.038499594 -0.08482308
-0.00013742746 0.024761327 0.0025028896 -0.002667096 0.026316283 -0.006096704 -0.01608749 -0.06674112
00000000: ecd2 d7bb b763 86bd 89b3 bdbc d41c 76bd
00000010: f029 a5bc 91a5 6b3d 9dda 373c a3b7 6b3a
00000020: 6d74 e3bb 9e2c 753c 87d8 bd3b 6e60 963d
00000030: ca21 bd3c c25f 49bc 55fa 14ba 6999 533b
00000040: 4b58 51bd 1142 8bbc 90ac c03c a330 e83c
00000050: 592c 95bd 6d2a 863d 6dad c53c ea40 28bc
00000060: bbc5 0e3c aa60 143d 8352 a2bb 8247 123d
00000070: 2d7a 00bd 7d85 06bd 0025 9cbc 4aef c23c
00000080: 474c 05bd cfa6 083d f507 403b 02b3 dabc
00000090: d8d4 3cbd 1047 4d3c de6c 10bc 63ba d3bc
000000a0: 9127 443c 2261 0d3d f640 a2bd 2f04 a33b
000000b0: 46ff 123d 68f7 b03c 214e 3e3c 767b a03b
000000c0: 1ee7 893c 4e3c 8fbd 82f5 62bc a456 053c
000000d0: d347 023c 027e a8bd eba1 323c ab4a 5d3c
000000e0: 6b64 ab3d cc79 e939 bc21 27bd 0a7b c43c
000000f0: 3854 edbc 487d b1bc 3182 bcbc 58c4 323d
00000100: 850f dc3b eaff 3cbd 8841 df3b 98e5 62bb
00000110: 5556 97bd 7837 e23d b145 073d ce89 583d
00000120: cb19 c13c 48e3 25bc 35cb 50bb 47d5 6fbd
00000130: c850 e03c 6d14 f5bc 3040 b43c 0973 afbc
00000140: abb3 8abd e0c2 b3bc 542c 25bb 6d9d 3d3c
00000150: ca26 c23a 0543 e53c 5663 f43b 5c0a 743b
00000160: b9b7 1a3d 0bab adbc 2c20 843d 600d b0bc
00000170: 693a f9bb 5f06 78bc 5b1b 683d 2b6a 1f3c
00000180: afa3 8bbc 6814 f43c 0aa4 813d cc8c a63c
00000190: f23e 003d f93c 12bd e44e 863d 9502 ecbc
000001a0: a416 1e3c 91b3 43bc b758 a2bd f7db 223c
000001b0: 4fe0 3a3d b494 5ebb 5f63 e43c e3ee 343d
000001c0: b61b 27bd c28c 363b 36fa 4dbc fa2a 8f3c
000001d0: a85e f3bb 1094 be3c 8ba4 f83c e42e b63c
000001e0: 4d1e 34bc 262a 183b f7dc 783d 85a0 5abb
000001f0: 89d0 083c a2c8 aa3c a25f 363d 7523 99ba
00000200: 6a7d be3a fa3a 9cbc 561f 003d eff4 e0bb
00000210: 55af 91bc d4e9 a7bc 6a31 c0bd 3a0f e8ba
00000220: dd7b 16bd 9d47 78bd 32cd ebbc 06a8 5abd
00000230: 3dca 10bd 45d5 a8bc b710 353b 4401 df3c
00000240: 17a7 0d3c 11a0 a7bd 52ad 97bc 9b0b 063d
00000250: 337f 193d 1f22 073b 4b7b 673c 8380 2cbd
00000260: d8b6 84bc 348b 65bd 0eeb ee3b 963e c93c
00000270: c8f9 c23c 309e c1bc ccb3 c33c 25a4 ca3b
00000280: fe6b b9bc 560f 0f3d b1ae bb3b 2e72 863b
00000290: 61c6 233c 33e8 21bd 25b2 32bc 3bdc ac3c
000002a0: 135e 43bd 17ee 03bd 1829 c2bc e49d ce3c
000002b0: abb7 24ba b01d a83c bcb0 b23c fb8c 1f3d
000002c0: 4e1f 843b 4557 14bb 8c5c 08bd 5738 95bc
000002d0: e7ad 54bc 64d1 a33c 0729 b2bc 924d 0c3d
000002e0: f97d b7bc 2ce8 bbbc 1752 cf3a 3d9c c63c
000002f0: 7e67 9d3c cf36 133a 3952 19bd 36e5 513d
00000300: 708a 6bbc 3c1a 6a3c 9e62 eb3c 2b23 1ebd
00000310: fb67 75bc 178e 093d 2fdb e5bc 2348 42bc
00000320: d74d 6c3c dba2 2fbd 910c 38bd 48be 31bd
00000330: f81f 0bbc 436f 4bbc 9c4e 843d a238 8fbc
00000340: 10ed 403c a3c5 eeb9 0e93 a03a 2b7b bebd
00000350: bbaa f33b 151f 4dbc 8bd4 d6bd 5ea2 c038
00000360: d28c 87bd 3eab 11bc e82d c43c 8af3 2c3c
00000370: 95e7 55bc e5ad 80bd 0555 dd3c c5bb abbb
00000380: 6c50 5c3c 6648 69bc f2e7 1a3c 6ae1 01bd
00000390: c9e6 55bb 7bec c0bc ebea 833c 32cc 79bd
000003a0: e7da b539 57b1 abbc edd8 4ebc a16c 89bb
000003b0: 3fe0 febc 1adb 4d3c 1575 ebbc 2179 2a3b
000003c0: 5d46 0cbd 5d25 c4bc 001a 633c 55d2 863c
000003d0: fc0a ad3c c648 dabc c0b1 1d3d b9b7 adbd
000003e0: 671a 10b9 44d8 ca3c 8507 243b 72ca 2ebb
000003f0: 3f95 d73c dcc6 c7bb e9c9 83bc 91af 88bd

action_model._continuous_distribution.mu.bias f4 [2]
0.029464718 -0.060487095
00000000: fe5f f13c 51c1 77bd

action_model._discrete_distribution.branches.0.weight f4 [3, 128]
-0.05685533 0.04532341 0.054893862 -0.019718619 -0.013277526 -0.0008234353 0.07478885 -0.066854455
-0.04383547 0.025181971 -0.031744316 0.044770107 -0.13027819 -0.03602311 0.11256168 -0.03614708
0.005030253 -0.047830056 -0.01171833 -0.052868597 0.006715238 -0.012243007 0.04387554 -0.038040332
-0.02500109 -0.06108859 -0.0018355015 0.13927418 -0.013612659 0.0020684248 0.03428866 0.06194523
0.061709024 0.011569359 0.017705243 -0.011209854 0.036838707 0.057629723 -0.023356635 0.062436342
0.034318704 0.024307992 0.06309954 0.0112244645 -0.009808693 -0.03469769 0.09765892 -0.023957478
0.05372798 0.061956566 0.022444585 0.1370545 -0.0111404415 0.028436244 0.019553037 0.062612
-0.008429963 -0.09669402 -0.005465426 0.053371944 0.025476327 0.08421981 0.029744122 0.046178006
-0.040587272 0.045767438 0.048052587 0.0148304 0.011677091 0.077650115 0.09385093 0.066332236
0.05265598 -0.0027421839 -0.03980155 0.03874483 0.0139365 0.02225814 0.05582305 0.014013633
0.024694126 -0.029119596 0.0036901657 0.0092462925 0.023585692 0.0008574665 -0.03814648 -0.020227617
0.036125027 -0.0034015628 0.0019995493 0.008944885 -0.009448686 -0.05577157 -0.0047708936 0.05725188
0.05532657 0.035250217 0.029007772 -0.086243264 -0.032472607 0.007987275 0.01657573 -0.03645649
0.108941 0.06155177 0.0013777402 0.0071168966 0.002669745 -0.06265706 0.007565688 0.09246274
0.011174301 -0.08832436 0.0187981 -0.020891022 0.027172593 0.020843156 -0.018224483 0.11149872
-0.007613252 0.054983675 0.006924952 0.0456145 0.049011376 0.045618676 0.03159063 -0.100584194
-0.027024606 -0.037699968 -0.057770044 -0.01414348 -0.057486285 0.033548206 -0.08317159 0.063349456
0.020284833 -0.02887784 0.0010815219 -0.0011329349 0.06862071 0.005557509 -0.039394595 0.020894444
0.0036308095 0.002890723 -0.008490748 -0.042843834 -0.06845189 0.005819323 -0.053946275 0.018380806
0.015028484 0.06093603 -0.049201254 -0.042301673 -0.0195211 -0.029129185 -0.037561677 -0.020688044
-0.03971862 0.00064789347 -0.009600567 -0.00453814 -0.04537868 -0.021378798 0.016528461 -0.01057787
-0.05279143 -0.009943618 -0.0037612102 0.015958818 0.0068792603 0.05811007 -0.101939626 0.0075715072
0.018173544 -0.011695936 -0.041039076 -0.08357053 -0.051777583 -0.018706769 0.021406436 -0.037078153
0.0047608144 0.13649897 -0.015813671 -0.105194755 -0.04524967 -0.041574147 -0.03894354 -0.028642932
-0.013622158 -0.055017058 -0.07841831 -0.0040635616 -0.07812322 0.020589475 -0.05278887 -0.04561791
-0.0014525908 0.00088280137 0.002094036 -0.06128705 -0.048541125 -0.06857725 0.015488865 -0.04661742
-0.045288518 -0.057716586 0.021340538 0.06814067 0.013655706 0.020424958 0.08292492 0.049483094
-0.065272495 0.034170866 -0.113965884 -0.00028363208 -0.050799772 0.076303415 0.015646363 -0.018849608
-0.05009369 -0.013682704 -0.0064704875 0.04309053 -0.0037053875 0.024819614 0.050169457 0.049574934
-0.009441729 -0.08875477 -0.10702824 0.063101284 0.0051539685 0.03540625 -0.07588539 -0.021529917
-0.002859712 0.052796666 -0.060704075 0.022413258 -0.021274615 -0.060600817 0.046561267 -0.048288647
-0.012454695 -0.08124088 0.027502868 -0.072321184 -0.014902543 0.01666621 -0.028168427 0.058306325
00000000: 22e1 68bd 0aa5 393d 63d8 603d f188 a1bc
00000010: fb89 59bc cfdb 57ba e62a 993d fdea 88bd
00000020: d28c 33bd 6c4a ce3c 5406 02bd dc60 373d
00000030: a567 05be f88c 13bd bd86 e63d f60e 14bd
00000040: d2d4 a43b 73e9 43bd 3dfe 3fbc be8c 58bd
00000050: 800b dc3b e596 48bc d7b6 333d 2ed0 1bbd
00000060: 16cf ccbc 0838 7abd 3695 f0ba e49d 0e3e
00000070: a107 5fbc 698e 073b 4472 0c3d 48ba 7d3d
00000080: 9ac2 7c3d 698d 3d3c 960a 913c 89a9 37bc
00000090: 2fe4 163d 250d 6c3d 6a56 bfbc 40bd 7f3d
000000a0: c591 0c3d 8e21 c73c 553a 813d d1e6 373c
000000b0: a4b4 20bc 2a1f 0ebd 6601 c83d 7942 c4bc
000000c0: df11 5c3d 2bc6 7d3d b5dd b73c 0458 0c3e
000000d0: 6686 36bc 20f3 e83c b12d a03c b83a 803d
000000e0: d41d 0abc 8407 c6bd 5117 b3bb 8a9c 5a3d
000000f0: bbb3 d03c 707b ac3d f2a9 f33c 2625 3d3d
00000100: d73e 26bd a376 3b3d cad2 443d 35fb 723c
00000110: 4551 3f3c 0607 9f3d eb34 c03d 32d9 873d
00000120: ccad 573d 36b6 33bb f306 23bd e6b2 1e3d
00000130: eb55 643c b456 b63c b6a6 643d 7099 653c
00000140: 564b ca3c 388c eebc b5d6 713b c37d 173c
00000150: c836 c13c 9ac7 603a 7c3f 1cbd 63b4 a5bc
00000160: d6f7 133d c1ec 5ebb df0a 033b 918d 123c
00000170: a9ce 1abc bb70 64bd 2855 9cbb f380 6a3d
00000180: 1d9e 623d 8862 103d b5a1 ed3c 4fa0 b0bd
00000190: ff01 05bd 0fdd 023c d3c9 873c 6753 15bd
000001a0: 761c df3d b51d 7c3d 4a95 b43a db34 e93b
000001b0: e3f6 2e3b 5852 80bd 97e9 f73b 1b5d bd3d
000001c0: 6a14 373c 67e3 b4bd 79fe 993c a623 abbc
000001d0: 0f99 de3c 44bf aa3c 834b 95bc 7159 e43d
000001e0: 9678 f9bb 9036 613d b5ea e23b 45d6 3a3d
000001f0: 27c0 483d a6da 3a3d 2d65 013d 16ff cdbd
00000200: b562 ddbc 486b 1abd 48a0 6cbd 0eba 67bc
00000210: bd76 6bbd d869 093d de55 aabd 5cbd 813d
00000220: 612c a63c 3891 ecbc dac1 8d3a fd7e 94ba
00000230: 0489 8c3d c41b b63b 3a5c 21bd d32a ab3c
00000240: e0f2 6d3b 4972 3d3b c71c 0bbc 047d 2fbd
00000250: 8130 8cbd 05b0 be3b c5f6 5cbd 5893 963c
00000260: 083a 763c 0f98 793d 4187 49bd 8544 2dbd
00000270: b7ea 9fbc 54a0 eebc 46da 19bd f979 a9bc
00000280: feaf 22bd 65d7 293a b24b 1dbc adb4 94bb
00000290: ffde 39bd 9722 afbc b266 873c cd4e 2dbc
000002a0: d43b 58bd 8fea 22bc a37e 76bb 11bc 823c
000002b0: 6b6b e13b d304 6e3d b9c5 d0bd 681a f83b
000002c0: afe0 943c 50a0 3fbc 9718 28bd 0727 abbd
000002d0: bb14 54bd f03e 99bc 8d5c af3c 43df 17bd
000002e0: 9b00 9c3b 63c6 0b3e ac8b 81bc 5970 d7bd
000002f0: b857 39bd a749 2abd 4383 1fbd 95a4 eabc
00000300: 792f 5fbc 9159 61bd c799 a0bd a027 85bb
00000310: 11ff 9fbd 42ab a83c 2439 58bd d8d9 3abd
00000320: dc64 beba cc6b 673a 183c 093b 2108 7bbd
00000330: 0fd3 46bd 3b72 8cbd 02c5 7d3c e8f1 3ebd
00000340: 7480 39bd 3a68 6cbd 5ad2 ae3c 568d 8b3d
00000350: 2fbc 5f3c 3e52 a73c 8ad4 a93d c9ae 4a3d
00000360: 96ad 85bd c0f6 0b3d f266 e9bd 74b4 94b9
00000370: 6c13 50bd f744 9c3d cd2c 803c 7e6a 9abc
00000380: 0b2f 4dbd 6c2d 60bc 6206 d4bb b27f 303d
00000390: 16d6 72bb 8152 cb3c 7d7e 4d3d 160f 4b3d
000003a0: 7bb1 1abc 10c5 b5bd 9f31 dbbd 3f3b 813d
000003b0: 9fe2 a83b 2506 113d cd69 9bbd 825f b0bc
000003c0: 026a 3bbb 5141 583d d6a4 78bd 029c b73c
000003d0: 1a48 aebc 9038 78bd 07b7 3e3d 51ca 45bd
000003e0: c70e 4cbc 9e61 a6bd b24d e13c 211d 94bd
000003f0: cc29 74bc 9387 883c 79c1 e6bc 9dd2 6e3d

action_model._discrete_distribution.branches.0.bias f4 [3]
-0.033644155 0.09517915 -0.07998352
00000000: 74ce 09bd 49ed c23d 66ce a3bd

action_model._discrete_distribution.branches.1.weight f4 [2, 128]
0.0051737237 -0.023616914 -0.07476204 -0.07116629 0.006590437 -0.0959829 -0.011212873 0.012421169
-0.03211376 0.008345855 -0.026751371 -0.03597288 -0.048591927 -0.031837486 -0.088001564 0.028114323
-0.047512826 -0.028162748 -0.025831979 -0.10757788 -0.03431752 -0.09395523 -0.059856277 0.025966903
-0.014014023 -0.031613722 -0.11014699 0.029546428 -0.054517698 -0.06013465 -0.0776035 0.07502257
-0.04778938 -0.0004690864 -0.11024333 -0.041793365 0.02751827 -0.00014788825 0.002760726 -0.11965416
0.06523649 0.033322122 -0.028047936 -0.11998982 -0.0646475 -0.009902297 -0.08292741 0.05551832
-0.052807104 -0.05124041 -0.06911474 0.031260382 -0.027176192 -0.02397701 -0.054386053 0.03723866
-0.055956565 0.03215567 0.037434258 -0.10356625 0.025846528 0.03090251 -0.027584895 -0.025950514
0.01375146 -0.06281977 0.06878119 -0.0005475184 -0.06131031 -0.044507857 0.010139512 -0.05543559
-0.02121198 0.010974562 0.063380755 -0.06333484 0.0112887435 -0.04189391 0.008632217 -0.00024307125
-0.049513604 -0.087981775 0.011346283 -0.031367105 0.015689226 0.0010958335 -0.01926833 -0.009511763
0.0063164053 0.0127705075 0.06281551 -0.048434813 -0.08450008 0.0075131124 -0.089519106 0.056551114
0.05404343 -0.017842224 -0.024134533 0.002094407 0.04362152 0.00027977768 0.0022787596 -0.019335333
-0.11225092 -0.09029625 -0.029312074 -0.109246306 -0.08079841 0.0050766137 0.01792722 -0.086737275
-0.075683974 0.0013728356 -0.10213268 -0.041991986 0.03021631 -0.006260261 -0.059556354 0.064190574
0.0024946972 0.022245573 0.012688435 -0.05085567 -0.095512845 0.0053279595 -0.0085635595 0.021454027
-0.0034614825 0.045777965 0.06936952 0.04575972 0.002694711 0.095792696 -0.004260581 -0.0028194652
0.0254644 -0.0028929273 0.026177444 0.04510138 0.030645115 0.0373872 0.09254099 -0.010437597
0.054908462 0.013242797 0.02898871 0.10933966 0.03952972 0.10072932 0.057696145 -0.019290615
0.03400723 0.03516062 0.10614095 -0.04517966 0.04487454 0.052004125 0.08872529 -0.083123416
0.055339143 0.00080386695 0.11402273 0.029462693 -0.02359939 0.0074475775 0.008190725 0.12820816
-0.05414019 -0.034057286 0.032867193 0.107089765 0.07205603 0.025645196 0.072647035 -0.06720332
0.038360868 0.06270093 0.09823719 -0.027225813 0.028656576 0.036377385 0.041761722 -0.032312673
0.04796717 -0.030215325 -0.03423521 0.10677943 -0.021743868 -0.02996378 0.034786552 0.021431178
-0.016651135 0.061470605 -0.06428221 0.008768268 0.08877278 0.039982628 -0.020048916 0.07989356
0.026004046 -0.007398612 -0.056935985 0.04666111 -0.017780572 0.05359708 0.00017246856 0.01390098
0.0660496 0.09144371 -0.0039085364 0.04343647 -0.016602252 -0.0026321404 0.030690877 0.024635255
-0.008530335 -0.014848426 -0.06897852 0.044864014 0.08265458 -0.0091835605 0.0907046 -0.053212654
-0.04237332 0.03345662 0.038453586 0.0010312344 -0.03220465 -0.0142170405 0.0014122622 0.004733994
0.12149506 0.0871991 0.044380024 0.06731126 0.09000874 -0.012328652 -0.030943744 0.0848277
0.08676483 -0.0052724504 0.09419324 0.027012452 -0.037299164 0.020476138 0.074275404 -0.06318462
0.0021285675 -0.025156364 -0.003539022 0.03611238 0.096223496 0.008053024 0.020542128 -0.025990052
00000000: 5788 a93b 4278 c1bc d71c 99bd a2bf 91bd
00000010: 98f4 d73b af92 c4bd 33b6 37bc 2982 4b3c
00000020: b889 03bd 0ebd 083c b125 dbbc 4c58 13bd
00000030: 5408 47bd 0668 02bd 2a3a b4bd 0250 e63c
00000040: cf9c 42bd 90b5 e6bc 969d d3bc cb51 dcbd
00000050: 8790 0cbd 9a6b c0bd db2b 75bd 8bb8 d43c
00000060: 139b 65bc 647d 01bd bf94 e1bd 5a0b f23c
00000070: f34d 5fbd c04f 76bd 95ee 9ebd 6fa5 993d
00000080: ccbe 43bd b6ef f5b9 41c7 e1bd 852f 2bbd
00000090: ff6d e13c 7312 1bb9 4ced 343b 3e0d f5bd
000000a0: b59a 853d c77c 083d c9c4 e5bc 39bd f5bd
000000b0: e965 84bd 3e3d 22bc d9d5 a9bd 2e67 633d
000000c0: 434c 58bd 77e1 51bd 078c 8dbd e30a 003d
000000d0: 9ba0 debc 6f6b c4bc e9c3 5ebd 9187 183d
000000e0: b632 65bd aab5 033d aa54 193d 8b1a d4bd
000000f0: 19bc d33c 4327 fd3c b8f9 e1bc 2c96 d4bc
00000100: ce4d 613c a7a7 80bd 27dd 8c3d 5687 0fba
00000110: 8520 7bbd df4d 36bd 3220 263c 6e10 63bd
00000120: bfc4 adbc a6ce 333c c5cd 813d b2b5 81bd
00000130: 6cf4 383c f398 2bbd 246e 0d3c f1e0 7eb9
00000140: c7ce 4abd ca2f b4bd c3e5 393c cb7a 00bd
00000150: b186 803c 12a2 8f3a 9ed8 9dbc 3ad7 1bbc
00000160: d9f9 ce3b 643b 513c 6ba5 803d 9563 46bd
00000170: 610e adbd 8e30 f63b cb55 b7bd 24a2 673d
00000180: a55c 5d3d db29 92bc c9b5 c5bc 5242 093b
00000190: 7bac 323d 20af 9239 3e57 153b 2265 9ebc
000001a0: cfe3 e5bd 3eed b8bd e01f f0bc 87bc dfbd
000001b0: a379 a5bd b959 a63b 1bdc 923c 50a3 b1bd
000001c0: 3300 9bbd b8f0 b33a f02a d1bd caff 2bbd
000001d0: 3288 f73c e022 cdbb 5df1 73bd 5976 833d
000001e0: 137e 233b 593c b63c 27e3 4f3c 094e 50bd
000001f0: 3d9c c3bd 2a96 ae3b 2c4e 0cbc 5bc0 af3c
00000200: 0ada 62bb ad81 3b3d 9b11 8e3d 8b6e 3b3d
00000210: c099 303b f62e c43d 589c 8bbb c7c6 38bb
00000220: b89a d03c 4497 3dbb 1472 d63c 3abc 383d
00000230: 770b fb3c 5223 193d 2186 bd3d 7402 2bbc
00000240: b2e7 603d 51f8 583c bb79 ed3c 79ed df3d
00000250: eae9 213d 2c4b ce3d cb52 6c3d 5a07 9ebc
00000260: 2a4b 0b3d 9504 103d 6d60 d93d 4f0e 39bd
00000270: 5ece 373d 4702 553d 9bb5 b53d 9c3c aabd
00000280: 4cab 623d 99ba 523a c084 e93d bf5b f13c
00000290: 8253 c1bc cf0a f43b 6432 063c 0049 033e
000002a0: 1bc2 5dbd a77f 0bbd c09f 063d e151 db3d
000002b0: 1d92 933d e015 d23c f8c7 943d e5a1 89bd
000002c0: 4920 1d3d 5869 803d 9430 c93d ab08 dfbc
000002d0: 32c1 ea3c 7400 153d 570e 2b3d 4b5a 04bd
000002e0: 3979 443d 2186 f7bc 383a 0cbd 2caf da3d
000002f0: 3220 b2bc 9a76 f5bc 587c 0e3d 7090 af3c
00000300: f667 88bc 9ac8 7b3d 64a6 83bd c8a8 0f3c
00000310: 81ce b53d d3c4 233d a03d a4bc 3c9f a33d
00000320: 7006 d53c 0e70 f2bb b535 69bd b81f 3f3d
00000330: 90a8 91bc 9d88 5b3d add8 3439 f0c0 633c
00000340: 0345 873d d746 bb3d 2e13 80bb 71ea 313d
00000350: 7201 88bc fd7f 2cbb 6f6b fb3c e0cf c93c
00000360: d1c2 0bbc d046 73bc 9c44 8dbd 54c3 373d
00000370: ce46 a93d a576 16bc 55c3 b93d 83f5 59bd
00000380: a58f 2dbd cf09 093d 8281 1d3d 7c2a 873a
00000390: 06e9 03bd 97ee 68bc a81b b93a 9f1f 9b3b
000003a0: 67d2 f83d 7195 b23d d4c7 353d 7cda 893d
000003b0: 8156 b83d 1dfe 49bc bc7d fdbc 25ba ad3d
000003c0: c2b1 b13d 85c4 acbb 63e8 c03d 3849 dd3c
000003d0: 02c7 18bd 93bd a73c b41d 983d f066 81bd
000003e0: 707f 0b3b b814 cebc f0ee 67bb 93ea 133d
000003f0: d310 c53d d5f0 033c f747 a83c 17e9 d4bc

action_model._discrete_distribution.branches.1.bias f4 [2]
-0.024137482 0.024137763
00000000: f8bb c5bc 8fbc c53c

action_model._discrete_distribution.branches.2.weight f4 [2, 128]
0.003801397 0.03295831 0.000118185475 0.016479399 -0.0023363507 -0.01543557 0.03861634 -0.087685525
0.025110878 0.041081008 0.08330428 -0.0007562671 -0.023917286 0.02666558 0.022063626 -0.08377235
0.09134709 -0.016085783 0.05454529 0.08658351 0.0843167 0.069297835 0.060510445 -0.060005568
0.024918443 -0.0005178005 0.09827525 -0.04140817 0.08151839 0.05615757 0.035170205 -0.07192036
0.055346675 -0.017762981 -0.071954936 0.08267222 0.0415221 -0.0019679824 0.020343734 0.008114899
0.0899943 0.07127171 -0.02973578 0.07969486 0.027246142 -0.024012374 -0.011626959 -0.043502036
0.1230141 0.018174393 0.05284356 0.0010702097 0.076367594 0.043713022 0.053568687 0.04187803
-0.005848837 0.06763937 0.1580217 0.06767143 -0.04059531 0.0029044754 0.04752987 0.13625854
-0.010493608 0.044681817 -0.028719934 0.09038429 0.077975035 0.037261676 0.032111466 -0.015979052
0.032695573 0.010961071 0.10555844 0.07610347 0.08699242 0.084819384 -0.09515276 -0.102638215
0.08508442 0.058165044 0.06126428 -0.08057165 0.010904151 0.04024773 -0.0648291 0.0105053075
0.08843253 0.04711376 -0.00057382416 0.080722995 0.07849912 0.03919709 0.055799272 -0.006701851
0.00092425785 0.11282595 -0.0039203735 -0.062413413 0.027654862 0.032897707 -0.077122435 0.0069327853
-0.020054327 0.065636165 0.050016914 -0.053359512 0.045274675 -0.010752062 -0.02873942 0.07589118
0.017455194 -0.005811835 0.07761802 0.049266763 -0.07922387 0.022097262 0.03300163 0.08183031
0.0612923 0.032557014 -0.048135456 0.0308228 -0.036444068 -0.034738112 0.007824533 -0.03899651
0.0052150716 -0.027303174 0.012450464 -0.008812317 0.006275515 0.020055996 -0.05265631 0.08891019
-0.01879355 -0.048644777 -0.083189145 -0.01354015 0.038435243 -0.018247377 -0.04177615 0.048746046
-0.077161156 0.027095217 -0.044900842 -0.08820334 -0.09459393 -0.083041176 -0.06140423 0.048347674
-0.011592856 0.018047744 -0.07812809 0.03490581 -0.059401833 -0.048477467 -0.03277572 0.058553457
-0.037229665 0.006620159 0.0593325 -0.104558885 -0.049164787 -0.0022469372 -0.015518788 -0.010800784
-0.09707041 -0.08438671 0.028056784 -0.07971932 -0.039934203 0.022850852 0.0020138687 0.06642817
-0.12513858 -0.039272975 -0.07986727 -0.0040308763 -0.059274074 -0.045839284 -0.027752083 -0.0100554135
-0.026082112 -0.06432978 -0.15413913 -0.06410446 0.042934917 -0.001670882 -0.025863651 -0.12576044
0.02575081 -0.06783179 0.040492125 -0.0965282 -0.07349565 -0.04671373 -0.04612092 0.01733236
-0.033380494 -0.013063087 -0.12078433 -0.06088687 -0.070642956 -0.0761245 0.06896124 0.10463762
-0.09639026 -0.054722276 -0.048392583 0.08173864 0.007488102 -0.016592128 0.067444004 0.0038475995
-0.1077307 -0.05657744 -0.020000484 -0.05959269 -0.09887883 -0.010201036 -0.07505211 0.013350012
-0.013046159 -0.081262566 0.005597023 0.05458662 -0.030325752 -0.028835272 0.047054414 0.005614445
0.014618225 -0.047208298 -0.051067673 0.044739947 -0.0595103 0.011823483 0.034026414 -0.07291564
-0.028636111 -0.008437041 -0.07986366 -0.041484267 0.057412293 0.0066012884 -0.05397929 -0.08422901
-0.0629033 -0.026459645 0.04859994 -0.0396974 0.022689238 0.058791686 -0.005348518 0.054875355
00000000: dc20 793b 4bff 063d 58da f738 ceff 863c
00000010: 761d 19bb 79e5 7cbc 2b2c 1e3d 7894 b3bd
00000020: 54b5 cd3c 8f44 283d 6f9b aa3d 3a40 46ba
00000030: 2fee c3bc c671 da3c c7be b43c d690 abbd
00000040: 2f14 bb3d 55c6 83bc e26a 5f3d b252 b13d
00000050: 3cae ac3d 06ec 8d3d cdd9 773d 66c8 75bd
00000060: c321 cc3c 01bd 07ba 8944 c93d 9d9b 29bd
00000070: 1df3 a63d 7b05 663d a20e 103d fb4a 93bd
00000080: 32b3 623d ac83 91bc 1c5d 93bd 0e50 a93d
00000090: 1413 2a3d 44f9 00bb e7a7 a63c 5af4 043c
000000a0: ee4e b83d e7f6 913d 7398 f3bc 0f37 a33d
000000b0: 4d33 df3c 99b5 c4bc 007f 3ebc 312f 32bd
000000c0: d1ee fb3d 77e2 943c 7d72 583d 4746 8c3a
000000d0: 9d66 9c3d 6d0c 333d d76a 5b3d 4c88 2b3d
000000e0: 9aa7 bfbb 8386 8a3d 71d0 213e 5297 8a3d
000000f0: 4547 26bd 0359 3e3b aeae 423d 5c87 0b3e
00000100: 62ed 2bbc 4804 373d 1146 ebbc 661b b93d
00000110: 60b1 9f3d b39f 183d 5087 033d 80e6 82bc
00000120: cbeb 053d 1096 333c 062f d83d 23dc 9b3d
00000130: 1529 b23d c9b5 ad3d 73df c2bd fc33 d2bd
00000140: be40 ae3d 783e 6e3d 41f0 7a3d c002 a5bd
00000150: 53a7 323c ceda 243d 1fc5 84bd 741e 2c3c
00000160: 1d1c b53d 5cfa 403d b06c 16ba 1952 a53d
00000170: 26c4 a03d 218d 203d c78d 643d 339b dbbb
00000180: e549 723a 4b11 e73d 7a76 80bb 35a5 7fbd
00000190: 738c e23c bfbf 063d 5ef2 9dbd 6b2c e33b
000001a0: f948 a4bc 416c 863d 89de 4c3d 818f 5abd
000001b0: f071 393d 6b29 30bc ef6e ebbc d66c 9b3d
000001c0: 32fe 8e3c 3571 bebb 32f6 9e3d f2cb 493d
000001d0: 2040 a2bd 5105 b53c b82c 073d a696 a73d
000001e0: a20d 7b3d 815a 053d af29 45bd 1980 fc3c
000001f0: 6046 15bd 8d49 0ebd 7832 003c ceba 1fbd
00000200: 31e3 aa3b e8aa dfbc 08fd 4b3c 8961 10bc
00000210: d6a2 cd3b 794c a43c 25ae 57bd 8c16 b63d
00000220: eef4 99bc bf3f 47bd 125f aabd 81d7 5dbc
00000230: 466e 1d3d 867b 95bc 781d 2bbd efa9 473d
00000240: ab06 9ebd caf6 dd3c f2e9 37bd f4a3 b4bd
00000250: 76ba c1bd 7e11 aabd 0083 7bbd 3608 463d
00000260: f6ef 3dbc ddd8 933c 9f01 a0bd 65f9 0e3d
00000270: 564f 73bd 4f90 46bd d53f 06bd c0d5 6f3d
00000280: 227e 18bd ebed d83b a306 733d f822 d6bd
00000290: 0461 49bd 5a41 13bb 8442 7ebc c6f5 30bc
000002a0: dacc c6bd f0d2 acbd 57d7 e53c e243 a3bd
000002b0: 0c92 23bd b631 bb3c 1cfb 033b 7e0b 883d
000002c0: 5424 00be b3dc 20bd 7491 a3bd 7115 84bb
000002d0: 5fc9 72bd f9c1 3bbd 5658 e3bc 76bf 24bc
000002e0: 27aa d5bc 55bf 83bd a6d6 1dbe 3349 83bd
000002f0: 86dc 2f3d 7f01 dbba 02e0 d3bc 58c7 00be
00000300: 5df3 d23c 65eb 8abd 12db 253d 94b0 c5bd
00000310: e384 96bd e556 3fbd 4ae9 3cbd 98fc 8d3c
00000320: fcb9 08bd 8f06 56bc c65d f7bd 8364 79bd
00000330: 41ad 90bd 29e7 9bbd 8d3b 8d3d 404c d63d
00000340: 4268 c5bd 7724 60bd 4d37 46bd 9766 a73d
00000350: c15e f53b 37ec 87bc 1520 8a3d 0228 7c3b
00000360: eaa1 dcbd bfbd 67bd 0ed8 a3bc 7717 74bd
00000370: fc80 cabd 3f22 27bc ecb4 99bd 02ba 5a3c
00000380: 8fbf 55bc fd6c a6bd 3b67 b73b 3896 5f3d
00000390: b66d f8bc f337 ecbc 21bc 403d 61f9 b73b
000003a0: 4881 6f3c 7d5d 41bd 562c 51bd 3c41 373d
000003b0: 13c1 73bd 48b7 413c 485f 0b3d cc54 95bd
000003c0: 4796 eabc 843b 0abc 8f8f a3bd 68eb 29bd
000003d0: 2729 6b3d 9f4f d83b 6319 5dbd 4280 acbd
000003e0: 72d3 80bd e6c1 d8bc bb10 473d be99 22bd
000003f0: c8de b93c 8dcf 703d 9f42 afbb fbc4 603d

action_model._discrete_distribution.branches.2.bias f4 [2]
-0.13260101 0.13260104
00000000: 8fc8 07be 91c8 073e
