results/dad_ate_dog/LearnFightSword.onnx (onnx, 84149 bytes, 18 tensors)

action_model._continuous_distribution.log_sigma f4 [1, 2]
0.4020391 0.81774294
00000000: 12d8 cd3e 9a57 513f

action_model._continuous_distribution.mu.bias f4 [2]
0.029464718 -0.060487095
00000000: fe5f f13c 51c1 77bd

action_model._continuous_distribution.mu.weight f4 [2, 128]
-0.006586423 -0.06561988 -0.023156898 -0.060086086 -0.020161599 0.057530943 0.011221555 0.00089919026
-0.0069413693 0.014964251 0.0057936343 0.07342611 0.023087401 -0.012290897 -0.00056830543 0.0032287485
-0.051109593 -0.016999276 0.023519784 0.028343504 -0.07283849 0.06551061 0.024130547 -0.010269383
0.008714135 0.036225 -0.004953684 0.035712726 -0.031366516 -0.032842148 -0.019060612 0.023795743
-0.032543447 0.033362206 0.0029301618 -0.026696686 -0.04610142 0.01252915 -0.008815018 -0.025845712
0.011972324 0.03451646 -0.079225466 0.004974864 0.03588798 0.021602347 0.011615307 0.00489753
0.016833838 -0.06993924 -0.013852479 0.0081383325 0.007951695 -0.08227159 0.010902862 0.013506572
0.083687626 0.0004453197 -0.040803656 0.02398445 -0.028970823 -0.021666184 -0.023011299 0.04364428
0.0067157173 -0.046142496 0.006813232 -0.0034621712 -0.073895134 0.11045736 0.033025447 0.052865796
0.02357187 -0.010124989 -0.0031859402 -0.058553007 0.02738227 -0.029916966 0.022003263 -0.021417158
-0.0677255 -0.02194351 -0.0025203424 0.011573178 0.0014812585 0.027986059 0.007458131 0.003723762
0.037772868 -0.021199724 0.06451449 -0.021490753 -0.00760584 -0.015138238 0.056666713 0.009729902
-0.017045824 0.029794887 0.06330116 0.020330809 0.03131003 -0.03570268 0.06558016 -0.028809825
0.009648953 -0.011944667 -0.07927077 0.009940139 0.045624074 -0.0033963146 0.027879415 0.044173133
-0.04079791 0.0027854894 -0.012571862 0.017476548 -0.0074270554 0.023263961 0.030351898 0.022239156
-0.010993552 0.0023218482 0.060757603 -0.0033359837 0.0083505 0.020847622 0.044524796 -0.0011683541
0.0014533226 -0.019071091 0.031279884 -0.006865136 -0.0177838 -0.02049724 -0.09384425 -0.0017704733
-0.03673922 -0.06061517 -0.028784368 -0.053382896 -0.03534912 -0.020609507 0.002762837 0.027222283
0.008645794 -0.08184827 -0.018515263 0.03272591 0.037474822 0.0020619703 0.014128516 -0.042114746
-0.016200468 -0.056040958 0.0072912043 0.024565976 0.023800746 -0.023635 0.023889445 0.0061841183
-0.022634503 0.034926735 0.005727612 0.0041029667 0.009996028 -0.039528083 -0.010906731 0.021101108
-0.047697138 -0.032209482 -0.023701236 0.025221772 -0.0006283472 0.020521969 0.02181279 0.03895281
0.004032052 -0.0022635025 -0.033291385 -0.018215341 -0.012980915 0.019997306 -0.021748079 0.034253664
-0.022398936 -0.022937857 0.0015817311 0.024244422 0.019214388 0.0005615772 -0.03743193 0.051243983
-0.014376268 0.014288481 0.028733548 -0.038607758 -0.014978404 0.033582773 -0.028058616 -0.011858019
0.014422855 -0.04287992 -0.04493386 -0.043394357 -0.008491509 -0.012416664 0.06460306 -0.01748306
0.01177527 -0.00045542148 0.0012250857 -0.09300836 0.007436124 -0.012519618 -0.10489758 9.185517e-05
-0.06618656 -0.008890925 0.023947671 0.010556111 -0.013055702 -0.06283168 0.02701808 -0.0052408897
0.013446908 -0.014238453 0.009454714 -0.031709112 -0.003263878 -0.023550263 0.016103229 -0.06098575
0.00034686105 -0.020958586 -0.012624961 -0.004193858 -0.031112788 0.012564445 -0.028742353 0.002601214
-0.03424679 -0.023943597 0.013861179 0.016457716 0.021123402 -0.02664603 0.038499594 -0.08482308
-0.00013742746 0.024761327 0.0025028896 -0.002667096 0.026316283 -0.006096704 -0.01608749 -0.06674112
00000000: ecd2 d7bb b763 86bd 89b3 bdbc d41c 76bd
00000010: f029 a5bc 91a5 6b3d 9dda 373c a3b7 6b3a
00000020: 6d74 e3bb 9e2c 753c 87d8 bd3b 6e60 963d
00000030: ca21 bd3c c25f 49bc 55fa 14ba 6999 533b
00000040: 4b58 51bd 1142 8bbc 90ac c03c a330 e83c
00000050: 592c 95bd 6d2a 863d 6dad c53c ea40 28bc
00000060: bbc5 0e3c aa60 143d 8352 a2bb 8247 123d
00000070: 2d7a 00bd 7d85 06bd 0025 9cbc 4aef c23c
00000080: 474c 05bd cfa6 083d f507 403b 02b3 dabc
00000090: d8d4 3cbd 1047 4d3c de6c 10bc 63ba d3bc
000000a0: 9127 443c 2261 0d3d f640 a2bd 2f04 a33b
000000b0: 46ff 123d 68f7 b03c 214e 3e3c 767b a03b
000000c0: 1ee7 893c 4e3c 8fbd 82f5 62bc a456 053c
000000d0: d347 023c 027e a8bd eba1 323c ab4a 5d3c
000000e0: 6b64 ab3d cc79 e939 bc21 27bd 0a7b c43c
000000f0: 3854 edbc 487d b1bc 3182 bcbc 58c4 323d
00000100: 850f dc3b eaff 3cbd 8841 df3b 98e5 62bb
00000110: 5556 97bd 7837 e23d b145 073d ce89 583d
00000120: cb19 c13c 48e3 25bc 35cb 50bb 47d5 6fbd
00000130: c850 e03c 6d14 f5bc 3040 b43c 0973 afbc
00000140: abb3 8abd e0c2 b3bc 542c 25bb 6d9d 3d3c
00000150: ca26 c23a 0543 e53c 5663 f43b 5c0a 743b
00000160: b9b7 1a3d 0bab adbc 2c20 843d 600d b0bc
00000170: 693a f9bb 5f06 78bc 5b1b 683d 2b6a 1f3c
00000180: afa3 8bbc 6814 f43c 0aa4 813d cc8c a63c
00000190: f23e 003d f93c 12bd e44e 863d 9502 ecbc
000001a0: a416 1e3c 91b3 43bc b758 a2bd f7db 223c
000001b0: 4fe0 3a3d b494 5ebb 5f63 e43c e3ee 343d
000001c0: b61b 27bd c28c 363b 36fa 4dbc fa2a 8f3c
000001d0: a85e f3bb 1094 be3c 8ba4 f83c e42e b63c
000001e0: 4d1e 34bc 262a 183b f7dc 783d 85a0 5abb
000001f0: 89d0 083c a2c8 aa3c a25f 363d 7523 99ba
00000200: 6a7d be3a fa3a 9cbc 561f 003d eff4 e0bb
00000210: 55af 91bc d4e9 a7bc 6a31 c0bd 3a0f e8ba
00000220: dd7b 16bd 9d47 78bd 32cd ebbc 06a8 5abd
00000230: 3dca 10bd 45d5 a8bc b710 353b 4401 df3c
00000240: 17a7 0d3c 11a0 a7bd 52ad 97bc 9b0b 063d
00000250: 337f 193d 1f22 073b 4b7b 673c 8380 2cbd
00000260: d8b6 84bc 348b 65bd 0eeb ee3b 963e c93c
00000270: c8f9 c23c 309e c1bc ccb3 c33c 25a4 ca3b
00000280: fe6b b9bc 560f 0f3d b1ae bb3b 2e72 863b
00000290: 61c6 233c 33e8 21bd 25b2 32bc 3bdc ac3c
000002a0: 135e 43bd 17ee 03bd 1829 c2bc e49d ce3c
000002b0: abb7 24ba b01d a83c bcb0 b23c fb8c 1f3d
000002c0: 4e1f 843b 4557 14bb 8c5c 08bd 5738 95bc
000002d0: e7ad 54bc 64d1 a33c 0729 b2bc 924d 0c3d
000002e0: f97d b7bc 2ce8 bbbc 1752 cf3a 3d9c c63c
000002f0: 7e67 9d3c cf36 133a 3952 19bd 36e5 513d
00000300: 708a 6bbc 3c1a 6a3c 9e62 eb3c 2b23 1ebd
00000310: fb67 75bc 178e 093d 2fdb e5bc 2348 42bc
00000320: d74d 6c3c dba2 2fbd 910c 38bd 48be 31bd
00000330: f81f 0bbc 436f 4bbc 9c4e 843d a238 8fbc
00000340: 10ed 403c a3c5 eeb9 0e93 a03a 2b7b bebd
00000350: bbaa f33b 151f 4dbc 8bd4 d6bd 5ea2 c038
00000360: d28c 87bd 3eab 11bc e82d c43c 8af3 2c3c
00000370: 95e7 55bc e5ad 80bd 0555 dd3c c5bb abbb
00000380: 6c50 5c3c 6648 69bc f2e7 1a3c 6ae1 01bd
00000390: c9e6 55bb 7bec c0bc ebea 833c 32cc 79bd
000003a0: e7da b539 57b1 abbc edd8 4ebc a16c 89bb
000003b0: 3fe0 febc 1adb 4d3c 1575 ebbc 2179 2a3b
000003c0: 5d46 0cbd 5d25 c4bc 001a 633c 55d2 863c
000003d0: fc0a ad3c c648 dabc c0b1 1d3d b9b7 adbd
000003e0: 671a 10b9 44d8 ca3c 8507 243b 72ca 2ebb
000003f0: 3f95 d73c dcc6 c7bb e9c9 83bc 91af 88bd

action_model._discrete_distribution.branches.0.bias f4 [3]
-0.033644155 0.09517915 -0.07998352
00000000: 74ce 09bd 49ed c23d 66ce a3bd

action_model._discrete_distribution.branches.0.weight f4 [3, 128]
-0.05685533 0.04532341 0.054893862 -0.019718619 -0.013277526 -0.0008234353 0.07478885 -0.066854455
-0.04383547 0.025181971 -0.031744316 0.044770107 -0.13027819 -0.03602311 0.11256168 -0.03614708
0.005030253 -0.047830056 -0.01171833 -0.052868597 0.006715238 -0.012243007 0.04387554 -0.038040332
-0.02500109 -0.06108859 -0.0018355015 0.13927418 -0.013612659 0.0020684248 0.03428866 0.06194523
0.061709024 0.011569359 0.017705243 -0.011209854 0.036838707 0.057629723 -0.023356635 0.062436342
0.034318704 0.024307992 0.06309954 0.0112244645 -0.009808693 -0.03469769 0.09765892 -0.023957478
0.05372798 0.061956566 0.022444585 0.1370545 -0.0111404415 0.028436244 0.019553037 0.062612
-0.008429963 -0.09669402 -0.005465426 0.053371944 0.025476327 0.08421981 0.029744122 0.046178006
-0.040587272 0.045767438 0.048052587 0.0148304 0.011677091 0.077650115 0.09385093 0.066332236
0.05265598 -0.0027421839 -0.03980155 0.03874483 0.0139365 0.02225814 0.05582305 0.014013633
0.024694126 -0.029119596 0.0036901657 0.0092462925 0.023585692 0.0008574665 -0.03814648 -0.020227617
0.036125027 -0.0034015628 0.0019995493 0.008944885 -0.009448686 -0.05577157 -0.0047708936 0.05725188
0.05532657 0.035250217 0.029007772 -0.086243264 -0.032472607 0.007987275 0.01657573 -0.03645649
0.108941 0.06155177 0.0013777402 0.0071168966 0.002669745 -0.06265706 0.007565688 0.09246274
0.011174301 -0.08832436 0.0187981 -0.020891022 0.027172593 0.020843156 -0.018224483 0.11149872
-0.007613252 0.054983675 0.006924952 0.0456145 0.049011376 0.045618676 0.03159063 -0.100584194
-0.027024606 -0.037699968 -0.057770044 -0.01414348 -0.057486285 0.033548206 -0.08317159 0.063349456
0.020284833 -0.02887784 0.0010815219 -0.0011329349 0.06862071 0.005557509 -0.039394595 0.020894444
0.0036308095 0.002890723 -0.008490748 -0.042843834 -0.06845189 0.005819323 -0.053946275 0.018380806
0.015028484 0.06093603 -0.049201254 -0.042301673 -0.0195211 -0.029129185 -0.037561677 -0.020688044
-0.03971862 0.00064789347 -0.009600567 -0.00453814 -0.04537868 -0.021378798 0.016528461 -0.01057787
-0.05279143 -0.009943618 -0.0037612102 0.015958818 0.0068792603 0.05811007 -0.101939626 0.0075715072
0.018173544 -0.011695936 -0.041039076 -0.08357053 -0.051777583 -0.018706769 0.021406436 -0.037078153
0.0047608144 0.13649897 -0.015813671 -0.105194755 -0.04524967 -0.041574147 -0.03894354 -0.028642932
-0.013622158 -0.055017058 -0.07841831 -0.0040635616 -0.07812322 0.020589475 -0.05278887 -0.04561791
-0.0014525908 0.00088280137 0.002094036 -0.06128705 -0.048541125 -0.06857725 0.015488865 -0.04661742
-0.045288518 -0.057716586 0.021340538 0.06814067 0.013655706 0.020424958 0.08292492 0.049483094
-0.065272495 0.034170866 -0.113965884 -0.00028363208 -0.050799772 0.076303415 0.015646363 -0.018849608
-0.05009369 -0.013682704 -0.0064704875 0.04309053 -0.0037053875 0.024819614 0.050169457 0.049574934
-0.009441729 -0.08875477 -0.10702824 0.063101284 0.0051539685 0.03540625 -0.07588539 -0.021529917
-0.002859712 0.052796666 -0.060704075 0.022413258 -0.021274615 -0.060600817 0.046561267 -0.048288647
-0.012454695 -0.08124088 0.027502868 -0.072321184 -0.014902543 0.01666621 -0.028168427 0.058306325
00000000: 22e1 68bd 0aa5 393d 63d8 603d f188 a1bc
00000010: fb89 59bc cfdb 57ba e62a 993d fdea 88bd
00000020: d28c 33bd 6c4a ce3c 5406 02bd dc60 373d
00000030: a567 05be f88c 13bd bd86 e63d f60e 14bd
00000040: d2d4 a43b 73e9 43bd 3dfe 3fbc be8c 58bd
00000050: 800b dc3b e596 48bc d7b6 333d 2ed0 1bbd
00000060: 16cf ccbc 0838 7abd 3695 f0ba e49d 0e3e
00000070: a107 5fbc 698e 073b 4472 0c3d 48ba 7d3d
00000080: 9ac2 7c3d 698d 3d3c 960a 913c 89a9 37bc
00000090: 2fe4 163d 250d 6c3d 6a56 bfbc 40bd 7f3d
000000a0: c591 0c3d 8e21 c73c 553a 813d d1e6 373c
000000b0: a4b4 20bc 2a1f 0ebd 6601 c83d 7942 c4bc
000000c0: df11 5c3d 2bc6 7d3d b5dd b73c 0458 0c3e
000000d0: 6686 36bc 20f3 e83c b12d a03c b83a 803d
000000e0: d41d 0abc 8407 c6bd 5117 b3bb 8a9c 5a3d
000000f0: bbb3 d03c 707b ac3d f2a9 f33c 2625 3d3d
00000100: d73e 26bd a376 3b3d cad2 443d 35fb 723c
00000110: 4551 3f3c 0607 9f3d eb34 c03d 32d9 873d
00000120: ccad 573d 36b6 33bb f306 23bd e6b2 1e3d
00000130: eb55 643c b456 b63c b6a6 643d 7099 653c
00000140: 564b ca3c 388c eebc b5d6 713b c37d 173c
00000150: c836 c13c 9ac7 603a 7c3f 1cbd 63b4 a5bc
00000160: d6f7 133d c1ec 5ebb df0a 033b 918d 123c
00000170: a9ce 1abc bb70 64bd 2855 9cbb f380 6a3d
00000180: 1d9e 623d 8862 103d b5a1 ed3c 4fa0 b0bd
00000190: ff01 05bd 0fdd 023c d3c9 873c 6753 15bd
000001a0: 761c df3d b51d 7c3d 4a95 b43a db34 e93b
000001b0: e3f6 2e3b 5852 80bd 97e9 f73b 1b5d bd3d
000001c0: 6a14 373c 67e3 b4bd 79fe 993c a623 abbc
000001d0: 0f99 de3c 44bf aa3c 834b 95bc 7159 e43d
000001e0: 9678 f9bb 9036 613d b5ea e23b 45d6 3a3d
000001f0: 27c0 483d a6da 3a3d 2d65 013d 16ff cdbd
00000200: b562 ddbc 486b 1abd 48a0 6cbd 0eba 67bc
00000210: bd76 6bbd d869 093d de55 aabd 5cbd 813d
00000220: 612c a63c 3891 ecbc dac1 8d3a fd7e 94ba
00000230: 0489 8c3d c41b b63b 3a5c 21bd d32a ab3c
00000240: e0f2 6d3b 4972 3d3b c71c 0bbc 047d 2fbd
00000250: 8130 8cbd 05b0 be3b c5f6 5cbd 5893 963c
00000260: 083a 763c 0f98 793d 4187 49bd 8544 2dbd
00000270: b7ea 9fbc 54a0 eebc 46da 19bd f979 a9bc
00000280: feaf 22bd 65d7 293a b24b 1dbc adb4 94bb
00000290: ffde 39bd 9722 afbc b266 873c cd4e 2dbc
000002a0: d43b 58bd 8fea 22bc a37e 76bb 11bc 823c
000002b0: 6b6b e13b d304 6e3d b9c5 d0bd 681a f83b
000002c0: afe0 943c 50a0 3fbc 9718 28bd 0727 abbd
000002d0: bb14 54bd f03e 99bc 8d5c af3c 43df 17bd
000002e0: 9b00 9c3b 63c6 0b3e ac8b 81bc 5970 d7bd
000002f0: b857 39bd a749 2abd 4383 1fbd 95a4 eabc
00000300: 792f 5fbc 9159 61bd c799 a0bd a027 85bb
00000310: 11ff 9fbd 42ab a83c 2439 58bd d8d9 3abd
00000320: dc64 beba cc6b 673a 183c 093b 2108 7bbd
00000330: 0fd3 46bd 3b72 8cbd 02c5 7d3c e8f1 3ebd
00000340: 7480 39bd 3a68 6cbd 5ad2 ae3c 568d 8b3d
00000350: 2fbc 5f3c 3e52 a73c 8ad4 a93d c9ae 4a3d
00000360: 96ad 85bd c0f6 0b3d f266 e9bd 74b4 94b9
00000370: 6c13 50bd f744 9c3d cd2c 803c 7e6a 9abc
00000380: 0b2f 4dbd 6c2d 60bc 6206 d4bb b27f 303d
00000390: 16d6 72bb 8152 cb3c 7d7e 4d3d 160f 4b3d
000003a0: 7bb1 1abc 10c5 b5bd 9f31 dbbd 3f3b 813d
000003b0: 9fe2 a83b 2506 113d cd69 9bbd 825f b0bc
000003c0: 026a 3bbb 5141 583d d6a4 78bd 029c b73c
000003d0: 1a48 aebc 9038 78bd 07b7 3e3d 51ca 45bd
000003e0: c70e 4cbc 9e61 a6bd b24d e13c 211d 94bd
000003f0: cc29 74bc 9387 883c 79c1 e6bc 9dd2 6e3d

action_model._discrete_distribution.branches.1.bias f4 [2]
-0.024137482 0.024137763
00000000: f8bb c5bc 8fbc c53c

action_model._discrete_distribution.branches.1.weight f4 [2, 128]
0.0051737237 -0.023616914 -0.07476204 -0.07116629 0.006590437 -0.0959829 -0.011212873 0.012421169
-0.03211376 0.008345855 -0.026751371 -0.03597288 -0.048591927 -0.031837486 -0.088001564 0.028114323
-0.047512826 -0.028162748 -0.025831979 -0.10757788 -0.03431752 -0.09395523 -0.059856277 0.025966903
-0.014014023 -0.031613722 -0.11014699 0.029546428 -0.054517698 -0.06013465 -0.0776035 0.07502257
-0.04778938 -0.0004690864 -0.11024333 -0.041793365 0.02751827 -0.00014788825 0.002760726 -0.11965416
0.06523649 0.033322122 -0.028047936 -0.11998982 -0.0646475 -0.009902297 -0.08292741 0.05551832
-0.052807104 -0.05124041 -0.06911474 0.031260382 -0.027176192 -0.02397701 -0.054386053 0.03723866
-0.055956565 0.03215567 0.037434258 -0.10356625 0.025846528 0.03090251 -0.027584895 -0.025950514
0.01375146 -0.06281977 0.06878119 -0.0005475184 -0.06131031 -0.044507857 0.010139512 -0.05543559
-0.02121198 0.010974562 0.063380755 -0.06333484 0.0112887435 -0.04189391 0.008632217 -0.00024307125
-0.049513604 -0.087981775 0.011346283 -0.031367105 0.015689226 0.0010958335 -0.01926833 -0.009511763
0.0063164053 0.0127705075 0.06281551 -0.048434813 -0.08450008 0.0075131124 -0.089519106 0.056551114
0.05404343 -0.017842224 -0.024134533 0.002094407 0.04362152 0.00027977768 0.0022787596 -0.019335333
-0.11225092 -0.09029625 -0.029312074 -0.109246306 -0.08079841 0.0050766137 0.01792722 -0.086737275
-0.075683974 0.0013728356 -0.10213268 -0.041991986 0.03021631 -0.006260261 -0.059556354 0.064190574
0.0024946972 0.022245573 0.012688435 -0.05085567 -0.095512845 0.0053279595 -0.0085635595 0.021454027
-0.0034614825 0.045777965 0.06936952 0.04575972 0.002694711 0.095792696 -0.004260581 -0.0028194652
0.0254644 -0.0028929273 0.026177444 0.04510138 0.030645115 0.0373872 0.09254099 -0.010437597
0.054908462 0.013242797 0.02898871 0.10933966 0.03952972 0.10072932 0.057696145 -0.019290615
0.03400723 0.03516062 0.10614095 -0.04517966 0.04487454 0.052004125 0.08872529 -0.083123416
0.055339143 0.00080386695 0.11402273 0.029462693 -0.02359939 0.0074475775 0.008190725 0.12820816
-0.05414019 -0.034057286 0.032867193 0.107089765 0.07205603 0.025645196 0.072647035 -0.06720332
0.038360868 0.06270093 0.09823719 -0.027225813 0.028656576 0.036377385 0.041761722 -0.032312673
0.04796717 -0.030215325 -0.03423521 0.10677943 -0.021743868 -0.02996378 0.034786552 0.021431178
-0.016651135 0.061470605 -0.06428221 0.008768268 0.08877278 0.039982628 -0.020048916 0.07989356
0.026004046 -0.007398612 -0.056935985 0.04666111 -0.017780572 0.05359708 0.00017246856 0.01390098
0.0660496 0.09144371 -0.0039085364 0.04343647 -0.016602252 -0.0026321404 0.030690877 0.024635255
-0.008530335 -0.014848426 -0.06897852 0.044864014 0.08265458 -0.0091835605 0.0907046 -0.053212654
-0.04237332 0.03345662 0.038453586 0.0010312344 -0.03220465 -0.0142170405 0.0014122622 0.004733994
0.12149506 0.0871991 0.044380024 0.06731126 0.09000874 -0.012328652 -0.030943744 0.0848277
0.08676483 -0.0052724504 0.09419324 0.027012452 -0.037299164 0.020476138 0.074275404 -0.06318462
0.0021285675 -0.025156364 -0.003539022 0.03611238 0.096223496 0.008053024 0.020542128 -0.025990052
00000000: 5788 a93b 4278 c1bc d71c 99bd a2bf 91bd
00000010: 98f4 d73b af92 c4bd 33b6 37bc 2982 4b3c
00000020: b889 03bd 0ebd 083c b125 dbbc 4c58 13bd
00000030: 5408 47bd 0668 02bd 2a3a b4bd 0250 e63c
00000040: cf9c 42bd 90b5 e6bc 969d d3bc cb51 dcbd
00000050: 8790 0cbd 9a6b c0bd db2b 75bd 8bb8 d43c
00000060: 139b 65bc 647d 01bd bf94 e1bd 5a0b f23c
00000070: f34d 5fbd c04f 76bd 95ee 9ebd 6fa5 993d
00000080: ccbe 43bd b6ef f5b9 41c7 e1bd 852f 2bbd
00000090: ff6d e13c 7312 1bb9 4ced 343b 3e0d f5bd
000000a0: b59a 853d c77c 083d c9c4 e5bc 39bd f5bd
000000b0: e965 84bd 3e3d 22bc d9d5 a9bd 2e67 633d
000000c0: 434c 58bd 77e1 51bd 078c 8dbd e30a 003d
000000d0: 9ba0 debc 6f6b c4bc e9c3 5ebd 9187 183d
000000e0: b632 65bd aab5 033d aa54 193d 8b1a d4bd
000000f0: 19bc d33c 4327 fd3c b8f9 e1bc 2c96 d4bc
00000100: ce4d 613c a7a7 80bd 27dd 8c3d 5687 0fba
00000110: 8520 7bbd df4d 36bd 3220 263c 6e10 63bd
00000120: bfc4 adbc a6ce 333c c5cd 813d b2b5 81bd
00000130: 6cf4 383c f398 2bbd 246e 0d3c f1e0 7eb9
00000140: c7ce 4abd ca2f b4bd c3e5 393c cb7a 00bd
00000150: b186 803c 12a2 8f3a 9ed8 9dbc 3ad7 1bbc
00000160: d9f9 ce3b 643b 513c 6ba5 803d 9563 46bd
00000170: 610e adbd 8e30 f63b cb55 b7bd 24a2 673d
00000180: a55c 5d3d db29 92bc c9b5 c5bc 5242 093b
00000190: 7bac 323d 20af 9239 3e57 153b 2265 9ebc
000001a0: cfe3 e5bd 3eed b8bd e01f f0bc 87bc dfbd
000001b0: a379 a5bd b959 a63b 1bdc 923c 50a3 b1bd
000001c0: 3300 9bbd b8f0 b33a f02a d1bd caff 2bbd
000001d0: 3288 f73c e022 cdbb 5df1 73bd 5976 833d
000001e0: 137e 233b 593c b63c 27e3 4f3c 094e 50bd
000001f0: 3d9c c3bd 2a96 ae3b 2c4e 0cbc 5bc0 af3c
00000200: 0ada 62bb ad81 3b3d 9b11 8e3d 8b6e 3b3d
00000210: c099 303b f62e c43d 589c 8bbb c7c6 38bb
00000220: b89a d03c 4497 3dbb 1472 d63c 3abc 383d
00000230: 770b fb3c 5223 193d 2186 bd3d 7402 2bbc
00000240: b2e7 603d 51f8 583c bb79 ed3c 79ed df3d
00000250: eae9 213d 2c4b ce3d cb52 6c3d 5a07 9ebc
00000260: 2a4b 0b3d 9504 103d 6d60 d93d 4f0e 39bd
00000270: 5ece 373d 4702 553d 9bb5 b53d 9c3c aabd
00000280: 4cab 623d 99ba 523a c084 e93d bf5b f13c
00000290: 8253 c1bc cf0a f43b 6432 063c 0049 033e
000002a0: 1bc2 5dbd a77f 0bbd c09f 063d e151 db3d
000002b0: 1d92 933d e015 d23c f8c7 943d e5a1 89bd
000002c0: 4920 1d3d 5869 803d 9430 c93d ab08 dfbc
000002d0: 32c1 ea3c 7400 153d 570e 2b3d 4b5a 04bd
000002e0: 3979 443d 2186 f7bc 383a 0cbd 2caf da3d
000002f0: 3220 b2bc 9a76 f5bc 587c 0e3d 7090 af3c
00000300: f667 88bc 9ac8 7b3d 64a6 83bd c8a8 0f3c
00000310: 81ce b53d d3c4 233d a03d a4bc 3c9f a33d
00000320: 7006 d53c 0e70 f2bb b535 69bd b81f 3f3d
00000330: 90a8 91bc 9d88 5b3d add8 3439 f0c0 633c
00000340: 0345 873d d746 bb3d 2e13 80bb 71ea 313d
00000350: 7201 88bc fd7f 2cbb 6f6b fb3c e0cf c93c
00000360: d1c2 0bbc d046 73bc 9c44 8dbd 54c3 373d
00000370: ce46 a93d a576 16bc 55c3 b93d 83f5 59bd
00000380: a58f 2dbd cf09 093d 8281 1d3d 7c2a 873a
00000390: 06e9 03bd 97ee 68bc a81b b93a 9f1f 9b3b
000003a0: 67d2 f83d 7195 b23d d4c7 353d 7cda 893d
000003b0: 8156 b83d 1dfe 49bc bc7d fdbc 25ba ad3d
000003c0: c2b1 b13d 85c4 acbb 63e8 c03d 3849 dd3c
000003d0: 02c7 18bd 93bd a73c b41d 983d f066 81bd
000003e0: 707f 0b3b b814 cebc f0ee 67bb 93ea 133d
000003f0: d310 c53d d5f0 033c f747 a83c 17e9 d4bc

action_model._discrete_distribution.branches.2.bias f4 [2]
-0.13260101 0.13260104
00000000: 8fc8 07be 91c8 073e

action_model._discrete_distribution.branches.2.weight f4 [2, 128]
0.003801397 0.03295831 0.000118185475 0.016479399 -0.0023363507 -0.01543557 0.03861634 -0.087685525
0.025110878 0.041081008 0.08330428 -0.0007562671 -0.023917286 0.02666558 0.022063626 -0.08377235
0.09134709 -0.016085783 0.05454529 0.08658351 0.0843167 0.069297835 0.060510445 -0.060005568
0.024918443 -0.0005178005 0.09827525 -0.04140817 0.08151839 0.05615757 0.035170205 -0.07192036
0.055346675 -0.017762981 -0.071954936 0.08267222 0.0415221 -0.0019679824 0.020343734 0.008114899
0.0899943 0.07127171 -0.02973578 0.07969486 0.027246142 -0.024012374 -0.011626959 -0.043502036
0.1230141 0.018174393 0.05284356 0.0010702097 0.076367594 0.043713022 0.053568687 0.04187803
-0.005848837 0.06763937 0.1580217 0.06767143 -0.04059531 0.0029044754 0.04752987 0.13625854
-0.010493608 0.044681817 -0.028719934 0.09038429 0.077975035 0.037261676 0.032111466 -0.015979052
0.032695573 0.010961071 0.10555844 0.07610347 0.08699242 0.084819384 -0.09515276 -0.102638215
0.08508442 0.058165044 0.06126428 -0.08057165 0.010904151 0.04024773 -0.0648291 0.0105053075
0.08843253 0.04711376 -0.00057382416 0.080722995 0.07849912 0.03919709 0.055799272 -0.006701851
0.00092425785 0.11282595 -0.0039203735 -0.062413413 0.027654862 0.032897707 -0.077122435 0.0069327853
-0.020054327 0.065636165 0.050016914 -0.053359512 0.045274675 -0.010752062 -0.02873942 0.07589118
0.017455194 -0.005811835 0.07761802 0.049266763 -0.07922387 0.022097262 0.03300163 0.08183031
0.0612923 0.032557014 -0.048135456 0.0308228 -0.036444068 -0.034738112 0.007824533 -0.03899651
0.0052150716 -0.027303174 0.012450464 -0.008812317 0.006275515 0.020055996 -0.05265631 0.08891019
-0.01879355 -0.048644777 -0.083189145 -0.01354015 0.038435243 -0.018247377 -0.04177615 0.048746046
-0.077161156 0.027095217 -0.044900842 -0.08820334 -0.09459393 -0.083041176 -0.06140423 0.048347674
-0.011592856 0.018047744 -0.07812809 0.03490581 -0.059401833 -0.048477467 -0.03277572 0.058553457
-0.037229665 0.006620159 0.0593325 -0.104558885 -0.049164787 -0.0022469372 -0.015518788 -0.010800784
-0.09707041 -0.08438671 0.028056784 -0.07971932 -0.039934203 0.022850852 0.0020138687 0.06642817
-0.12513858 -0.039272975 -0.07986727 -0.0040308763 -0.059274074 -0.045839284 -0.027752083 -0.0100554135
-0.026082112 -0.06432978 -0.15413913 -0.06410446 0.042934917 -0.001670882 -0.025863651 -0.12576044
0.02575081 -0.06783179 0.040492125 -0.0965282 -0.07349565 -0.04671373 -0.04612092 0.01733236
-0.033380494 -0.013063087 -0.12078433 -0.06088687 -0.070642956 -0.0761245 0.06896124 0.10463762
-0.09639026 -0.054722276 -0.048392583 0.08173864 0.007488102 -0.016592128 0.067444004 0.0038475995
-0.1077307 -0.05657744 -0.020000484 -0.05959269 -0.09887883 -0.010201036 -0.07505211 0.013350012
-0.013046159 -0.081262566 0.005597023 0.05458662 -0.030325752 -0.028835272 0.047054414 0.005614445
0.014618225 -0.047208298 -0.051067673 0.044739947 -0.0595103 0.011823483 0.034026414 -0.07291564
-0.028636111 -0.008437041 -0.07986366 -0.041484267 0.057412293 0.0066012884 -0.05397929 -0.08422901
-0.0629033 -0.026459645 0.04859994 -0.0396974 0.022689238 0.058791686 -0.005348518 0.054875355
00000000: dc20 793b 4bff 063d 58da f738 ceff 863c
00000010: 761d 19bb 79e5 7cbc 2b2c 1e3d 7894 b3bd
00000020: 54b5 cd3c 8f44 283d 6f9b aa3d 3a40 46ba
00000030: 2fee c3bc c671 da3c c7be b43c d690 abbd
00000040: 2f14 bb3d 55c6 83bc e26a 5f3d b252 b13d
00000050: 3cae ac3d 06ec 8d3d cdd9 773d 66c8 75bd
00000060: c321 cc3c 01bd 07ba 8944 c93d 9d9b 29bd
00000070: 1df3 a63d 7b05 663d a20e 103d fb4a 93bd
00000080: 32b3 623d ac83 91bc 1c5d 93bd 0e50 a93d
00000090: 1413 2a3d 44f9 00bb e7a7 a63c 5af4 043c
000000a0: ee4e b83d e7f6 913d 7398 f3bc 0f37 a33d
000000b0: 4d33 df3c 99b5 c4bc 007f 3ebc 312f 32bd
000000c0: d1ee fb3d 77e2 943c 7d72 583d 4746 8c3a
000000d0: 9d66 9c3d 6d0c 333d d76a 5b3d 4c88 2b3d
000000e0: 9aa7 bfbb 8386 8a3d 71d0 213e 5297 8a3d
000000f0: 4547 26bd 0359 3e3b aeae 423d 5c87 0b3e
00000100: 62ed 2bbc 4804 373d 1146 ebbc 661b b93d
00000110: 60b1 9f3d b39f 183d 5087 033d 80e6 82bc
00000120: cbeb 053d 1096 333c 062f d83d 23dc 9b3d
00000130: 1529 b23d c9b5 ad3d 73df c2bd fc33 d2bd
00000140: be40 ae3d 783e 6e3d 41f0 7a3d c002 a5bd
00000150: 53a7 323c ceda 243d 1fc5 84bd 741e 2c3c
00000160: 1d1c b53d 5cfa 403d b06c 16ba 1952 a53d
00000170: 26c4 a03d 218d 203d c78d 643d 339b dbbb
00000180: e549 723a 4b11 e73d 7a76 80bb 35a5 7fbd
00000190: 738c e23c bfbf 063d 5ef2 9dbd 6b2c e33b
000001a0: f948 a4bc 416c 863d 89de 4c3d 818f 5abd
000001b0: f071 393d 6b29 30bc ef6e ebbc d66c 9b3d
000001c0: 32fe 8e3c 3571 bebb 32f6 9e3d f2cb 493d
000001d0: 2040 a2bd 5105 b53c b82c 073d a696 a73d
000001e0: a20d 7b3d 815a 053d af29 45bd 1980 fc3c
000001f0: 6046 15bd 8d49 0ebd 7832 003c ceba 1fbd
00000200: 31e3 aa3b e8aa dfbc 08fd 4b3c 8961 10bc
00000210: d6a2 cd3b 794c a43c 25ae 57bd 8c16 b63d
00000220: eef4 99bc bf3f 47bd 125f aabd 81d7 5dbc
00000230: 466e 1d3d 867b 95bc 781d 2bbd efa9 473d
00000240: ab06 9ebd caf6 dd3c f2e9 37bd f4a3 b4bd
00000250: 76ba c1bd 7e11 aabd 0083 7bbd 3608 463d
00000260: f6ef 3dbc ddd8 933c 9f01 a0bd 65f9 0e3d
00000270: 564f 73bd 4f90 46bd d53f 06bd c0d5 6f3d
00000280: 227e 18bd ebed d83b a306 733d f822 d6bd
00000290: 0461 49bd 5a41 13bb 8442 7ebc c6f5 30bc
000002a0: dacc c6bd f0d2 acbd 57d7 e53c e243 a3bd
000002b0: 0c92 23bd b631 bb3c 1cfb 033b 7e0b 883d
000002c0: 5424 00be b3dc 20bd 7491 a3bd 7115 84bb
000002d0: 5fc9 72bd f9c1 3bbd 5658 e3bc 76bf 24bc
000002e0: 27aa d5bc 55bf 83bd a6d6 1dbe 3349 83bd
000002f0: 86dc 2f3d 7f01 dbba 02e0 d3bc 58c7 00be
00000300: 5df3 d23c 65eb 8abd 12db 253d 94b0 c5bd
00000310: e384 96bd e556 3fbd 4ae9 3cbd 98fc 8d3c
00000320: fcb9 08bd 8f06 56bc c65d f7bd 8364 79bd
00000330: 41ad 90bd 29e7 9bbd 8d3b 8d3d 404c d63d
00000340: 4268 c5bd 7724 60bd 4d37 46bd 9766 a73d
00000350: c15e f53b 37ec 87bc 1520 8a3d 0228 7c3b
00000360: eaa1 dcbd bfbd 67bd 0ed8 a3bc 7717 74bd
00000370: fc80 cabd 3f22 27bc ecb4 99bd 02ba 5a3c
00000380: 8fbf 55bc fd6c a6bd 3b67 b73b 3896 5f3d
00000390: b66d f8bc f337 ecbc 21bc 403d 61f9 b73b
000003a0: 4881 6f3c 7d5d 41bd 562c 51bd 3c41 373d
000003b0: 13c1 73bd 48b7 413c 485f 0b3d cc54 95bd
000003c0: 4796 eabc 843b 0abc 8f8f a3bd 68eb 29bd
000003d0: 2729 6b3d 9f4f d83b 6319 5dbd 4280 acbd
000003e0: 72d3 80bd e6c1 d8bc bb10 473d be99 22bd
000003f0: c8de b93c 8dcf 703d 9f42 afbb fbc4 603d

action_model._discrete_distribution.branches.3.bias f4 [2]
0.03493417 -0.034933865
00000000: 2217 0f3d d016 0fbd

action_model._discrete_distribution.branches.3.weight f4 [2, 128]
0.0064196675 -0.009081801 -0.01984764 -0.013119992 -0.014215912 -0.066509895 0.05140218 -0.0045440686
-0.0243446 0.060970288 0.008950179 0.012825709 -0.06926539 0.026230276 -0.053527154 0.006158429
0.02487332 -0.03147853 -0.020450993 0.005239462 -0.017189205 0.017636739 -0.03531117 -0.023366237
0.007211917 -0.04762811 0.0054906034 0.030761607 -0.039274216 0.0019816095 -0.07732708 0.083550885
-0.0022224814 0.019214533 -0.0066854795 0.028212726 -0.0022420199 -0.021486353 -0.019558117 -0.0630481
-0.04148453 0.02521235 -0.017804496 -0.039432008 -0.018030366 -0.006536171 -0.0063569224 -0.021267328
0.021956714 0.00022649522 -0.008637896 -0.029289216 -0.0070268633 -0.07340191 -0.008207183 -0.002807232
-0.08090304 -0.061061636 -0.0107513545 -0.009807275 0.05991109 0.012899302 0.04488664 -0.02204596
-0.07975053 -0.01781926 0.044035718 -0.03548792 -0.018034063 -0.058717627 -0.0026655737 -0.02287766
-0.0033057553 0.02140768 0.025760341 -0.011803312 -0.021870904 0.04990534 0.037814286 0.012408442
0.0072703366 -0.09378822 -0.025817359 0.0146970805 -0.0022015972 0.018408855 0.024204744 0.057919275
-0.027148534 -0.026072377 -0.0075265756 -0.059819326 -0.0036364724 -0.011244047 -0.03403689 -0.00063712086
0.056855287 -1.7938788e-05 -0.010042077 -0.03642213 0.01769831 -0.034950268 -0.004615702 0.02947976
-0.0034937558 -0.0012154335 0.06515928 0.067685045 -0.044467706 0.059929904 -0.0039957915 -0.09268044
-0.08652264 -0.026280165 -0.0029104128 -0.045130398 -0.0013468651 -0.0057570026 -0.039919198 -0.015009851
0.010295795 0.10491176 -0.0038228896 -0.012984507 -0.0018682798 -0.014196185 -0.0034334157 -0.040185887
0.013393576 -0.0057648914 0.007863936 0.033093635 0.006934309 0.055624265 -0.04992169 0.0059805866
0.01587249 -0.046431698 0.0024471974 -0.014239936 0.064359404 -0.017377086 0.054947507 -0.011634889
-0.0055695167 0.041899078 0.013286884 -0.005559099 0.011187376 -0.020068126 0.044625066 0.008603053
-0.0062440876 0.068626605 -0.01038849 -0.028319636 0.022279978 -0.011682869 0.061747987 -0.0880501
0.02008866 -0.03029064 0.003686109 -0.022211676 0.014879375 0.008591002 0.029232668 0.05119722
0.026711622 -0.026340142 0.010238296 0.04080837 -0.012820162 0.014012657 0.014710899 0.03173936
-0.04101249 -0.004315342 0.022271322 0.046110835 0.032699924 0.07664204 0.018235605 0.0114133945
0.075918585 0.045031846 0.015854843 0.0022056312 -0.05748281 -0.01624951 -0.03460222 0.005898306
0.059062786 0.036609758 -0.04757304 0.0405338 0.049773123 0.06060824 0.011670366 0.039916083
0.012173604 -0.018963909 -0.029893504 0.0015685229 0.024989909 -0.025775673 -0.043381833 -0.009989145
0.0012927331 0.09213201 0.010290269 -0.0061590457 0.002975152 -0.034836717 -0.028802454 -0.055814117
0.0070312135 0.032430377 -0.001563577 0.07607429 0.004155333 -0.0024304125 0.056611743 -0.018550504
-0.05419053 0.0074977158 0.011861687 0.038028955 -0.032368366 0.016924877 -0.0038800049 -0.010252064
0.0049266918 0.008742457 -0.073692985 -0.047784068 0.035450324 -0.060326457 0.011447408 0.0918266
0.10190912 0.023309145 0.022220667 0.043395694 0.013656871 -0.0070223715 0.03410069 0.005489127
-0.016931588 -0.0964844 0.013140688 -0.003958222 -0.013670956 0.00100289 -0.0010609597 0.06310057
00000000: 135c d23b d6cb 14bc 8597 a2bc 3cf5 56bc
00000010: dbe9 68bc 5736 88bd 188b 523d 69e6 94bb
00000020: 546e c7bc fbbb 793d c6a3 123c ec22 523c
00000030: 03db 8dbd e0e0 d63c 4a3f 5bbd a6cc c93b
00000040: 22c3 cb3c a2ef 00bd d788 a7bc cbaf ab3b
00000050: 60d0 8cbc ec7a 903c 72a2 10bd 8d6a bfbc
00000060: f251 ec3b b115 43bd 85ea b33b c4ff fb3c
00000070: 00de 20bd e4dd 013b a95d 9ebd ba1c ab3d
00000080: 0da7 11bb cc67 9d3c de11 dbbb 601e e73c
00000090: daee 12bb 2604 b0bc 5838 a0bc 5d1f 81bd
000000a0: afeb 29bd 218a ce3c bcda 91bc 7583 21bd
000000b0: 6bb4 93bc 602d d6bb bb4d d0bb d238 aebc
000000c0: 91de b33c 597f 6d39 f685 0dbc f0ef efbc
000000d0: 9a41 e6bb be53 96bd 6c77 06bc 8af9 37bb
000000e0: 7eb0 a5bd c41b 7abd 7326 30bc b1ae 20bc
000000f0: 5565 753d 9857 533c 0edb 373d bb99 b4bc
00000100: 3f54 a3bd b2f9 91bc cc5e 343d c85b 11bd
00000110: 2cbc 93bc e581 70bd e8b0 2ebb ee69 bbbc
00000120: 5fa5 58bb 295f af3c 5a07 d33c ae62 41bc
00000130: 9c2a b3bc 8b69 4c3d 27e3 1a3d c74c 4b3c
00000140: 013c ee3b 0a14 c0bd ed7e d3bc 06cc 703c
00000150: ac48 10bb 2bce 963c 0749 c63c c33c 6d3d
00000160: 9a66 debc bd95 d5bc 7ea1 f6bb 1c05 75bd
00000170: e251 6ebb f438 38bc 446a 0bbd 7504 27ba
00000180: 17e1 683d 417b 96b7 8687 24bc 5f2f 15bd
00000190: 0cfc 903c 0328 0fbd 513f 97bb 8a7f f13c
000001a0: 7ff7 64bb 2e4f 9fba 3b72 853d 759e 8a3d
000001b0: c523 36bd 0f79 753d 21ef 82bb 3ecf bdbd
000001c0: c832 b1bd 8049 d7bc a0bc 3ebb a7da 38bd
000001d0: 4b89 b0ba 3da5 bcbb 5082 23bd e1eb 75bc
000001e0: b2af 283c fadb d63d 7289 7abb f8bc 54bc
000001f0: 11e1 f4ba 1e97 68bc 2803 61bb f599 24bd
00000200: bb70 5b3c 6ae7 bcbb bdd7 003c 318d 073d
00000210: 3339 e33b 45d6 633d b07a 4cbd ccf8 c33b
00000220: 0607 823c 2a2f 3ebd 2961 203b 9f4e 69bc
00000230: ddce 833d 645a 8ebc a310 613d 43a0 3ebc
00000240: 7e80 b6bb 5e9e 2b3d 3bb1 593c 1a29 b6bb
00000250: 424b 373c e965 a4bc c6c8 363d d2f3 0c3c
00000260: 349b ccbb 1b8c 8c3d 7c34 2abc 95fe e7bc
00000270: 8084 b63c 8169 3fbc 75eb 7c3d 9c53 b4bd
00000280: f990 a43c 1424 f8bc a692 713b 43f5 b5bc
00000290: 9fc8 733c 46c1 0c3c 5979 ef3c 2db4 513d
000002a0: 55d2 da3c 48c7 d7bc 87be 273c ad26 273d
000002b0: a80b 52bc 5895 653c fc05 713c 2201 023d
000002c0: b6fc 27bd b667 8dbb 5972 b63c b7de 3c3d
000002d0: 5bf0 053d 80f6 9c3d d662 953c 3fff 3a3c
000002e0: 347b 9b3d 5073 383d 04e2 813c 5a8c 103b
000002f0: 1873 6bbd b11d 85bc 0fbb 0dbd 9446 c13b
00000300: d2eb 713d 1df4 153d f3db 42bd c506 263d
00000310: e7de 4b3d 5940 783d 1035 3f3c 0c7f 233d
00000320: cc73 473c 335a 9bbc 39e3 f4bc e596 cd3a
00000330: a3b7 cc3c 8127 d3bc 26b1 31bd 83a9 23bc
00000340: ed70 a93a b5af bc3d 8498 283c d2d1 c9bb
00000350: c5fa 423b f2b0 0ebd 20f3 ebbc 589d 64bd
00000360: 1866 e63b b7d5 043d f0f0 ccba d6cc 9b3d
00000370: 7629 883b 8e47 1fbb b7e1 673d 3af7 97bc
00000380: e4f6 5dbd 66af f53b 8557 423c 40c4 1b3d
00000390: b194 04bd 0aa6 8a3c ae47 7ebb 46f8 27bc
000003a0: 1670 a13b 863c 0f3c 59ec 96bd 3ab9 43bd
000003b0: 5c34 113d e018 77bd e98d 3b3c 960f bc3d
000003c0: bbb5 d03d d2f2 be3c 1e08 b63c afbf 313d
000003d0: 12c1 5f3c ec1b e6bb 2aad 0b3d 22de b33b
000003e0: 1db4 8abc 9d99 c5bd 0a4c 573c f9b3 81bb
000003f0: 25fc 5fbc 6873 833a e60f 8bba df3a 813d

action_model._discrete_distribution.branches.4.bias f4 [2]
-0.15297431 0.15297431
00000000: 4ca5 1cbe 4ca5 1c3e

action_model._discrete_distribution.branches.4.weight f4 [2, 128]
0.019160341 0.04471038 0.063687585 0.010616945 0.010268391 0.042735327 -0.021731863 -0.08417236
0.061449114 0.0047767493 0.023955503 0.033987094 -0.054307647 0.0023896552 0.089583494 -0.0106502995
0.029911974 -0.015002003 0.04878137 0.0052520772 0.06523371 0.012141112 -0.013057509 0.03089523
0.00973443 -0.010114723 0.09969985 -0.037138145 0.039229307 -0.01095776 0.042693112 -0.043797605
0.056233924 -0.0040047006 0.022604046 0.02529115 0.05771788 -0.029376136 -0.00051271304 -0.009375992
-0.016669825 -0.026427846 0.032138295 0.00041125214 0.065006465 0.006056328 0.07224154 0.017439596
0.050242074 0.047887668 0.13436387 -0.09745158 0.09394349 -0.0056062853 0.01370308 -0.08374199
0.046998646 -0.038413424 0.09779211 0.041403268 -0.011904994 0.03698558 0.006264317 0.09391716
0.076909624 0.049693666 -0.011795728 0.049363833 0.020270584 0.04109477 0.031151183 0.044998866
-0.013143581 0.014639344 0.09921852 0.067743085 0.033076096 0.019519905 -0.019205121 -0.06432721
0.02851903 0.0015218826 0.026097042 -0.10204151 0.02025222 0.025848852 -0.072919376 -0.09308851
0.022242662 -0.07082724 0.043825947 0.034496643 0.09823597 -0.071624525 0.041617595 0.027715437
0.0061171935 0.09048745 0.0006284275 -0.027696233 0.06265398 0.06129794 0.018182162 0.0023221984
-0.025255123 0.029411282 -0.008937312 -0.045203947 0.05288609 -0.08392497 -0.021597626 0.14608096
0.018014753 -0.037270643 0.09475258 -0.016687116 -0.0039091734 0.042185787 0.02272652 -0.048233893
0.11226647 -0.047871694 0.007821511 0.060252026 0.0034968469 -0.04410307 0.000629543 -0.018664846
-0.027424954 -0.03955198 -0.03577344 0.008195434 -0.028472312 -0.035925064 0.027731251 0.06593471
-0.06719936 -0.0015777816 -0.028281003 -0.016152864 0.06963925 0.0015483695 -0.10062429 0.012214843
-0.0046442016 0.0169323 -0.05768424 -0.01175395 -0.09233532 -0.02391475 -0.0042335093 -0.015691679
0.005801228 0.00077845005 -0.07684687 0.06374071 -0.021535743 0.020368217 -0.04697489 0.051203173
-0.05326843 -0.0032189942 -0.02906883 -0.018099627 -0.07225591 0.047255475 -0.010309755 0.0056535588
-0.007430589 0.036407143 -0.043703046 0.0024050975 -0.046993826 -0.0033218001 -0.06937791 -0.02075258
-0.05268849 -0.038619652 -0.14066392 0.08481176 -0.11662236 0.007930251 -0.021964544 0.06771975
-0.040458128 0.054432843 -0.094330356 -0.035859335 0.02192571 -0.039718524 -0.036236852 -0.09191915
-0.075653516 -0.04372198 0.023797542 -0.054355145 -0.0038253248 -0.040281523 -0.01915696 -0.034218032
0.009209881 0.0019285337 -0.099399395 -0.067967236 -0.01862159 -0.00450942 0.044445366 0.06308
-0.027162917 0.0015305643 -0.053852946 0.07949814 -0.023734553 -0.028721688 0.05361907 0.07824585
-0.03484744 0.057819538 -0.050366186 -0.019185342 -0.10262084 0.06499026 -0.044052403 -0.025481632
0.010956136 -0.108010404 -0.039951984 0.019406615 -0.07290702 -0.04109053 -0.0030756833 0.0016426087
0.028569771 -0.041254893 3.376489e-05 0.052618526 -0.07216569 0.093207605 -0.0010876242 -0.10382274
-0.02460729 0.042982068 -0.10639604 0.01045487 -0.0013888469 -0.03779286 -0.013990574 0.064464144
-0.09377231 0.039714377 -0.004721698 -0.101385705 0.015415062 0.06344323 0.0042873197 0.009740714
00000000: 26f6 9c3c 3b22 373d a36e 823d b2f2 2d3c
00000010: c13c 283c 3d0b 2f3d 0507 b2bc 8f62 acbd
00000020: 11b2 7b3d 4786 9c3b 553e c43c 0d36 0b3d
00000030: b271 5ebd c39b 1c3b 8d77 b73d 987e 2ebc
00000040: f509 f53c f6ca 75bc f9ce 473d 9e19 ac3b
00000050: 4099 853d 84eb 463c 2aef 55bc fe17 fd3c
00000060: 297d 1f3c 39b8 25bc 6f2f cc3d 2b1e 18bd
00000070: e9ae 203d 2d88 33bc f9de 2e3d 1e65 33bd
00000080: 8b55 663d dd39 83bb 1f2c b93c 632f cf3c
00000090: 9569 6c3d 39a6 f0bc 9767 06ba c39d 19bc
000000a0: 288f 88bc 367f d8bc 72a3 033d 549d d739
000000b0: 1c22 853d 2974 c63b 5ff3 933d 7cdd 8e3c
000000c0: a2ca 4d3d dc25 443d af96 093e b294 c7bd
000000d0: 7265 c03d eeb4 b7bb e282 603c ec80 abbd
000000e0: a781 403d 6557 1dbd 3b47 c83d 7996 293d
000000f0: 2a0d 43bc 317e 173d e644 cd3b a457 c03d
00000100: cb82 9d3d 968b 4b3d de42 41bc bb31 4a3d
00000110: 7f0e a63c fd52 283d c430 ff3c bb50 383d
00000120: 2d58 57bc dcd9 6f3c 1433 cb3d e3bc 8a3d
00000130: cd7a 073d 35e8 9f3c 0f54 9dbc fcbd 83bd
00000140: bea0 e93c e879 c73a 77c9 d53c 24fb d0bd
00000150: fce7 a53c f9c0 d33c c156 95bd 30a5 bebd
00000160: 3e36 b63c df0d 91bd d682 333d 5a4c 0d3d
00000170: f12f c93d e1af 92bd 3677 2a3d 7c0b e33c
00000180: bd72 c83b 7c51 b93d 0ebd 243a 36e3 e2bc
00000190: bb50 803d 8c13 7b3d c2f2 943c 0630 183b
000001a0: d5e3 cebc eeef f03c ce6d 12bc c627 39bd
000001b0: 169f 583d dbe0 abbd 81ed b0bc 3f96 153e
000001c0: ad93 933c 1aa9 18bd a40d c23d 6bb3 88bc
000001d0: 8618 80bb 01cb 2c3d f82c ba3c e790 45bd
000001e0: f7eb e53d 1c15 44bd cb25 003c d4ca 763d
000001f0: 5b2b 653b 6ca5 34bd ea07 253a 05e7 98bc
00000200: 4caa e0bc 4201 22bd 2c87 12bd 2446 063c
00000210: c43e e9bc 2926 13bd a62c e33c c708 873d
00000220: d19f 89bd 91cd ceba 90ad e7bc 0353 84bc
00000230: 069f 8e3d a9f2 ca3a 1c14 cebd c420 483c
00000240: 632e 98bb 9bb5 8a3c 4f46 6cbd a493 40bc
00000250: 4d1a bdbd dee8 c3bc 40b9 8abb d68b 80bc
00000260: 3a18 be3b e610 4c3a e461 9dbd 7d8a 823d
00000270: ba6b b0bc 3fdb a63c be68 40bd 6bba 513d
00000280: ff2f 5abd c3f5 52bb c121 eebc ab45 94bc
00000290: e8fa 93bd f58e 413d 3fea 28bc 7d41 b93b
000002a0: 4c7c f3bb a81f 153d f701 33bd d79e 1d3b
000002b0: 997c 40bd 8fb2 59bb 0116 8ebd 5101 aabc
000002c0: e3cf 57bd a42f 1ebd 340a 10be cab1 ad3d
000002d0: b4d7 eebd e2ed 013c fdee b3bc a7b0 8a3d
000002e0: 6cb7 25bd f9f4 5e3d 4630 c1bd 3de1 12bd
000002f0: 8c9d b33c e4af 22bd 186d 14bd 1b40 bcbd
00000300: 3bf0 9abd d215 33bd 10f3 c23c 80a3 5ebd
00000310: 4db2 7abb 3dfe 24bd 0fef 9cbc 3528 0cbd
00000320: 0ae5 163c dac6 fc3a e991 cbbd 6832 8bbd
00000330: 4e8c 98bc c2c3 93bb 580c 363d 1630 813d
00000340: c484 debc 379d c83a e894 5cbd eccf a23d
00000350: f76e c2bc bf49 ebbc ac9f 5b3d 5c3f a03d
00000360: 30bc 0ebd 2ed4 6c3d c64c 4ebd 942a 9dbc
00000370: e02a d2bd 9d19 853d 4b70 34bd dbbe d0bc
00000380: 5d81 333c 8f34 ddbd b1a4 23bd 9ffa 9e3c
00000390: 4750 95bd 8b4e 28bd 6791 49bb cd4c d73a
000003a0: 270b ea3c e4fa 28bd c69e 0d38 8686 573d
000003b0: 9bcb 93bd a1e3 be3d 9d8e 8eba 04a1 d4bd
000003c0: 3a95 c9bc f70d 303d 2be6 d9bd e74a 2b3c
000003d0: f809 b6ba b0cc 1abd b838 65bc c705 843d
000003e0: b20b c0bd 8bab 223d 79b8 9abb 4fa3 cfbd
000003f0: 758f 7c3c 86ee 813d a57c 8c3b 8497 1f3c

discrete_action_output_shape f4 [1, 5]
3.0 2.0 2.0 2.0 2.0
00000000: 0000 4040 0000 0040 0000 0040 0000 0040
00000010: 0000 0040

network_body._body_endoder.seq_layers.0.bias f4 [128]
0.026637869 -0.06183429 0.060782213 -0.10525065 0.05069414 0.01134104 -0.023691291 -0.113498785
0.043935314 0.012916517 0.055177357 0.044576623 -0.028993655 -0.0020463013 0.0059346594 -0.070834644
-0.033030294 -0.0035067145 0.009026965 -0.095278785 0.0042118183 0.016734874 0.001439972 -0.053374607
0.03519147 -0.07211978 -0.060884688 -0.13821429 -0.013772945 -0.07662878 0.079133585 -0.022296835
-0.038026612 0.0057042306 -0.084554404 0.041693836 0.060901165 -0.045035183 -0.15506066 -0.013438929
0.037520684 -0.079474546 -0.07999321 -0.08039352 -0.04766435 -0.056924216 -0.026798824 0.016247138
0.091210976 -0.0061162803 -0.16052821 -0.005200806 -0.038718954 -0.042445205 0.052829605 -0.05109766
0.019175392 -0.073085405 -0.10968037 -0.06235373 0.04178405 -0.008798028 -0.003972711 0.12486515
-0.010233723 -0.046296343 0.05239349 -0.020906277 -0.02408326 0.012005497 0.024917472 -0.0540736
-0.06371695 -0.13788538 0.0016440596 0.008097362 0.057670332 -0.068071395 -0.072809376 0.0025131898
-0.034175456 -0.0048656897 -0.015345702 0.030895494 0.05468375 -0.024120677 -0.062543765 0.07998994
-0.08716969 0.018748146 0.018124182 -0.0144592095 0.049175773 0.05758226 -0.010325792 0.041588373
0.06774892 0.07905278 0.047663182 0.010574351 -0.13178156 -0.008294234 0.012150884 -0.037487358
0.027675677 -0.022760166 -0.034323134 -0.08552395 0.0059786635 0.049412377 0.009248825 -0.049197003
-0.0695928 0.05503756 -0.19743359 0.0015973022 -0.022885682 0.09897015 0.08764195 0.002215165
-0.0012942024 -0.10147561 0.094819725 0.00059970526 0.027572315 -0.023076516 0.09289258 -0.013718207
00000000: a937 da3c f445 7dbd c5f6 783d a78d d7bd
00000010: a9a4 4f3d c5cf 393c 3d14 c2bc 0d72 e8bd
00000020: 84f5 333d cd9f 533c a701 623d fa95 363d
00000030: 1a84 edbc 3d1b 06bb 8877 c23b c111 91bd
00000040: c64a 07bd e8d0 65bb d6e5 133c 8621 c3bd
00000050: 4b03 8a3b 9317 893c 71bd bc3a 559f 5abd
00000060: ee24 103d 89b3 93bd 3962 79bd 0c88 0dbe
00000070: eba7 61bc 8def 9cbd ca10 a23d daa7 b6bc
00000080: cbc1 1bbd 8eea ba3b dc2a adbd 28c7 2a3d
00000090: 8073 793d d076 38bd 39c8 1ebe f42e 5cbc
000000a0: 4aaf 193d 8dc3 a2bd 7bd3 a3bd 5ca5 a4bd
000000b0: b23b 43bd 5e29 69bd 3589 dbbc b818 853c
000000c0: d2cc ba3d 146b c8bb 8261 24be 866b aabb
000000d0: c497 1ebd 06db 2dbd db63 583d c84b 51bd
000000e0: b615 9d3c cdad 95bd 1aa0 e0bd a066 7fbd
000000f0: c125 2b3d 9b25 10bc 842d 82bb 4db9 ff3d
00000100: 58ab 27bc 3ca1 3dbd 8e9a 563d a443 abbc
00000110: 424a c5bc b4b2 443c ba1f cc3c 477c 5dbd
00000120: 087e 82bd d331 0dbe 7c7d d73a ccaa 043c
00000130: ba37 6c3d 0469 8bbd 151d 95bd 54b4 243b
00000140: 90fb 0bbd 5d70 9fbb 8a6c 7bbc 8c18 fd3c
00000150: 11fc 5f3d ba98 c5bc f216 80bd c4d1 a33d
00000160: 0686 b2bd b695 993c 2a79 943c 52e6 6cbc
00000170: 896c 493d 60db 6b3d 832d 29bc 9258 2a3d
00000180: f2bf 8a3d 6de6 a13d 783a 433d 0b40 2d3c
00000190: bff1 06be 8ae4 07bc 8014 473c 588c 19bd
000001a0: 1ab8 e23c 8773 babc 6a96 0cbd 2e27 afbd
000001b0: aae8 c33b a264 4a3d 6288 173c cc82 49bd
000001c0: ac86 8ebd 116f 613d 082c 4abe 915c d13a
000001d0: c17a bbbc ddb0 ca3d 9f7d b33d 4d2c 113b
000001e0: 3aa2 a9ba 72d2 cfbd d830 c23d 8a35 1d3a
000001f0: 56df e13c f60a bdbc 773e be3d 55c2 60bc

network_body._body_endoder.seq_layers.0.weight f4 [128, 8]
0.080828205 -0.22509699 -0.025872467 0.5574801 -0.11959777 0.688157 0.7698924 -0.95848596
0.21759441 0.51067847 0.6071943 -0.30682275 -0.09067906 -0.24942404 -0.098647915 0.4560008
-0.20082594 -0.28520334 0.70262134 -0.06950564 0.045692854 0.3332605 0.26449853 0.18062992
-0.051530562 0.610895 0.6524342 -0.25900194 -0.27864754 0.13752589 -0.06407726 -0.71443003
0.5329166 -0.19555521 0.09930595 0.4821088 -0.6669783 0.22957636 0.39941972 0.07340085
-0.2710529 -0.25280258 0.58228314 0.03445654 0.09006289 -0.14423545 -0.0149765555 -0.35657957
-0.2169313 -0.21924159 -0.09372518 0.6567868 -0.19747391 0.014989054 -0.3459172 0.21195103
0.08136255 0.09893451 0.43477926 0.27230072 0.20616406 0.16513757 -0.35710606 0.10190636
-0.074243814 -0.579962 0.49673477 -0.03453641 -0.13114886 0.41643456 0.0659327 0.08249808
0.25899243 -0.13988505 -0.206372 0.12343299 0.27950895 0.05596911 0.17553787 -0.65357244
0.3011201 0.14415476 0.20071062 0.48847517 0.0714878 -0.093745485 -0.08407585 -0.64910424
0.20947744 0.22621702 0.12154283 -0.33997023 0.091893524 0.41837397 -0.050904755 0.50575435
0.107494496 -0.16475521 -0.104286335 -0.5700101 0.1435066 -0.59589064 -0.6340571 -0.19834533
-0.19571723 0.43323427 -0.7099065 -0.4089372 0.14611699 -0.13737647 -0.06640167 -0.36248246
-1.0420365 0.052683286 0.12650613 0.07569818 -0.7955922 0.31883442 0.68017447 -0.5780314
-0.27928212 0.55887836 -0.43438357 -0.85620934 -0.4631424 -0.37144658 -0.3276216 0.18362801
0.8768166 -0.3137294 -0.1238532 0.27687177 0.30226403 -0.053092357 -0.013909107 -0.8787887
0.02484934 0.09632189 -0.24847059 -0.028939646 -0.084330425 -0.17928873 0.39825398 -0.30799186
-0.11550996 -0.1682265 0.961232 0.2885429 -0.23122032 -0.08055874 -0.100217015 0.3710496
-0.1345863 0.11738906 -0.13257393 -0.040932085 -0.34711543 -0.24563652 -0.41062418 -0.41634628
-0.1938586 0.42217305 0.76724124 0.22746031 -0.17004201 -0.1283959 0.5009677 -0.20220576
0.15224563 -0.16693105 0.30847207 0.41348276 -0.36305967 -0.4323921 -0.20490296 0.4528751
0.16740388 -0.38210428 -0.090406895 0.19055057 0.4589337 0.06186313 -0.15312137 0.54460835
-0.33475322 0.40367746 -0.13532646 0.670327 0.94782466 0.65217656 0.12928936 0.49698254
-0.48299617 0.22993664 0.60321456 -0.34216183 0.76095676 0.48516864 0.36752516 0.35784057
0.36667052 -0.3638266 -0.21057421 0.19337627 -0.45457345 -0.105942 0.26467618 -0.010180015
-0.13712397 -0.11848222 0.6776329 -0.20460993 -0.41655096 0.3841469 -0.13410994 -0.010989345
0.38053158 0.49309283 -0.16203843 0.01573595 -0.6699525 0.2596351 0.53662544 0.31257042
-0.38357246 -0.9384034 -0.3571228 0.63515586 -0.23227419 0.48050636 0.12589854 -0.04213269
0.59857774 0.71570456 -0.10404124 -0.23142141 -0.17442198 0.78724486 -0.07142083 0.22872362
-0.013006598 0.8206043 -0.3443185 0.14642459 -0.13341372 0.12227984 -0.2135314 -0.2665816
0.4196789 0.3324087 0.12889966 -0.5968432 -0.36691254 0.026749767 0.039628338 0.5883982
00000000: 4289 a53d d37f 66be 7ff2 d3bc 04b7 0e3f
00000010: adef f4bd 0f2b 303f ab17 453f 565f 75bf
00000020: 12d1 5e3e d3bb 023f 1671 1b3f df17 9dbe
00000030: f1b5 b9bd 0469 7fbe eb07 cabd f078 e93e
00000040: 51a5 4dbe 2c06 92be fede 333f f958 8ebd
00000050: 6e28 3b3d 1fa1 aa3e 5a6c 873e 0df7 383e
00000060: b611 53bd 9d63 1c3f ed05 273f e79b 84be
00000070: e4aa 8ebe 96d3 0c3e f03a 83bd e3e4 36bf
00000080: 396d 083f a03f 48be eb60 cb3d f7d6 f63e
00000090: 17bf 2abf 1116 6b3e be80 cc3e 2f53 963d
000000a0: 72c7 8abe 576f 81be 8210 153f 4d22 0d3d
000000b0: e472 b83d 75b2 13be 3a60 75bc 9991 b6be
000000c0: 3d23 5ebe de80 60be fdf2 bfbd 2e23 283f
000000d0: 9a36 4abe a694 753c 0f1c b1be b109 593e
000000e0: 69a1 a63d 2d9e ca3d 639b de3e 006b 8b3e
000000f0: ac1c 533e d319 293e 9bd6 b6be 48b4 d03d
00000100: 240d 98bd 6478 14bf 0554 fe3e 0d76 0dbd
00000110: e34b 06be e936 d53e b907 873d c1f4 a83d
00000120: a89a 843e 073e 0fbe 2e53 53be 6fca fc3d
00000130: cc1b 8f3e de3f 653d 33c0 333e 8650 27bf
00000140: 6a2c 9a3e 4e9d 133e 1687 4d3e 6b19 fa3e
00000150: 3268 923d a2fd bfbd f62f acbd b22b 26bf
00000160: 4181 563e 6fa5 673e 72eb f83d 9410 aebe
00000170: ac32 bc3d 1d35 d63e 8181 50bd 1e79 013f
00000180: 1326 dc3d 97b5 28be 1394 d5bd 2fec 11bf
00000190: 65f3 123e 4a8c 18bf 9151 22bf 0a1b 4bbe
000001a0: 196a 48be e2d0 dd3e 6fbc 35bf 3760 d1be
000001b0: b19f 153e 6bac 0cbe 99fd 87bd 4d97 b9be
000001c0: 7461 85bf 6eca 573d d38a 013e a607 9b3d
000001d0: eeab 4bbf 443e a33e ea1f 2e3f def9 13bf
000001e0: 11fe 8ebe a712 0f3f 8667 debe 8930 5bbf
000001f0: 0021 edbe 3f2e bebe 05be a7be fb08 3c3e
00000200: 0d77 603f 24a1 a0be bfa6 fdbd 23c2 8d3e
00000210: 5ac2 9a3e 5f77 59bd 06e3 63bc 4cf8 60bf
00000220: d890 cb3c 6944 c53d 136f 7ebe d612 edbc
00000230: 6eb5 acbd 7797 37be f2e7 cb3e 1cb1 9dbe
00000240: 7c90 ecbd 9143 2cbe 4d13 763f e5bb 933e
00000250: 05c5 6cbe fbfb a4bd 943e cdbd 37fa bd3e
00000260: fed0 09be ad69 f03d 76c1 07be 67a8 27bd
00000270: 1db9 b1be 2488 7bbe 553d d2be 572b d5be
00000280: de82 46be 1127 d83e ec69 443f 5beb 683e
00000290: 7e1f 2ebe 377a 03be 6b3f 003f 070f 4fbe
000002a0: 47e6 1b3e f9ef 2abe 0df0 9d3e 03b4 d33e
000002b0: f5e2 b9be 7f62 ddbe 15d2 51be 3fdf e73e
000002c0: ec6b 2b3e 2ca3 c3be 4027 b9bd b01f 433e
000002d0: 5cf9 ea3e 3264 7d3d d9cb 1cbe 746b 0b3f
000002e0: c664 abbe d0ae ce3e 0593 0abe 8d9a 2b3f
000002f0: a3a4 723f 0bf5 263f 6e64 043e 7f74 fe3e
00000300: 464b f7be 8374 6b3e 456c 1a3f d62f afbe
00000310: 10ce 423f 0668 f83e 422c bc3e e136 b73e
00000320: 3dbc bb3e 7b47 babe c4a0 57be 6e04 463e
00000330: dabd e8be 1ff8 d8bd a383 873e 14ca 26bc
00000340: 3a6a 0cbe cea6 f2bd 5a79 2d3f 4485 51be
00000350: 2b46 d5be e7ae c43e 1e54 09be a70c 34bc
00000360: 09d5 c23e aa76 fc3e 67ed 25be aee8 803c
00000370: 0282 2bbf e4ee 843e 4960 093f 3b09 a03e
00000380: 9c63 c4be 353b 70bf cdd8 b6be 9399 223f
00000390: 49d9 6dbe ee04 f63e 8ceb 003e 5493 2cbd
000003a0: 643c 193f 6a38 373f 9313 d5bd bcf9 6cbe
000003b0: ad9b 32be e188 493f 1645 92bd 8636 6a3e
000003c0: a019 55bc 2013 523f 844a b0be 54f0 153e
000003d0: 9b9d 08be da6d fa3d faa7 5abe 627d 88be
000003e0: 27e0 d63e 7931 aa3e 46fe 033e b7ca 18bf
000003f0: f6db bbbe 5422 db3c 5351 223d 44a1 163f
