Assets/Brains/Brains 2/LearnFightStandard.onnx (onnx, 82205 bytes, 16 tensors)

action_model._continuous_distribution.log_sigma f4 [1, 2]
0.0029349974 -0.2607363
00000000: 1659 403b 3a7f 85be

action_model._continuous_distribution.mu.bias f4 [2]
0.2901826 0.020078307
00000000: d092 943e 437b a43c

action_model._continuous_distribution.mu.weight f4 [2, 128]
-0.010790127 -0.032628387 -0.03294498 -0.14296624 0.018592544 -0.07606719 -0.08218705 -0.08217479
-0.050433077 -0.0062678885 -0.032574758 -0.08977236 -0.06727833 -0.081505395 0.10758736 -0.12515776
0.031997778 0.084491186 -0.14610976 -0.00232068 -0.15574107 -0.080547936 -0.061506182 -0.11805187
-0.10046308 0.040409204 0.10189272 0.026767852 0.060350664 0.008005834 0.12190297 -0.025085164
0.107862435 -0.062232703 -0.0766949 -0.0058039213 -0.105996124 0.049975418 0.033968177 0.02577233
-0.17168495 0.09246678 0.014833555 0.05947917 -0.07143346 0.086887404 0.12434679 -0.082346246
0.029225258 -0.016305687 -0.082283236 -0.018720327 -0.038105488 0.039330933 0.20703372 -0.14087945
-0.17236356 -0.03989026 0.03311573 -0.00578713 -0.08176679 0.050323065 0.011225151 -0.058941036
-0.033843957 0.004830531 -0.043908007 0.011107647 0.014409931 -0.00815429 0.086113624 -0.016636703
0.0363733 -0.15916488 0.018017396 0.023229456 -0.12579663 0.013781792 -0.03768583 -0.061738577
-0.118273504 0.08797888 -0.07419617 0.07710117 -0.022181902 -0.035573326 -0.016187951 -0.16549306
-0.010271783 -0.104012616 0.008935072 0.004000474 0.080776006 -0.076691955 0.21553603 0.0291195
-0.08624458 0.057879675 -0.054505803 0.12765409 -0.04719434 0.0379854 -0.112384066 0.0546032
-0.10151276 -0.031029271 0.016761184 -0.14187011 -0.060399987 0.001595874 -0.0982753 -0.05664743
-0.035049617 0.0972288 0.15989847 -0.03851508 0.0809715 -0.17323877 0.024057515 0.085411154
0.12747312 0.08933152 -0.11025812 0.040542882 0.050836563 -0.020264044 -0.15650031 0.10527663
0.024480341 0.044467323 0.09821245 -0.027959583 -0.13724433 -0.023323974 -0.018067935 -0.13008341
-0.07764245 0.0036589424 0.028129118 -0.02272141 0.054631148 -0.055713408 0.01222379 0.0066999877
-0.059307933 0.049755752 0.0047152014 0.04556606 -0.061103303 -0.13510744 -0.021420302 -0.025226396
-0.010932224 0.016590143 0.011856366 0.07985519 -0.05916392 -0.05852505 -0.0383161 -0.0951406
0.09095948 -0.011809347 -0.04210677 0.004158543 0.009136887 -0.0868053 0.055412717 0.010269627
0.16303544 0.05384544 -0.004243553 -0.013113806 0.064879015 0.01181553 0.014236624 -0.032686617
0.04476381 -0.10700826 -0.13904151 -0.024636745 0.08867915 -0.014819114 0.07039813 -0.043895815
-0.08270401 -0.031340335 -0.031193314 -0.006939216 -0.016602637 0.035194 -0.033642262 -0.0147396
0.049452152 -0.00979599 -0.00507006 0.0213679 0.025009183 -0.022814624 -0.053666305 0.09392354
0.057054438 -0.041056514 0.06051386 0.0006209692 -0.0406701 -0.021850161 -0.0363056 -0.061379567
0.0048939064 -0.014187364 0.0019483188 0.036675494 0.058260463 -0.0651461 0.028267566 0.0044238926
0.01830821 0.006960576 -0.036842342 0.0117879715 0.044674832 -0.037234303 -0.14293464 0.018032338
-0.030721568 0.018307569 -0.008847213 -0.03672289 -0.14469598 -0.014343152 -0.029806897 0.06266211
-0.004765248 0.015139123 0.0030226558 0.054513842 0.009863253 0.083879314 0.037214193 0.00013661374
0.10647858 -0.036215104 -0.04102409 -0.021651827 0.008466784 -0.026767781 0.019632053 -0.10084035
-0.037167713 0.0102259945 0.06772346 -0.02437903 -0.11007047 -0.01203261 0.021380946 0.039581418
00000000: 13c9 30bc 58a5 05bd 51f1 06bd be65 12be
00000010: 644f 983c 1dc9 9bbd af51 a8bd 424b a8bd
00000020: ea92 4ebd dc62 cdbb 1c6d 05bd 92da b7bd
00000030: 39c9 89bd 4dec a6bd c356 dc3d 5b29 00be
00000040: 1a10 033d b709 ad3d cc9d 15be 8d16 18bb
00000050: 967a 1fbe 51f6 a4bd e8ed 7bbd 2ec5 f1bd
00000060: 96bf cdbd 1f84 253d 21ad d03d 4148 db3c
00000070: 4232 773d e72a 033c 44a8 f93d 677f cdbc
00000080: fbe6 dc3d b8e7 7ebd 3712 9dbd d22e bebb
00000090: 7f14 d9bd 06b3 4c3d 3722 0b3d 7e20 d33c
000000a0: 2ece 2fbe 395f bd3d 7008 733c 6ea0 733d
000000b0: b54b 92bd 06f2 b13d 88a9 fe3d 26a5 a8bd
000000c0: cf69 ef3c 8193 85bc 1d84 a8bd 5f5b 99bc
000000d0: 8014 1cbd 7919 213d a600 543e b442 10be
000000e0: 1380 30be f863 23bd 5ca4 073d f7a1 bdbb
000000f0: 5975 a7bd 8f1f 4e3d b2e9 373c 286c 71bd
00000100: f69f 0abd 6e49 9e3b e2d8 33bd d9fc 353c
00000110: a217 6c3c 9299 05bc 575c b03d b249 88bc
00000120: 2bfc 143d 1efc 22be 3899 933c b34b be3c
00000130: d5d0 00be 06cd 613c 755c 1abd 97e1 7cbd
00000140: 6139 f2bd 452e b43d 29f4 97bd 38e7 9d3d
00000150: d2b6 b5bc 56b5 11bd 989c 84bc 0377 29be
00000160: fb4a 28bc 9104 d5bd 6964 123c 6816 833b
00000170: e46d a53d ac10 9dbd 7ab5 5c3e 058c ee3c
00000180: 00a1 b0bd 3d13 6d3d 7a41 5fbd c1b7 023e
00000190: da4e 41bd 9496 1b3d 9e29 e6bd 9ba7 5f3d
000001a0: ece5 cfbd 1931 febc c04e 893c 6646 11be
000001b0: fa65 77bd a52c d13a 8f44 c9bd 2307 68bd
000001c0: 3090 0fbd e51f c73d 6dbc 233e fdc1 1dbd
000001d0: 63d4 a53d 8165 31be 4414 c53c 0bec ae3d
000001e0: 5088 023e 72f3 b63d 02cf e1bd 4b10 263d
000001f0: 003a 503d c800 a6bc 9e41 20be 469b d73d
00000200: ff8a c83c 5e23 363d 9c23 c93d 7f0b e5bc
00000210: c789 0cbe eb11 bfbc 3503 94bc 9634 05be
00000220: 0103 9fbd deca 6f3b 096f e63c 4022 babc
00000230: e9c4 5f3d be33 64bd 4b46 483c 928b db3b
00000240: e0ec 72bd b0cc 4b3d fa81 9a3b 7aa3 3a3d
00000250: 7547 7abd 9b59 0abe a179 afbc 96a7 cebc
00000260: 121d 33bc 0de8 873c 3441 423c 1e8b a33d
00000270: de55 72bd f6b7 6fbd 58f1 1cbd 13d9 c2bd
00000280: f748 ba3d fe7b 41bc 2678 2cbd 6344 883b
00000290: e2b2 153c fac6 b1bd 72f8 623d f041 283c
000002a0: c3f2 263e 098d 5c3d 810d 8bbb 4adb 56bc
000002b0: 4adf 843d ed95 413c bb40 693c 67e2 05bd
000002c0: 425a 373d 2627 dbbd e660 0ebe 00d3 c9bc
000002d0: 6a9d b53d decb 72bc e52c 903d 19cc 33bd
000002e0: b860 a9bd b95e 00bd 1f89 ffbc 5d62 e3bb
000002f0: 4102 88bc 9527 103d 78cc 09bd 5d7e 71bc
00000300: 578e 4a3d 5c7f 20bc bf22 a6bb bc0b af3c
00000310: 0fe0 cc3c bce5 babc 33d1 5bbd fc5a c03d
00000320: eab1 693d e02a 28bd 62dd 773d 8ac8 223a
00000330: b195 26bd 1cff b2bc 2eb5 14bd 2469 7bbd
00000340: 105d a03b 1e72 68bc bb5e ff3a 0b39 163d
00000350: 86a2 6e3d 526b 85bd 6291 e73c 4df6 903b
00000360: 19fb 953c 8b15 e43b ffe7 16bd 5622 413c
00000370: f5fc 363d ff82 18bd 755d 12be 8eb8 933c
00000380: ccab fbbc c1f9 953c e7f3 10bc be6a 16bd
00000390: 2f2b 14be 8aff 6abc 982d f4bc fe54 803d
000003a0: cc25 9cbb 160a 783c c017 463b e849 5f3d
000003b0: 7b99 213c ebc8 ab3d e96d 183d f93f 0f39
000003c0: 7111 da3d 4a56 14bd e008 28bd 2c5f b1bc
000003d0: 44b8 0a3c 1b48 dbbc 66d3 a03c 6385 cebd
000003e0: 2c3d 18bd ee8a 273c 99b2 8a3d 88b6 c7bc
000003f0: a06c e1bd 6d24 45bc 1827 af3c 2020 223d

action_model._discrete_distribution.branches.0.bias f4 [3]
0.10379319 -0.041238528 -0.06551181
00000000: 8691 d43d bbe9 28bd 0e2b 86bd

action_model._discrete_distribution.branches.0.weight f4 [3, 128]
0.09958327 -0.07048887 -0.08040737 -0.018427195 -0.0942155 0.084268235 -0.05164143 0.08790684
0.07145738 0.0851509 -0.0046045175 0.049490012 -0.083232366 -0.054928638 -0.11009258 0.16941117
0.11158024 -0.03645196 -0.025844712 -0.09223943 0.13262342 0.04810132 -0.19408551 0.0029098897
0.1426329 -0.1277275 -0.17414851 -0.021235105 -0.02737859 0.06889313 -0.1799905 0.21290928
0.10797114 0.03177263 -0.10173802 -0.07490093 0.04098688 0.08635923 6.980012e-05 0.10153289
0.014406982 0.042227887 0.13760646 -0.13794401 -0.058145806 -0.019310024 -0.09417965 -0.039172906
0.061466876 0.06240114 -0.022804977 -0.06826236 -0.0010358121 0.045506183 -0.044334393 -0.09692672
0.068890184 -0.038148586 -0.06959993 0.019680541 -0.030150138 -0.02900067 0.09687671 0.07275265
0.056878958 0.059986312 -0.006711198 -0.07053842 0.0024928648 0.045744002 -0.054710533 0.029046336
0.022199603 -0.1397835 -0.10052215 0.12168943 -0.03779088 -0.21585497 0.09224972 0.08399532
-0.062289063 -0.11767646 0.02044036 -0.051248997 0.03602255 -0.19219752 -0.125336 -0.0030866244
0.12904409 -0.11473413 0.03156427 0.068093285 0.12571584 0.074337915 0.034814514 -0.11059926
0.11019927 0.06770876 -0.038329232 0.018859548 0.010157583 -0.027529366 -0.2374348 0.0020207756
0.080864266 -0.04688082 -0.005623106 0.03014235 -0.16912173 -0.05520872 0.017759915 0.066502735
-0.22661352 0.031777345 0.05345573 -0.0034041705 -0.007952537 0.02318488 0.09360833 -0.13484932
-0.017987955 -0.05010573 -0.20133384 0.089024 -0.08663964 -0.15292953 0.19854471 0.13660426
0.039084908 0.06400796 0.041530408 -0.049573015 -0.014519466 -0.07244088 -0.07210681 -0.029037155
-0.08567653 0.06269645 0.09096706 -0.122577734 0.04528896 0.034222055 0.3760426 -0.09636606
-0.037455015 0.09475927 -0.108830474 -0.08453556 -0.13295788 0.06858784 -0.047678746 -0.019948028
-0.09944314 -0.05443927 0.110992044 0.032411847 0.12543502 0.24768415 0.118811466 0.036897458
-0.090138525 -0.016929923 0.056139432 -0.013214105 0.08795099 -0.027694236 -0.034491986 0.1748677
-0.04273501 -0.05664612 0.033836834 0.13329749 0.20987415 0.02718345 0.09535942 -0.010527771
-0.055044103 -0.14742081 -0.07075215 0.038775373 -0.049699474 0.07965892 0.046068992 -0.058553983
0.061123576 0.0031535437 -0.09505709 0.06411975 -0.05711871 0.002046266 -0.055415675 0.06973402
-0.12639785 0.15660672 -0.024265995 0.022570932 0.15996549 0.061867416 0.045722537 -0.014506926
-0.077100344 0.04290772 0.015685108 -0.05857931 0.035427585 0.031754833 0.07072164 0.035649497
0.04383095 0.020531747 -0.046617508 -0.1370505 -0.07406122 -0.044175126 0.1318705 -0.03791766
-0.06326517 -0.04333411 0.091709785 -0.062477227 -0.23302573 -0.10231278 0.06224437 0.14694983
0.14632538 0.009753024 0.062013373 -0.03160465 0.0012120852 -0.16230956 0.07656733 -0.019098137
-0.1619155 -0.14755893 -0.03960111 -0.11243263 -0.13038991 0.14465512 -0.0134044625 -0.018596258
-0.05659357 -0.056063373 0.06045841 0.029622175 0.07656762 -0.06456946 0.030121915 0.10849758
0.05291159 0.13473435 0.1102147 -0.056515884 0.11487785 0.21838005 -0.09581034 -0.17204785
00000000: 50f2 cb3d 785c 90bd 9fac a4bd a1f4 96bc
00000010: 0ef4 c0bd d394 ac3d f785 53bd 8008 b43d
00000020: 3f58 923d 9863 ae3d 7ee1 96bb 0ab6 4a3d
00000030: bb75 aabd dafc 60bd 3878 e1bd 1f7a 2d3e
00000040: 2e84 e43d a74e 15bd 4ab8 d3bc 07e8 bcbd
00000050: 6fce 073e e405 453d 5abe 46be d9b3 3e3b
00000060: 5c0e 123e ffca 02be fd53 32be 3ef5 adbc
00000070: 1149 e0bc d717 8d3d 6e4f 38be e404 5a3e
00000080: f91f dd3d 0424 023d 065c d0bd a965 99bd
00000090: dce1 273d 1cdd b03d a761 9238 7af0 cf3d
000000a0: 430b 6c3c 26f7 2c3d b5e8 0c3e 3241 0dbe
000000b0: 4c2a 6ebd 0e30 9ebc 43e1 c0bd c573 20bd
000000c0: b1c4 7b3d 5698 7f3d 81d1 babc 23cd 8bbd
000000d0: 16c4 87ba b164 3a3d fb97 35bd 8481 c6bd
000000e0: 4c16 8d3d b141 1cbd 688a 8ebd 1639 a13c
000000f0: 6cfd f6bc d092 edbc 4c67 c63d 57ff 943d
00000100: e9f9 683d 35b4 753d 9ce9 dbbb 7276 90bd
00000110: 555f 233b 105e 3b3d 2718 60bd 95f2 ed3c
00000120: f1db b53c 6823 0fbe 8fde cdbd 4f38 f93d
00000130: 9cca 1abd 1609 5dbe 6ced bc3d bd05 ac3d
00000140: d122 7fbd 5b00 f1bd 8b72 a73c 78ea 51bd
00000150: 628c 133d 6dcf 44be 1558 00be f748 4abb
00000160: 2224 043e baf9 eabd 8949 013d 7e74 8b3d
00000170: a7bb 003e 7a3e 983d aa99 0e3d dd81 e2bd
00000180: 28b0 e13d e4aa 8a3d 1dff 1cbd 577f 9a3c
00000190: fe6b 263c 4485 e1bc 1c22 73be fd6e 043b
000001a0: 2a9c a53d 1a06 40bd 0842 b8bb 17ed f63c
000001b0: 3f2e 2dbe 8a22 62bd 3e7d 913c 9632 883d
000001c0: 600d 68be f628 023d 65f4 5a3d 8118 5fbb
000001d0: 5c4b 02bc 38ee bd3c b9b5 bf3d f115 0abe
000001e0: 7a5b 93bc aa3b 4dbd 752a 4ebe 3752 b63d
000001f0: 2070 b1bd 8f99 1cbe 4e4f 4b3e fde1 0b3e
00000200: 7f17 203d 9b16 833d ca1b 2a3d 130d 4bbd
00000210: 0ee3 6dbc e25b 94bd bcac 93bd 54df edbc
00000220: 2d77 afbd ff66 803d f04c ba3d 090a fbbd
00000230: eb80 393d 6d2c 0c3d a888 c03e 925b c5bd
00000240: 6e6a 19bd 2611 c23d 83e2 debd fb20 adbd
00000250: 1c26 08be c877 8c3d ca4a 43bd 0c6a a3bc
00000260: d8a8 cbbd b6fb 5ebd cc4f e33d 49c2 043d
00000270: 0a72 003e eaa0 7d3e 6d53 f33d ca21 173d
00000280: 8c9a b8bd 9fb0 8abc 76f2 653d f97f 58bc
00000290: a61f b43d 06df e2bc 7847 0dbd 8510 333e
000002a0: e80a 2fbd c305 68bd 7e98 0a3d 237f 083e
000002b0: 40e9 563e d4af de3c cd4b c33d ac7c 2cbc
000002c0: ed75 61bd 7bf5 16be 81e6 90bd edd2 1e3d
000002d0: ad91 4bbd 3724 a33d d7b2 3c3d 4dd6 6fbd
000002e0: b75c 7a3d afab 4e3b 4bad c2bd 3751 833d
000002f0: 4ff5 69bd a61a 063b 8cfb 62bd b6d0 8e3d
00000300: 706e 01be 835d 203e 7bc9 c6bc ade6 b83c
00000310: fecd 233e b068 7d3d 8e47 3b3d 75ae 6dbc
00000320: c9e6 9dbd 01c0 2f3d 0e7e 803c dcf0 6fbd
00000330: 841c 113d 5b11 023d 82d6 903d 3505 123d
00000340: 1588 333d 3232 a83c 00f2 3ebd f756 0cbe
00000350: 69ad 97bd faf0 34bd 0f09 073e 8c4f 1bbd
00000360: 2b91 81bd 1c7f 31bd 57d2 bb3d 1fe8 7fbd
00000370: 4c9e 6ebe 5d89 d1bd f4f3 7e3d 047a 163e
00000380: 52d6 153e 26cb 1f3c bc01 7e3d e173 01bd
00000390: d5de 9e3a 7a34 26be 55cf 9c3d b273 9cbc
000003a0: 2dcd 25be b019 17be c634 22bd 1443 e6bd
000003b0: ef84 05be 7920 143e 649e 5bbc 2e57 98bc
000003c0: a9ce 67bd b5a2 65bd 3da3 773d 34aa f23c
000003d0: 7ccf 9c3d fe3c 84bd 3cc2 f63c fb33 de3d
000003e0: d3b9 583d cdf7 093e 3fb8 e13d 337d 67bd
000003f0: 1445 eb3d 059f 5f3e 3638 c4bd 502d 30be

action_model._discrete_distribution.branches.1.bias f4 [2]
0.12079732 -0.120797426
00000000: 9664 f73d a464 f7bd

action_model._discrete_distribution.branches.1.weight f4 [2, 128]
0.032602645 -0.025741003 -0.085349135 -0.06492586 -0.017345186 -0.08872975 -0.11113777 -0.16813713
-0.016495394 -0.1572172 0.078763954 -0.16489273 -0.23887375 0.03065369 0.08060849 -0.048315696
-0.07485716 7.4130985e-06 -0.20770845 0.06779852 0.042459384 -0.09200983 0.06778633 -0.0496716
-0.08515295 -0.28199074 -0.0023265856 -0.18434232 0.027730284 -0.059668668 -0.11397838 0.020943321
0.052431595 -0.15846641 -0.004428841 -0.17313443 0.006963198 -0.10646852 -0.15692057 -0.059938822
-0.13608852 0.044693004 -0.07534343 0.008764494 -0.23017237 -0.04192024 -0.1092723 0.024899412
-0.22607484 0.022057304 -0.00095468265 -0.021248382 -0.12521182 -0.07929944 0.0023086795 -0.095763
-0.11686468 -0.10418407 -0.16067518 0.13984741 -0.12697393 0.031520054 -0.092038274 -0.093304016
-0.12698066 -0.11167334 -0.12800488 -0.0047772634 -0.013900752 -0.25049993 0.016232295 -0.11977473
-0.122248374 -0.024640359 -0.37931636 -0.039910898 -0.11323154 0.07221607 -0.18489967 -0.2584008
-0.11505742 -0.015234929 -0.07650218 -0.06460872 0.016953655 0.0020301421 -0.07323151 -0.015302962
-0.029277392 -0.16653715 -0.21292293 -0.09448173 -0.04251075 -0.120653264 -0.017099857 -0.109149
-0.056668583 0.06623362 0.015924942 0.014969292 0.017066116 -0.17449461 0.08579252 -0.020820223
-0.10884295 -0.18831798 -0.10402688 -0.12834853 -0.14011823 0.07669906 0.0088871075 -0.06591665
-0.08209894 -0.04501304 0.022439163 -0.28479466 -0.08163898 -0.22688906 -0.10683943 -0.045960225
-0.011213618 -0.05231163 0.08351233 -0.07020657 0.039440263 -0.06353448 0.045246705 -0.068329036
-0.035864655 0.011818738 0.07731474 0.064394064 0.020320505 0.0875019 0.121038206 0.1761533
0.019939112 0.14296617 -0.06724737 0.16557007 0.24637257 -0.04197698 -0.07254946 0.016047489
0.08794502 -2.3719143e-05 0.22123428 -0.07577833 -0.024362227 0.08854724 -0.062578104 0.056515887
0.09873475 0.265101 0.0005325198 0.18540914 -0.03568291 0.04770846 0.108707674 -0.017090099
-0.019663539 0.15128373 0.01574011 0.16622595 0.007844055 0.10303551 0.16269773 0.05658421
0.11870871 -0.02666283 0.07546873 -0.028213985 0.22954047 0.02755519 0.11374515 -0.02195511
0.22554703 -0.0031880676 -0.015341593 0.027296573 0.10768009 0.0689672 -0.006767276 0.08087097
0.10687492 0.12547033 0.1631137 -0.13647778 0.12817016 -0.016957011 0.07161178 0.07422238
0.12347072 0.12595247 0.13841274 -0.0005770191 0.02105463 0.24217702 -0.013235859 0.12179018
0.11739074 0.03727007 0.39684683 0.045833707 0.10242493 -0.07742251 0.1852758 0.26020736
0.11695669 0.012914161 0.052185662 0.05657275 -0.02174724 0.006160175 0.06628002 -0.013287711
0.040151946 0.1843618 0.20364887 0.1043525 0.033783425 0.10864473 0.005093602 0.11337507
0.048362657 -0.065566294 -0.011101532 -0.0028670349 -0.0012087236 0.16102299 -0.09257178 0.031605665
0.113142446 0.1810286 0.102107696 0.13873062 0.13980992 -0.057271454 -0.0030233003 0.08546058
0.07360012 0.06294948 0.006179889 0.2973324 0.08818846 0.23566279 0.096911855 0.033070695
-0.00042421772 0.072486684 -0.084182024 0.07223265 -0.024026461 0.0580843 -0.061230224 0.07450116
00000000: 5a8a 053d ccde d2bc 87cb aebd d9f7 84bd
00000010: 7e17 8ebc f1b7 b5bd 339c e3bd 242c 2cbe
00000020: 5921 87bc 8cfd 20be ff4e a13d a4d9 28be
00000030: 529b 74be 731d fb3c 1016 a53d aee6 45bd
00000040: b64e 99bd 08be f836 86b1 54be f3d9 8a3d
00000050: e4e9 2d3d a66f bcbd 8fd3 8a3d 7374 4bbd
00000060: ab64 aebd 1761 90be a179 18bb 3cc4 3cbe
00000070: 9f2a e33c 2267 74bd 7f6d e9bd 5491 ab3c
00000080: 83c2 563d 0545 22be d01f 91bb 274a 31be
00000090: 8a2b e43b 2b0c dabd c9af 20be 6982 75bd
000000a0: ca5a 0bbe 0310 373d a84d 9abd f498 0f3c
000000b0: 4eb2 6bbe 8fb4 2bbd 28ca dfbd daf9 cb3c
000000c0: 2a80 67be 85b1 b43c ab43 7aba 1611 aebc
000000d0: 8737 00be bf67 a2bd 374d 173b 641f c4bd
000000e0: c056 efbd 755e d5bd 0988 24be 2934 0f3e
000000f0: 7405 02be 2c1b 013d 907e bcbd 2d16 bfbd
00000100: 3807 02be feb4 e4bd b613 03be 978a 9cbb
00000110: fbbf 63bc 8741 80be 97f9 843c 744c f5bd
00000120: 5b5d fabd 94da c9bc c135 c2be 9c79 23bd
00000130: f0e5 e7bd 05e6 933d 5756 3dbe 1c4d 84be
00000140: 3aa3 ebbd ec9b 79bc 2dad 9cbd 9451 84bd
00000150: 64e2 8a3c 220c 053b 67fa 95bd 46b9 7abc
00000160: 24d7 efbc b788 2abe 7808 5abe a37f c1bd
00000170: c11f 2ebd 0f19 f7bd 0015 8cbc 8389 dfbd
00000180: 511d 68bd 7ea5 873d 0675 823c c341 753c
00000190: 3dce 8b3c b7ae 32be fdb3 af3d 2c8f aabc
000001a0: 0de9 debd 6ed6 40be 0b0c d5bd cc6d 03be
000001b0: 277b 0fbe 6614 9d3d 3b9b 113c 4fff 86bd
000001c0: 7d23 a8bd 985f 38bd 56d2 b73c 9bd0 91be
000001d0: 5632 a7bd 9b55 68be a2ce dabd ca40 3cbd
000001e0: 53b9 37bc b844 56bd 8308 ab3d 76c8 8fbd
000001f0: 1d8c 213d 5e1e 82bd 9c54 393d 18f0 8bbd
00000200: d1e6 12bd 61a3 413c 3157 9e3d 09e1 833d
00000210: 3077 a63c 3234 b33d e1e2 f73d 8861 343e
00000220: 5957 a33c b965 123e fdb8 89bd 338b 293e
00000230: 1749 7c3e 0ef0 2bbd d094 94bd 0676 833c
00000240: 851c b43d 79f8 c6b7 3d8b 623e ab31 9bbd
00000250: 4b93 c7bc 4158 b53d f328 80bd 347d 673d
00000260: 7235 ca3d 51bb 873e cd98 0b3a e5db 3d3e
00000270: 3e28 12bd f269 433d 21a2 de3d 8900 8cbc
00000280: 6e15 a1bc 1fea 1a3e 67f1 803c 2337 2a3e
00000290: 5a84 003c 4804 d33d 3c9a 263e d8c4 673d
000002a0: 8d1d f33d 026c dabc 598f 9a3d 0421 e7bc
000002b0: a80c 6b3e 6cbb e13c 38f3 e83d 34db b3bc
000002c0: cdf5 663e e6ee 50bb 4e5b 7bbc 109d df3c
000002d0: 6187 dc3d ad3e 8d3d 07c0 ddbb ae9f a53d
000002e0: 3de1 da3d 4b7b 003e 4707 273e d5c0 0bbe
000002f0: 0a3f 033e 6ee9 8abc 32a9 923d e701 983d
00000300: 38de fc3d aff9 003e 12bc 0d3e 1943 17ba
00000310: c27a ac3c 41fd 773e 37db 58bc 216d f93d
00000320: 8e6a f03d 80a8 183d 822f cb3e 20bc 3b3d
00000330: 29c4 d13d b18f 9ebd f0b8 3d3e e639 853e
00000340: fd86 ef3d eb95 533c a2c0 553d d4b8 673d
00000350: 4527 b2bc 4bdb c93b d2bd 873d b3b4 59bc
00000360: 5e76 243d 57c9 3c3e 5489 503e c3b6 d53d
00000370: 7d60 0a3d 2181 de3d 3be8 a63b 3031 e83d
00000380: ec17 463d 9f47 86bd 33e3 35bc dde4 3bbb
00000390: 096e 9eba 36e3 243e 4696 bdbd f174 013d
000003a0: 3ab7 e73d 905f 393e d71d d13d 660f 0e3e
000003b0: 552a 0f3e 7995 6abd 9022 46bb f505 af3d
000003c0: a9bb 963d a8eb 803d ab80 ca3b f43b 983e
000003d0: 279c b43d 9651 713e b979 c63d 2375 073d
000003e0: 8a69 deb9 e673 943d a067 acbd b6ee 933d
000003f0: 24d3 c4bc cee9 6d3d 8bcc 7abd 1094 983d

action_model._discrete_distribution.branches.2.bias f4 [2]
-0.1890921 0.18909194
00000000: 5ca1 41be 51a1 413e

action_model._discrete_distribution.branches.2.weight f4 [2, 128]
0.012216224 0.13807623 -0.047207024 -0.048818424 0.0802794 -0.01816738 -0.030538086 -0.060922787
0.028362278 0.06883436 0.037986442 -0.020654572 0.030824404 -0.13059981 0.13389751 0.11217256
-0.05148916 3.537191e-05 0.0053500263 0.023678726 0.06910568 -0.030399185 -0.029637108 -0.07735618
0.0041119456 0.18842365 -0.14051105 -0.048658084 -0.06565943 0.056600284 -0.057748828 0.09979202
0.01307802 0.051589698 -0.023773406 0.07560322 0.1011459 0.032125562 0.11806646 0.13744688
0.02079641 -0.021548677 0.089895025 0.04101707 0.03917935 0.010533313 -0.046842787 0.080852926
0.13535233 -0.10162192 0.08756533 -0.17250119 0.11782426 0.026976554 -0.060786474 0.028220654
0.056504786 0.13559207 -0.040673718 -0.00026001243 0.05690397 -0.10837396 -0.016811274 0.08086608
-0.014686294 0.018021364 -0.025751175 -0.07271429 -0.0043254243 -0.042259727 0.06470404 0.058103357
0.22000654 0.15528025 0.12892832 0.15950029 0.024058763 0.007032666 -0.04439779 0.030072259
0.14680898 0.04065748 0.116085805 0.007426501 -0.0058696824 0.14616024 -0.114584796 0.16129522
0.019205524 -0.0450233 0.0633771 0.09615424 0.014212403 0.028040845 0.008042601 0.07257221
0.13391523 0.04765505 -0.095935114 0.027706638 0.020844825 -0.04435547 0.06441157 0.04346555
-0.043617625 0.10281583 -0.028157534 -0.109982505 0.09786813 0.13448907 -0.11053042 0.0751936
0.11538697 0.20394905 -0.0096564535 -0.05973738 0.020356597 0.067956015 -0.015359701 0.06629819
-0.022311669 0.09555955 0.23982196 -0.14456417 0.14650849 0.02543821 0.05919764 0.025510203
-0.03529062 -0.14468373 0.043755647 0.058220383 -0.08363693 0.0017760303 0.043261606 0.0477099
-0.017293114 -0.06033645 -0.058345057 0.017183688 -0.021506757 0.14363562 -0.14077647 -0.11788916
0.03160383 -0.025430202 -0.0028919058 -0.047231954 -0.043435372 0.03742443 0.028043583 0.09415496
-0.013779596 -0.20500739 0.15358524 0.06597754 0.05831795 -0.05564535 0.07887229 -0.09726069
0.0060139294 -0.03769906 0.030324398 -0.081911124 -0.10217665 -0.047845747 -0.1005043 -0.13569364
-0.021219732 -0.0003440512 -0.09464293 -0.042858332 -0.044616874 0.007066097 0.03829647 -0.082490854
-0.12455513 0.10007042 -0.07175915 0.16250873 -0.12338496 -0.019694706 0.04734306 -0.012810529
-0.048384942 -0.14269298 0.048707202 -0.0012740673 -0.045039907 0.13315368 0.017501822 -0.061354715
0.008795064 -0.032734815 0.0171013 0.08938358 0.017647414 0.06280979 -0.09656668 -0.05832202
-0.21127027 -0.15961388 -0.13052604 -0.16590999 -0.04469447 0.0006566712 0.011093501 -0.030558085
-0.16523331 -0.024004586 -0.11182502 -0.0105232475 0.02870581 -0.14644587 0.12803876 -0.16131519
-0.013566384 0.052489564 -0.07276024 -0.09830306 -0.01749453 -0.034282852 -0.03762674 -0.06903546
-0.11974913 -0.026798816 0.10528334 -0.013461579 -0.024853664 0.027380161 -0.06312461 -0.030164063
0.057146035 -0.106773555 0.014457132 0.088072866 -0.08768595 -0.15513182 0.10721084 -0.101330996
-0.0915262 -0.1936702 0.007047097 0.06469114 -0.031072991 -0.060943782 0.0129945325 -0.073956825
0.017431807 -0.09738983 -0.25679812 0.15113528 -0.13442606 -0.017802568 -0.061252605 -0.00021838966
00000000: 8f26 483c db63 0d3e 275c 41bd d4f5 47bd
00000010: 8769 a43d c2d3 94bc 022b fabc 2c8a 79bd
00000020: 0258 e83c 07f9 8c3d ac97 1b3d c733 a9bc
00000030: 7683 fc3c f5bb 05be 6e1c 093e baba e53d
00000040: 4ce6 52bd 4d5c 1438 464f af3b e3f9 c13c
00000050: 4787 8d3d b607 f9bc 85c9 f2bc eb6c 9ebd
00000060: 80bd 863b 21f2 403e 21e2 0fbe b34d 47bd
00000070: 7478 86bd b3d5 673d 098a 6cbd c25f cc3d
00000080: 3145 563c b84f 533d 72c0 c2bc dcd5 9a3d
00000090: 9525 cf3d 1896 033d d4cc f13d e0be 0c3e
000000a0: 3c5d aa3c da86 b0bc e21a b83d 8401 283d
000000b0: 877a 203d eb93 2c3c 39de 3fbd 3896 a53d
000000c0: cd99 0a3e 271f d0bd 7455 b33d 27a4 30be
000000d0: d84d f13d effd dc3c 3dfb 78bd 002f e73c
000000e0: 9071 673d a6d8 0a3e 7c99 26bd 4752 88b9
000000f0: 2314 693d 2bf3 ddbd ccb7 89bc 1e9d a53d
00000100: c89e 70bc 8aa1 933c 21f4 d2bc 3beb 94bd
00000110: 4abc 8dbb 8918 2dbd 8d83 843d c9fd 6d3d
00000120: 6549 613e c901 1f3e c905 043e 0b54 233e
00000130: e216 c53c 4772 e63b 75da 35bd 195a f63c
00000140: 1855 163e 7588 263d 65be ed3d 015a f33b
00000150: 7756 c0bb 08ab 153e 6fab eabd 932a 253e
00000160: e754 9d3c 5a6a 38bd dacb 813d 84ec c43d
00000170: 24db 683c eab5 e53c 1dc5 033c bda0 943d
00000180: 1321 093e f131 433d a179 c4bd 08f9 e23c
00000190: c4c2 aa3c 15ae 35bd 37ea 833d ef08 323d
000001a0: 65a8 32bd 1b91 d23d a1aa e6bc 823e e1bd
000001b0: 166f c83d 81b7 093e c65d e2bd 1aff 993d
000001c0: 0150 ec3d 05d8 503e 1a36 1ebc 2faf 74bd
000001d0: e1c2 a63c 862c 8b3d 41a7 7bbc 58c7 873d
000001e0: f6c6 b6bc bab4 c33d e393 753e a108 14be
000001f0: 5206 163e cb63 d03c 3979 723d c6fa d03c
00000200: e68c 10bd f927 14be 1f39 333d 7f78 6e3d
00000210: d749 abbd b0c9 e83a 1533 313d 756b 433d
00000220: 4aaa 8dbc 5a23 77bd 3afb 6ebd cec4 8c3c
00000230: f02e b0bc 3715 133e b527 10be df6f f1bd
00000240: 0573 013d 0053 d0bc 2186 3dbb 4b76 41bd
00000250: 4ae9 31bd 5c4a 193d a8bb e53c 51d4 c03d
00000260: d1c3 61bc 75ed 51be 7345 1d3e 3c1f 873d
00000270: cede 6e3d 61ec 63bd cc87 a13d 9d30 c7bd
00000280: 7f10 c53b 546a 1abd df6a f83c 05c1 a7bd
00000290: fe41 d1bd e7f9 43bd 33d5 cdbd 46f3 0abe
000002a0: 01d5 adbc c561 b4b9 27d4 c1bd 388c 2fbd
000002b0: 2fc0 36bd b88a e73b c2dc 1c3d f7f0 a8bd
000002c0: c316 ffbd b8f1 cc3d 76f6 92bd b068 263e
000002d0: 41b1 fcbd cb56 a1bc ccea 413d 41e3 51bc
000002e0: 4a2f 46bd 1c1e 12be 3481 473d 9bfe a6ba
000002f0: c47b 38bd 7059 083e fb5f 8f3c 154f 7bbd
00000300: 2c19 103c f114 06bd 0718 8c3c bd0e b73d
00000310: 4f91 903c 6ba2 803d c0c4 c5bd 12e3 6ebd
00000320: 3c57 58be d271 23be 9ea8 05be 4fe4 29be
00000330: 8c11 37bd 7524 2c3a 84c1 353c f354 fabc
00000340: ec32 29be 44a5 c4bc 8404 e5bd b369 2cbc
00000350: 7228 eb3c e8f5 15be 981c 033e cf2f 25be
00000360: 8a45 5ebc 4cff 563d 5203 95bd 1d53 c9bd
00000370: b050 8fbc 2d6c 0cbd 7f1e 1abd 7762 8dbd
00000380: 083f f5bd 3189 dbbc cb9e d73d f48d 5cbc
00000390: e999 cbbc 5c4c e03c 7a47 81bd a01a f7bc
000003a0: f611 6a3d 18ac dabd 9bdd 6c3c 8c5f b43d
000003b0: b194 b3bd e0da 1ebe 5b91 db3d a086 cfbd
000003c0: 1772 bbbd 7b51 46be 56eb e63b ca7c 843d
000003d0: c98c febc 30a0 79bd 05e7 543c ad76 97bd
000003e0: 26cd 8e3c 5274 c7bd 0b7b 83be 35c3 1a3e
000003f0: fca6 09be b1d6 91bc 03e4 7abd 87ff 64b9

action_model._discrete_distribution.branches.3.bias f4 [2]
0.1309282 -0.1309272
00000000: 0b12 063e c811 06be

action_model._discrete_distribution.branches.3.weight f4 [2, 128]
-0.053763073 -0.16419771 0.10340546 -0.08046941 -0.22063206 -0.13346113 0.046449084 0.08024464
-0.09087484 -0.3133789 -0.0699747 -0.25188655 -0.022826036 0.023817595 -0.11506331 -0.06860822
-0.06761964 0.024730898 -0.091965735 0.14724354 -0.2130296 -0.10322909 -0.033863675 -0.008745191
-0.08893621 -0.08935645 -0.020995544 -0.022297407 0.05819982 -0.32250765 -0.26261377 -0.093762666
0.03468328 -0.07229596 0.17025593 -0.0047540576 0.030447247 0.026715549 -0.09868321 -0.18081363
0.03768797 0.042803016 -0.15449847 -0.06323626 -0.3396833 -0.018531235 0.17076585 -0.013810715
-0.3051891 -0.014087423 0.06115881 0.26525596 -0.08897161 -0.35157263 -0.029462349 0.065247454
-0.1387208 -0.14378978 -0.106281154 -0.00073904847 -0.010843743 0.243532 -0.2565243 0.02627868
-0.027638279 -0.24903642 -0.18753955 0.0423206 0.03892949 -0.12676185 -0.33805275 -0.12840046
-0.21916355 0.02226445 -0.04114892 -0.28305885 -0.035991594 0.028562674 -0.09360201 -0.058810424
-0.10850614 0.014459783 -0.18671814 -0.026595656 -0.07239937 -0.023773586 0.043525737 -0.19307774
-0.20431684 -0.010183626 -0.15652731 -0.21843667 0.10991522 -0.12035871 -0.007393925 0.060947005
0.037657432 0.023103833 0.038653605 0.019300804 -0.09651316 0.013046488 -0.23679048 -0.03422664
-0.034002207 -0.083999194 -0.15801649 -0.19013266 -0.057069816 0.068756945 0.12030125 -0.21220368
-0.16528535 -0.12139996 -0.044780947 -0.101793714 0.0510362 0.14207654 -0.019008148 -0.07157062
0.012302337 -0.0014559485 -0.23334539 -0.055678092 -0.060459416 0.18348214 -0.07643989 -0.004554207
0.04299519 0.16921833 -0.09224033 0.07587987 0.23091227 0.10825664 -0.039351992 -0.07704475
0.09557804 0.31156948 0.06500102 0.22803497 0.035863142 -0.044274136 0.11118762 0.07889034
0.07230193 -0.03430378 0.09632656 -0.14388862 0.21446183 0.086497694 0.036224745 -0.011487281
0.123997144 0.09698381 0.022655413 0.03480621 -0.075740874 0.34038574 0.2574272 0.08120186
-0.03653522 0.10064113 -0.17994131 0.0018380077 -0.048572667 -0.032677636 0.1042331 0.17943653
-0.029222742 -0.061588064 0.15042374 0.05898111 0.3425731 0.03523564 -0.15464988 0.0009995289
0.32895464 0.026403798 -0.066342786 -0.2727813 0.10727411 0.34889194 0.037315276 -0.07307165
0.14891446 0.1512542 0.08628193 0.018195698 0.0010042712 -0.23221402 0.24908353 -0.03167747
0.025689311 0.23441826 0.18639342 -0.040068235 -0.041583627 0.13603553 0.33096278 0.13645512
0.23904112 -0.008113782 0.0690825 0.28088063 0.027638713 -0.0489573 0.09559951 0.039532762
0.10315883 -0.026370838 0.17152731 0.021598423 0.059065145 0.011059789 -0.04316159 0.20820893
0.19565175 0.0041398806 0.16411659 0.2343856 -0.10815756 0.11400555 0.008948088 -0.05745892
-0.02799101 -0.038234342 -0.044148024 -0.007324876 0.08163387 -0.0050439574 0.25054234 0.021265082
0.03300379 0.07538298 0.16160782 0.19066887 0.053514544 -0.08361766 -0.10935159 0.20330673
0.16434366 0.12235591 0.020557303 0.092707 -0.044128478 -0.1318123 0.019288808 0.05907125
-0.007193261 0.010449586 0.23759875 0.05309919 0.023133637 -0.17750555 0.08811495 0.008423095
00000000: ab36 5cbd 7223 28be 3ec6 d33d 25cd a4bd
00000010: 5fed 61be 09aa 08be 6541 3e3d 4d57 a43d
00000020: 971c babd 3373 a0be e54e 8fbd 46f7 80be
00000030: abfd babc 1e1d c33c 50a6 ebbd 7782 8cbd
00000040: 2a7c 8abd 7498 ca3c 8858 bcbd 03c7 163e
00000050: 6e24 5abe c669 d3bd a3b4 0abd fd47 0fbc
00000060: 3024 b6bd 8400 b7bd d9fe abbc 0da9 b6bc
00000070: ef62 6e3d b91f a5be 5075 86be a406 c0bd
00000080: 0e10 0e3d e70f 94bd 9257 2e3e edc7 9bbb
00000090: 816c f93c 91da da3c 6c1a cabd 3527 39be
000000a0: b35e 1a3d 3752 2f3d d934 1ebe 0382 81bd
000000b0: f8ea adbe d1ce 97bc 3edd 2e3e 5646 62bc
000000c0: bf41 9cbe efce 66bc a981 7a3d a1cf 873e
000000d0: bf36 b6bd 5401 b4be 065b f1bc 75a0 853d
000000e0: d30c 0ebe a13d 13be efa9 d9bd b4bc 41ba
000000f0: f4a9 31bc 7460 793e 2757 83be 6346 d73c
00000100: ac69 e2bc 6703 7fbe 5e0a 40be 5e58 2d3d
00000110: 8774 1f3d dccd 01be 4015 adbe 697b 03be
00000120: 696c 60be f063 b63c c58b 28bd 17ed 90be
00000130: ec6b 13bd 45fc e93c 69b2 bfbd 33e3 70bd
00000140: 7838 debd bae8 6c3c 0a33 3fbe 22df d9bc
00000150: 1f46 94bd d3c0 c2bc 0b48 323d 2cb6 45be
00000160: 6f38 51be 39d9 26bc b248 20be ddad 5fbe
00000170: 3b1b e13d a17e f6bd bd48 f2bb 91a3 793d
00000180: ae3e 1a3d 4044 bd3c 3e53 1e3d b81c 9e3c
00000190: b1a8 c5bd f0c0 553c 3479 72be 3c31 0cbd
000001a0: e645 0bbd c507 acbd 13cf 21be 23b2 42be
000001b0: 0ac2 69bd 71d0 8c3d 8060 f63d ec4b 59be
000001c0: 9040 29be 8ba0 f8bd 3a6c 37bd 3979 d0bd
000001d0: 560b 513d 837c 113e fab6 9bbc 9e93 92bd
000001e0: be8f 493c 86d5 beba 18f2 6ebe b60e 64bd
000001f0: 4ba4 77bd bee2 3b3e 848c 9cbd 753b 95bb
00000200: b91b 303d 9247 2d3e 80e8 bcbd e866 9b3d
00000210: 4474 6c3e a8b5 dd3d 8e2f 21bd a3c9 9dbd
00000220: 6bbe c33d 0986 9f3e 411f 853d 0082 693e
00000230: 3be5 123d cc58 35bd 56b6 e33d 4291 a13d
00000240: 0913 943d 1f82 0cbd dc46 c53d 8a57 13be
00000250: e29b 5b3e b425 b13d 6660 143d 2635 3cbc
00000260: 37f2 fd3d 739f c63d d897 b93c f590 0e3d
00000270: 081e 9bbd 0a47 ae3e 7fcd 833e 294d a63d
00000280: f4a5 15bd f01c ce3d 8942 38be 4ee9 f03a
00000290: 22f4 46bd fcd8 05bd 2a78 d53d 36be 373e
000002a0: 8864 efbc c443 7cbd ae08 1a3e 2d96 713d
000002b0: be65 af3e 3f53 103d 8a5c 1ebe a002 833a
000002c0: be6c a83e c74c d83c bade 87bd fea9 8bbe
000002d0: 87b2 db3d f7a1 b23e e7d7 183d 97a6 95bd
000002e0: 087d 183e 62e2 1a3e 95b4 b03d 250f 953c
000002f0: c0a1 833a 83c9 6dbe c10f 7f3e 3cc0 01bd
00000300: 6472 d23c 570b 703e ebdd 3e3e 971e 24bd
00000310: 9853 2abd e64c 0b3e f473 a93e e4ba 0b3e
00000320: 32c7 743e abef 04bc 207b 8d3d 96cf 8f3e
00000330: 956a e23c 7387 48bd adc9 c33d 1bed 213d
00000340: f044 d33d a807 d8bc dba4 2f3e 2def b03c
00000350: 4bee 713d 1e34 353c 35ca 30bd b934 553e
00000360: ef58 483e d6a7 873b 2e0e 283e c702 703e
00000370: b681 ddbd be7b e93d 009b 123c 0b5a 6bbd
00000380: 674d e5bc 9d9b 1cbd 8fd4 34bd 8305 f0bb
00000390: a92f a73d c847 a5bb 1647 803e 1c34 ae3c
000003a0: fb2e 073d 6462 9a3d 857c 253e b33e 433e
000003b0: 1132 5b3d bc3f abbd baf3 dfbd a42f 503e
000003c0: b449 283e bc95 fa3d ca67 a83c 2bdd bd3d
000003d0: 10c0 34bd cef9 06be 9003 9e3c b2f4 713d
000003e0: 72b5 ebbb be34 2b3c 164d 733e 897e 593d
000003f0: c182 bd3c 04c4 35be 9c75 b43d 0501 0a3c

discrete_action_output_shape f4 [1, 4]
3.0 2.0 2.0 2.0
00000000: 0000 4040 0000 0040 0000 0040 0000 0040

network_body._body_endoder.seq_layers.0.bias f4 [128]
0.052669495 0.055706277 -0.10933078 -0.18608542 0.029038277 -0.13081758 -0.07798314 0.0027518854
-0.19550559 -0.1982413 -0.017987285 -0.2174588 -0.15009436 -0.19151026 -0.2617544 0.0513414
0.0030027118 0.20178 0.15144686 -0.16785382 0.08413523 -0.13743575 -0.040955905 -0.25429454
0.06174424 0.07481442 -0.034204062 0.12279356 0.06941473 -0.04904474 -0.16191643 -0.08265813
0.113818295 0.07379233 -0.0020580264 -0.1052707 -0.013368504 -0.07797976 -0.21980391 0.017926324
-0.09702128 0.013300367 -0.15667884 -0.09351514 -0.09459312 -0.10100199 0.06328081 -0.09765838
-0.028730713 -0.14227012 -0.036042612 0.070739284 -0.21828668 -0.2488122 0.048174806 -0.016581226
-0.26274416 -0.2363021 0.10166485 -0.11428044 -0.26195997 0.025993934 -0.10949261 -0.17418043
-0.13803384 -0.15212466 -0.09759252 -0.13666642 0.17831479 0.021227553 -0.112328075 -0.23524193
-0.06459139 -0.050411005 -0.18616813 0.031059975 -0.27292612 -0.07046259 -0.005023455 -0.12787363
-0.0650633 -0.069401175 -0.09809367 0.021744097 -0.18503591 0.052651104 -0.2571047 -0.31440094
-0.15000993 -0.14154992 -0.0592947 -0.13979056 0.05551801 0.11674667 -0.011896382 0.06678292
-0.21503396 -0.08480572 -0.079988845 -0.008685254 -0.07692475 -0.18961515 -0.19686155 -0.029160421
-0.3196993 -0.10974062 -0.15089814 -0.043120913 0.017373623 0.086469635 -0.12222279 0.118498206
-0.069539964 -0.19226313 -0.12267135 -0.18499278 -0.054539304 -0.0014038816 0.030672366 0.0033175196
-0.03189868 -0.0059124804 -0.14708912 -0.21613291 -0.046625763 0.10062386 -0.04590301 -0.02939238
00000000: f8bb 573d 442c 643d d1e8 dfbd 2d8d 3ebe
00000010: aee1 ed3c 0bf5 05be a0b5 9fbd fa58 343b
00000020: 9e32 48be c4ff 4abe 125a 93bc 85ad 5ebe
00000030: 56b2 19be 441b 44be ac04 86be 5c4b 523d
00000040: 25c9 443b 6b9f 4e3e e314 1b3e dfe1 2bbe
00000050: 174f ac3d f5bb 0cbe 61c1 27bd e532 82be
00000060: 87e7 7c3d 4d38 993d 8f19 0cbd 317b fb3d
00000070: 4f29 8e3d 23e3 48bd 6ccd 25be aa48 a9bd
00000080: 9119 e93d 6f20 973d f4df 06bb 2a98 d7bd
00000090: 9207 5bbc dab3 9fbd 4714 61be 3ada 923c
000000a0: 18b3 c6bd c8e9 593c 6b70 20be de84 bfbd
000000b0: 0aba c1bd 22da cebd 5f99 813d 1e01 c8bd
000000c0: ac5c ebbc 42af 11be 6ba1 13bd c2df 903d
000000d0: 8b86 5fbe a0c8 7ebe f252 453d 5ad5 87bc
000000e0: 6786 86be 2df9 71be a935 d03d dd0b eabd
000000f0: 9e1f 86be 3bf1 d43c a93d e0bd 5b5c 32be
00000100: be58 0dbe 91c6 1bbe 96de c7bd 48f2 0bbe
00000110: 2798 363e 68e5 ad3c 430c e6bd 43e3 70be
00000120: 7e48 84bd c57b 4ebd dca2 3ebe 7d71 fe3c
00000130: f9bc 8bbe b14e 90bd cb9b a4bb 4ef1 02be
00000140: e83f 85bd 3422 8ebd 56e5 c8bd ad20 b23c
00000150: 0e7a 3dbe afa8 573d 3aa3 83be 29f9 a0be
00000160: 349c 19be 76f2 10be 00df 72bd 4225 0fbe
00000170: da66 633d e118 ef3d 0be9 42bc 7cc5 883d
00000180: dd31 5cbe 9fae adbd 31d1 a3bd 984c 0ebc
00000190: b98a 9dbd 792a 42be 1396 49be d6e1 eebc
000001a0: a0af a3be b1bf e0bd 0b85 1abe 8e9f 30bd
000001b0: 2153 8e3c fe16 b13d f14f fabd 30af f23d
000001c0: f86a 8ebd a0e0 44be 1e3b fbbd bf6e 3dbe
000001d0: 9b64 5fbd 7302 b8ba 9d44 fb3c be6a 593b
000001e0: 31a8 02bd 7bbd c1bb 889e 16be f251 5dbe
000001f0: a8fa 3ebd e213 ce3d cb04 3cbd 4ac8 f0bc

network_body._body_endoder.seq_layers.0.weight f4 [128, 8]
-0.26606122 -0.47566038 0.6460069 0.23215763 -0.21539375 -0.03414978 -0.30315444 -0.65941775
0.21497191 -0.22019985 -0.010019386 0.3133523 0.23323423 -0.21091294 0.64811355 0.20956124
0.14531139 0.21774359 -0.18011673 0.22364233 0.05318336 0.15058742 0.19151224 0.19180526
-0.19959496 -0.33418503 -0.68820494 -0.15546069 0.29507673 -0.8145848 -0.6355483 -0.23187259
0.28660637 -0.5666007 -0.18836461 -0.20566079 -0.050407834 -0.40477064 0.2278233 0.26032647
0.4233611 -0.41671422 0.34186327 0.073084824 -0.080335274 0.2075083 0.14527865 -0.31955674
0.18329196 -0.1478394 -0.6554584 0.04260369 -0.4109591 0.27472073 -0.19015908 0.20246024
-0.12619376 -0.34195226 -0.29846755 0.15348706 -0.49182767 0.11919376 -0.045093328 0.2825653
0.022000335 -0.3284709 0.23774277 -0.56898 -0.0039230413 0.20664756 0.2273447 0.2638796
-0.032921657 0.12466107 -0.8125795 0.02128652 -0.12777117 -0.24671496 -0.31908518 -0.050542057
-0.056731608 0.03958093 -0.015361467 -0.014917888 0.12899467 -0.3330393 -0.05418938 -0.45516104
0.7737613 0.08046759 0.3284446 -0.15799084 -0.36629254 0.45182338 0.012508701 -0.5274477
-0.25093284 -0.3264028 -0.7150345 0.11275404 0.005774114 -0.024967419 -0.09557248 -0.34385887
0.48992872 -0.6031929 -0.17782198 -0.23901449 0.45012015 0.02377318 0.20765933 0.32780018
0.27961427 0.116900936 -0.008053609 -0.44370916 -0.08515638 0.36567608 0.03495738 -0.0037504348
0.41799226 -0.17012435 0.19985782 0.1668521 -0.57906 -0.28295052 0.2885951 0.30082926
0.46243322 0.31835818 0.0263064 -0.21394238 -0.26987755 -0.06311067 0.35475925 -0.4649793
0.7440631 -0.44729662 0.09978919 -0.21000661 0.08224319 -0.26720592 0.33765304 0.17847295
0.19079162 0.44114512 0.16017796 -0.03219835 0.51671225 0.5453798 0.011125951 -0.20691921
0.018738931 0.7500343 -0.040065117 -0.15807723 -0.17294545 -0.028965237 0.0566067 -0.31810272
0.55580306 0.18116112 -0.52127177 -0.2965347 0.4223532 -0.008932829 0.04509937 -0.21611947
-0.019796185 -0.012939042 0.07046335 -0.22094487 -0.48752314 0.39624056 -0.46735078 0.06032656
-0.4210492 0.0126220025 0.27722275 0.2887943 -0.06153068 -0.24192187 0.38492852 -0.3913056
-0.63003933 0.009024662 0.22588058 0.0705046 -1.2857155 0.1020789 0.20555432 -0.00016865702
0.16411889 0.19210172 0.2728024 0.25363445 0.023212787 0.23433949 0.25282878 -0.48655528
0.41875383 0.12309521 -0.91943485 0.4071812 0.27854812 0.39255577 0.028408524 0.05798819
0.79227036 -0.081419274 0.15742934 -0.10931831 0.18040545 -0.05710639 0.196844 0.22354372
0.43585044 -0.33622935 -0.34442347 -0.6448094 -0.15547298 -0.021805968 -0.11100026 -0.8962106
0.44422105 -0.027996195 0.04815613 -0.22051264 -0.16078402 -0.03353088 0.5602875 -0.56134266
-0.65436625 -0.4894275 -0.036680505 -0.2128146 0.53894013 -0.0101332385 0.34521767 0.49531153
0.13506976 0.095218025 -0.114663556 0.020174097 -0.24045774 -0.48942652 0.38499334 -0.05533491
0.18169436 0.0030698744 -0.058792666 0.6590555 0.013004108 -0.01397926 0.02094893 0.04137646
00000000: 2d39 88be c289 f3be b560 253f bbba 6d3e
00000010: 2e90 5cbe a4e0 0bbd 0f37 9bbe 9acf 28bf
00000020: 9921 5c3e 127c 61be 5a28 24bc b66f a03e
00000030: f4d4 6e3e 90f9 57be c5ea 253f 3997 563e
00000040: 82cc 143e 2df8 5e3e 8570 38be 7f02 653e
00000050: cbd6 593d 9733 1a3e c91b 443e 9968 443e
00000060: 9f62 4cbe 4d1a abbe 332e 30bf 1631 1fbe
00000070: 4c14 973e a188 50bf 4bb3 22bf 0270 6dbe
00000080: 12be 923e be0c 11bf a7e2 40be be98 52be
00000090: 7278 4ebd 193e cfbe 834a 693e 8349 853e
000000a0: c9c2 d83e 915b d5be b408 af3e 7fad 953d
000000b0: d286 a4bd 0e7d 543e edc3 143e f19c a3be
000000c0: e3b0 3b3e 3663 17be 1fcc 27bf 3581 2e3d
000000d0: 3b69 d2be 32a8 8c3e 10b9 42be bd51 4f3e
000000e0: f038 01be 5e14 afbe bdd0 98be b62b 1d3e
000000f0: d6d0 fbbe dc1b f43d c8b3 38bd 66ac 903e
00000100: 0c3a b43c 562d a8be d772 733e aca8 11bf
00000110: db8c 80bb 6b9b 533e 0dcd 683e 3a1b 873e
00000120: dcd8 06bd 4e4e ff3d 3605 50bf 1161 ae3c
00000130: 72d6 02be d9a2 7cbe 225f a3be 3005 4fbd
00000140: 675f 68bd 9d1f 223d aaae 7bbc 286a 74bc
00000150: 2e17 043e 2184 aabe aff5 5dbd de0a e9be
00000160: 3815 463f 31cc a43d e429 a83e 5ac8 21be
00000170: b28a bbbe 6555 e73e 4bf1 4c3c d006 07bf
00000180: 457a 80be 451e a7be 800c 37bf 97eb e63d
00000190: c734 bd3b 7988 ccbc 81bb c3bd 450e b0be
000001a0: f0d7 fa3e da6a 1abf f716 36be 37c0 74be
000001b0: 2676 e63e f9bf c23c a6a4 543e 6dd5 a73e
000001c0: 9a29 8f3e c269 ef3d 49f3 03bc d92d e3be
000001d0: 7866 aebd e539 bb3e 782f 0f3d dbc9 75bb
000001e0: 1503 d63e 1435 2ebe 87a7 4c3e 47db 2a3e
000001f0: 473d 14bf e4de 90be bdc2 933e 4b06 9a3e
00000200: 0cc4 ec3e d8ff a23e 8580 d73c b613 5bbe
00000210: 642d 8abe 2b40 81bd 01a3 b53e c411 eebe
00000220: eb7a 3e3f 1004 e5be 465e cc3d f90b 57be
00000230: 1e6f a83d 37cf 88be dce0 ac3e 9dc1 363e
00000240: e15e 433e c6dd e13e b105 243e 6be2 03bd
00000250: 4147 043f 039e 0b3f 9f49 363c a1e2 53be
00000260: 6382 993c 3f02 403f 521b 24bd ffde 21be
00000270: 9d18 31be 8148 edbc 6ddc 673d 5cde a2be
00000280: 1c49 0e3f 4d82 393e 1172 05bf 65d3 97be
00000290: ae3e d83e 005b 12bc 1eba 383d 6c4e 5dbe
000002a0: 9c2b a2bc 47fe 53bc 174f 903d 5f3f 62be
000002b0: a29c f9be 0be0 ca3e 9a48 efbe fc18 773d
000002c0: c393 d7be 84cc 4e3c 24f0 8d3e d9dc 933e
000002d0: 9807 7cbd 5eba 77be 5a15 c53e 3559 c8be
000002e0: 424a 21bf 2ddc 133c 3d4d 673e b764 903d
000002f0: 5392 a4bf be0e d13d d57c 523e 86d9 30b9
00000300: c80e 283e 50b6 443e c2ac 8b3e 60dc 813e
00000310: be28 be3c b1f6 6f3e c672 813e c61d f9be
00000320: e766 d63e 5719 fc3d 1560 6bbf 0e7a d03e
00000330: dc9d 8e3e 12fd c83e feb8 e83c 0685 6d3d
00000340: 3bd2 4a3f 26bf a6bd 2835 213e 47e2 dfbd
00000350: 35bc 383e 64e8 69bd 7991 493e a5e8 643e
00000360: ca27 df3e 4126 acbe 4658 b0be 3b12 25bf
00000370: 4f34 1fbe 6ea2 b2bc 1b54 e3bd 0f6e 65bf
00000380: f170 e33e 4758 e5bc 5d3f 453d 11ce 61be
00000390: 91a4 24be ad57 09bd 006f 0f3f 27b4 0fbf
000003a0: 8c84 27bf 3e96 fabe 4c3e 16bd 12ec 59be
000003b0: fbf7 093f e205 26bc 5fc0 b03e 7999 fd3e
000003c0: ba4f 0a3e ab01 c33d bad4 eabd 2644 a53c
000003d0: 8e3a 76be 1d96 fabe d91d c53e dca6 62bd
000003e0: 160e 3a3e f22f 493b 94d0 70bd dcb7 283f
000003f0: 2f0f 553c 4409 65bc 179d ab3c 5d7a 293d

network_body._body_endoder.seq_layers.2.bias f4 [128]
-0.0381598 -0.013824598 0.013602878 -0.11243911 0.014782511 -0.15609054 -0.11689022 -0.061380524
-0.13873886 0.0052841515 0.012577896 0.006197135 0.011453254 -0.09638617 -0.043648943 0.0032597878
-0.14353515 -0.037295997 -0.019658148 -0.07166837 -0.0056167385 -0.059726622 0.028272748 -0.06713005
-0.07582196 -0.095751606 -0.066085674 -0.040570762 0.041130684 -0.007869806 0.013065961 -0.022030925
-0.07918369 -0.14366432 -0.15319638 -0.11922911 0.0372032 -0.024506321 -0.0062748543 -0.039939653
-0.0021147786 0.051679485 -0.055248015 0.03860148 0.06962698 -0.07293059 0.008850978 -0.15815905
-0.008708189 -0.07720158 -0.033350904 -0.032365594 -0.06737845 0.016259667 0.016365757 -0.04760321
0.00080862705 -0.026964914 -0.09663299 -0.007912198 -0.20739216 -0.0051452806 0.018074129 -0.056967046
-0.028793337 -0.082125224 -0.05254867 0.00863677 -0.045263056 -0.13412754 0.042482845 -0.08944207
0.019548224 0.017557677 0.084660985 -0.06989862 0.0076356814 0.008762329 -0.08018718 -0.09125189
-0.009031081 -0.020124365 -0.14946312 -0.043570444 -0.06544123 -0.10627951 0.13618511 -0.039998747
-0.12352404 -0.09296704 -0.033065904 -0.05121768 -0.032836936 -0.07745211 -0.012690602 -0.006944014
-0.0098836515 -0.003032866 -0.024758317 0.034913342 -0.037136972 -0.022008263 -0.11101262 -0.031550523
-0.015599499 -0.028694816 -0.057383608 -0.059452854 -0.036765344 0.040700655 -0.11849579 -0.042447828
-0.05572798 0.002202939 0.025741203 -0.07121119 -0.13687576 0.025078125 0.015656194 -0.041383706
-0.057167113 -0.0036935313 -0.036768608 0.049986776 -0.008086633 0.072198875 -0.050448105 0.016087146
00000000: 734d 1cbd 9180 62bc 9bde 5e3c 7a46 e6bd
00000010: 5832 723c 33d6 1fbe 2464 efbd 256a 7bbd
00000020: 8f11 0ebe ad26 ad3b 8513 4e3c 5611 cb3b
00000030: 6ea6 3b3c 1d66 c5bd 3cc9 32bd 2aa2 553b
00000040: e1fa 12be b0c3 18bd 200a a1bc dec6 92bd
00000050: 9e0c b8bb e7a3 74bd 409c e73c 7b7b 89bd
00000060: 8b48 9bbd 6b19 c4bd ed57 87bd 872d 26bd
00000070: a678 283d 5cf0 00bc 9d12 563c 337a b4bc
00000080: 0f2b a2bd bd1c 13be 83df 1cbe 642e f4bd
00000090: 6262 183d 7bc1 c8bc 4b9d cdbb c397 23bd
000000a0: 1998 0abb dead 533d be4b 62bd 961c 1e3d
000000b0: 9798 8e3d a25c 95bd b103 113c 72f4 21be
000000c0: cbac 0ebc dd1b 9ebd f59a 08bd c991 04bd
000000d0: b6fd 89bd fe32 853c 7b11 863c 95fb 42bd
000000e0: 0bfa 533a 86e5 dcbc 84e7 c5bd 2aa2 01bc
000000f0: 9c5e 54be be99 a8bb 3210 943c 4756 69bd
00000100: 01e0 ebbc 4531 a8bd 463d 57bd 3d81 0d3c
00000110: c165 39bd bb58 09be 7e02 2e3d 672d b7bd
00000120: 9923 a03c 1ed5 8f3c bd62 ad3d 0227 8fbd
00000130: bd34 fa3b df8f 0f3c 2d39 a4bd 45e2 babd
00000140: 19f7 13bc dadb a4bc dc0c 19be ec76 32bd
00000150: 0d06 86bd 12a9 d9bd 1c74 0b3e bad5 23bd
00000160: 2cfa fcbd 8165 bebd 1d70 07bd a1c9 51bd
00000170: 0680 06bd 369f 9ebd 3eec 4fbc 9d8a e3bb
00000180: 0aef 21bc 0cc3 46bb f4d1 cabc 4b01 0f3d
00000190: f01c 18bd ac4a b4bc 965a e3bd 1f3b 01bd
000001a0: 0b95 7fbc 6411 ebbc 130b 6bbd d684 73bd
000001b0: 4297 16bd bbb5 263d ecad f2bd c6dd 2dbd
000001c0: 0643 64bd 2f5f 103b 37df d23c 2cd7 91bd
000001d0: 2929 0cbe a470 cd3c 6b41 803c f681 29bd
000001e0: 1028 6abd 2c0f 72bb ae9a 16bd efbe 4c3d
000001f0: cc7d 04bc 01dd 933d aca2 4ebd 31c9 833c
