Assets/Brains/Brains 2/LearnFightSword.onnx (onnx, 84149 bytes, 18 tensors)

action_model._continuous_distribution.log_sigma f4 [1, 2]
000000 3e 25 b4 be f0 3f 50 be
       -0.35184664 -0.2033689

action_model._continuous_distribution.mu.bias f4 [2]
000000 6d 1b 83 be 86 89 a7 be
       -0.25606862 -0.3272211

action_model._continuous_distribution.mu.weight f4 [2, 128]
000000 7b 50 1e bd 3c 20 84 3d 26 23 bd 3c 30 52 5a bd
       -0.03865097 0.06451461 0.02308805 -0.053301036
000010 06 59 4a bd 8c 41 a7 bc 49 6b 94 bd c2 ce ee 3d
       -0.049401306 -0.020416997 -0.072470255 0.1166053
000020 04 0e 93 3d af df 32 3d da dd 0c 3d a5 33 07 3d
       0.07180408 0.043670353 0.03439126 0.033008236
000030 35 c1 08 3e 01 ee 59 3d 34 20 05 bd cf 88 1f bd
       0.13354953 0.053205494 -0.032501414 -0.03894883
000040 a0 77 c9 bc 2e 8b 18 3e 5d e9 53 3c ae b6 cd 3d
       -0.024593174 0.14896843 0.012934056 0.10044609
000050 21 46 f4 bd 66 69 57 3d 20 77 f8 bd 4b 86 15 3e
       -0.119274385 0.05259075 -0.12132096 0.1460201
000060 d6 f1 3c 3d d9 84 8a 3d e4 8d 33 bd 88 67 71 3c
       0.04612907 0.0676362 -0.04383649 0.014734156
000070 e7 ac 02 be 4b 85 df ba e3 d9 fe 3b 9f 75 31 3d
       -0.1276127 -0.0017053274 0.007777439 0.043325063
000080 03 2a db 3d f7 2b 36 3d ce 5b 92 3d 49 89 fc bc
       0.107013725 0.044475522 0.071464166 -0.030827181
000090 84 c2 cc ba b2 cd 32 3c 5c 22 9c 3d 6e 90 f5 bd
       -0.0015621935 0.010913299 0.07623741 -0.119904384
0000a0 48 fc 44 bd 22 b7 d7 3c 05 e9 0d 3e 13 0b 8e bd
       -0.048092157 0.026332442 0.13858421 -0.06935706
0000b0 58 3d 89 3d 93 ad 4a 3d a3 92 96 3c 57 9b ab bd
       0.067011535 0.04948194 0.018380469 -0.08379238
0000c0 40 0b 28 3d df d2 a3 3b 63 c1 0a 3e 3d e0 01 bb
       0.041026354 0.004999503 0.13550334 -0.0019817494
0000d0 db e4 10 3c 7d d4 43 be bd e0 6d bd bb fa ce 3b
       0.008843626 -0.19124027 -0.058075655 0.0063165105
0000e0 e0 cc 6d bc 62 a5 a1 bd 42 97 62 bd a2 fa d8 3c
       -0.014514178 -0.078928724 -0.055320032 0.026486699
0000f0 ce 21 84 bb 1a 96 79 3d be b0 2a bd 5a 31 83 3b
       -0.00403235 0.060934164 -0.04167246 0.004003686
000100 ac 18 bc 3d 47 92 96 3d aa 85 03 3c 7f a7 86 bb
       0.09184393 0.07352119 0.008027473 -0.0041093226
000110 9d 59 ae bc fb dc 21 3e e8 9f 8c 3c e0 ab e8 3d
       -0.021282965 0.15806954 0.017166093 0.113609076
000120 7b 37 0e 3e 7d 63 2a bd 97 fc e9 3d d9 de 28 3c
       0.13888352 -0.041598786 0.11425131 0.010307037
000130 8c 67 46 bd 52 02 c3 3d 92 89 4d 3d bf 41 3d 3d
       -0.048438594 0.09521927 0.050180025 0.04620528
000140 56 6c 56 3d 08 97 90 bc 31 b2 2e bd 02 07 bf bc
       0.05234941 -0.017650142 -0.042650405 -0.023318771
000150 78 e5 05 bc 4a 03 e1 38 b1 f3 2d bd 0b 4d 56 bd
       -0.008172385 0.00010729449 -0.04246873 -0.052319568
000160 a4 f4 1a 3e de 27 c4 3b d1 eb f6 bb c0 dd e6 3c
       0.15132385 0.005986198 -0.0075354357 0.02818191
000170 d2 ec 22 bd 19 ee 9d bc 69 0d 57 3b d3 bf 7e 3d
       -0.03977663 -0.019278573 0.003281439 0.062194657
000180 05 f4 de bd d0 ec 15 3a f1 f9 0e bd ee 5a da 3c
       -0.10886387 0.0005719187 -0.03490633 0.026654687
000190 d8 b8 67 bc 83 df 5f bb 96 8c ac 3a 77 36 cc bb
       -0.014143191 -0.0034160323 0.0013164456 -0.0062320787
0001a0 d4 46 dd 3d f0 d7 43 3c 25 e0 c4 3b 14 73 64 3d
       0.10804525 0.011953339 0.0060081654 0.05577381
0001b0 b2 a2 78 bd 92 cc 80 3d ff a5 6e bd 75 55 49 bd
       -0.060702033 0.06289019 -0.058263775 -0.049153764
0001c0 c4 48 56 3d 46 8c fd bc 6f f0 39 3d 5f 99 2c bc
       0.05231549 -0.030950677 0.04539531 -0.010534613
0001d0 54 3a 8a 3d 01 95 39 3d 05 52 44 3c 15 8e 00 be
       0.067494065 0.045308117 0.011982446 -0.125542
0001e0 c5 e0 c6 bd e9 1d 05 be 99 58 83 bc 6f 6c 0e 3e
       -0.0971084 -0.12999691 -0.016033458 0.13908552
0001f0 b5 62 ae bc 51 09 bf 3c c5 ea bb bc 2f 90 32 bd
       -0.021287302 0.023319872 -0.022939095 -0.043594535
000200 d0 da 4e bd 6e 6f d0 bc 01 50 e3 3d d0 c1 00 bd
       -0.050501645 -0.025443759 0.11099244 -0.031434834
000210 14 c4 9d bb a6 be eb 3d 1e 9a 05 3d 16 46 0f 3c
       -0.004814634 0.11510973 0.03261768 0.008744737
000220 d1 d5 98 3d 78 46 2c 3d 7f ec 90 bc 3f a8 54 bd
       0.07462657 0.04205939 -0.017690895 -0.051918264
000230 2c 62 81 bb fb 64 e1 3c 40 17 85 3d f0 5a f3 3d
       -0.0039484706 0.027513972 0.06498575 0.11882579
000240 36 0c 36 be ee 22 01 3e c8 14 6d bc 2c 9a 4e 3e
       -0.17778096 0.12610981 -0.014470287 0.20176
000250 c7 3c 20 3d 67 4b 0b bd 07 ac 7a bd 62 fb 34 3d
       0.03912046 -0.034007456 -0.061199214 0.04418505
000260 28 ce d2 3b 04 ec 54 bd ce ac c5 3c 1e b0 09 3d
       0.006433267 -0.051982895 0.024130251 0.033615224
000270 7b 1f e5 bc 7e a6 b2 bb 4e 1d 06 bb f9 c0 54 bd
       -0.027969113 -0.0054519763 -0.0020464244 -0.051941846
000280 4f 81 31 be 93 98 4e 3d 46 5b bf bd cc c0 98 3c
       -0.17334484 0.050438475 -0.09343581 0.01864662
000290 6b d4 f1 3d d5 ca 93 38 e4 ea a1 bb eb 5d 4e 3c
       0.11808094 7.0472866e-05 -0.004941331 0.012595634
0002a0 68 68 bd 3c 55 26 27 bd 35 07 02 bd 4d 8d ba bc
       0.023121074 -0.04080804 -0.031745154 -0.022772456
0002b0 9a f6 81 3d 09 f2 18 be da 2d 5a bd 77 23 8c 3c
       0.06345864 -0.14936079 -0.053266384 0.017106755
0002c0 52 66 ba 3d 21 7f 1e bd 35 bd c9 bd eb 6c 9f bd
       0.09101547 -0.03869546 -0.098505415 -0.07784446
0002d0 66 e3 b7 3c b7 c8 2b bd fa 1c bb 3d 88 6d e6 bc
       0.0224473 -0.041939463 0.09136386 -0.0281284
0002e0 f1 ae 5b 3d 7c 2c b3 3c 17 f7 b6 3d 83 fe 9b b9
       0.053633634 0.021871798 0.089338474 -0.0002975353
0002f0 79 50 65 3c 74 39 67 bc 32 77 8b 3c b3 7c 6f 3c
       0.013996237 -0.014112819 0.01702461 0.014617133
000300 76 06 d6 bc b4 d2 85 bc 57 94 6f bc 52 17 b8 bd
       -0.026126128 -0.016335823 -0.014622769 -0.08988823
000310 db f3 c7 bc 6d bd 8c 3d 12 5e 41 3d eb db 9f bb
       -0.024408272 0.068720676 0.047208853 -0.004878511
000320 cc 0e f9 3d e3 e6 28 bc f5 11 a8 ba 8a d7 21 3d
       0.121610254 -0.010308954 -0.0012822734 0.039512195
000330 8f c8 2a 3d ba b1 80 3c d4 2b b9 3b 5b 1a 60 3c
       0.041695174 0.015709747 0.0056509767 0.013678159
000340 c7 f9 e4 3c b0 98 8e 3c 63 8a 04 bd b9 4c 05 3d
       0.027951134 0.017406791 -0.03235854 0.03254387
000350 79 65 2f 3b 99 35 f3 bc e4 0a 01 3b 6c bd 5d 3e
       0.0026763363 -0.029688643 0.001969033 0.2165429
000360 90 07 d3 3c 1b 07 d5 3d eb 15 dd 3b a6 e2 0d be
       0.025760442 0.10401746 0.0067469976 -0.13855991
000370 e1 48 04 3e c6 79 1f 3c e2 64 0d bc f5 d9 8e bc
       0.12918426 0.009733623 -0.008630009 -0.017437914
000380 9d 58 84 bd 5b a9 94 bd 8f 3c ef 3c 80 13 ff bd
       -0.06462214 -0.072588645 0.029203681 -0.12454891
000390 d6 78 95 bd 7e 6d 9c bc ef 10 80 bd 8c 2c 30 3d
       -0.07298438 -0.019095179 -0.0625323 0.043011233
0003a0 45 83 b0 ba ea 7c ae bd e9 bb 39 bd 1d 11 66 3d
       -0.0013466856 -0.08519919 -0.04534522 0.056168664
0003b0 01 d4 01 3d 99 d2 c0 3d 9f 53 8c 3d 5f 38 e7 3d
       0.031696323 0.09415168 0.06851887 0.11290049
0003c0 8a 23 9b 3d 69 25 f8 bb 9f f0 f8 3c 6c 4c fa 3d
       0.07575138 -0.007572819 0.030388175 0.122216076
0003d0 cf 19 00 3d 37 ef 14 3d b5 b2 8c bd 7b fb 4b 3d
       0.031274613 0.036360946 -0.06870023 0.049800377
0003e0 a3 c5 3e be ee 3f 4e 3d 18 45 f2 3d 18 74 7f bc
       -0.1863008 0.050353937 0.11829585 -0.015591644
0003f0 60 b9 5a 3c 55 f0 84 bd 93 e7 b4 3c 46 07 39 3d
       0.013349861 -0.06491152 0.02208308 0.045172952

action_model._discrete_distribution.branches.0.bias f4 [3]
000000 af 24 5e 3e 26 88 1c be d9 17 93 bd
       0.21693681 -0.15286312 -0.07182283

action_model._discrete_distribution.branches.0.weight f4 [3, 128]
000000 fb 77 a8 3c d5 47 10 3d 11 ce 3a 3d f2 cd 6a 3c
       0.020565024 0.035224754 0.045606676 0.014331328
000010 0c b3 af bd 0a 20 55 be f2 92 ef 3d 99 ad 85 bd
       -0.08579072 -0.20813003 0.116979495 -0.06527252
000020 89 a3 b9 3c d2 88 8d 3c 6a d8 03 3e 53 bf 09 bb
       0.022660987 0.017277155 0.12875524 -0.002101858
000030 9f 79 98 3b 58 fd 11 3d a4 4d dd 3c b3 c2 a5 3c
       0.0046531702 0.035641998 0.027014561 0.020234441
000040 ea b6 87 3d 33 df 46 bb 8e be 66 3d 6e 15 36 3d
       0.06626685 -0.003034544 0.05633407 0.04445403
000050 fc c6 aa bc d4 76 89 3c 31 f4 c3 bd 90 69 8f 3e
       -0.020846836 0.016780294 -0.0956806 0.28010225
000060 1b 22 69 3c ec 79 b6 bc b8 8b 2c bb 35 c5 e6 bc
       0.014229323 -0.022274934 -0.0026328396 -0.028170208
000070 70 f0 06 3d 82 27 78 bd 0e dd 98 bd ce ba c0 be
       0.032944143 -0.060584553 -0.07464038 -0.3764252
000080 3a ea 03 be eb 23 01 bd 53 ad 43 3d ac 3b 01 be
       -0.12882319 -0.031528395 0.047772717 -0.1262042
000090 78 cd a5 3d c4 50 14 be 76 16 65 bd ed 2a 16 3e
       0.08095831 -0.14483935 -0.055929624 0.14664812
0000a0 77 70 08 be 77 a6 c2 3d 54 1e d5 3d 13 f7 30 3b
       -0.13324152 0.09504407 0.10406175 0.0027002736
0000b0 0a 29 21 bc 42 38 a5 bd 96 80 97 bd 28 4c ec bd
       -0.009836445 -0.08067371 -0.07397573 -0.11537963
0000c0 ab 80 a9 3d cc bd d0 3d 76 a9 f0 bd 34 cc 89 bd
       0.082764946 0.10192451 -0.11751072 -0.06728402
0000d0 37 2c d1 3d df 0f 77 3c 54 d5 7a 3b e2 d6 29 be
       0.102135114 0.015079468 0.0038274126 -0.16585878
0000e0 b8 99 05 3e 75 53 af bd 39 88 6d bc a4 fe f7 3c
       0.1304692 -0.0856084 -0.01449781 0.03027279
0000f0 d6 e1 4c 3d 57 92 ec 3d 62 30 6b 3d c5 35 00 3d
       0.05002006 0.115513496 0.05741919 0.03130128
000100 01 52 09 be c3 b6 f3 3c 15 58 4e bc ae 8d 8a 3d
       -0.13410188 0.029750234 -0.012594243 0.067653045
000110 63 73 4b be 58 01 a8 3d 54 c8 1f be 99 64 06 be
       -0.19868235 0.08203381 -0.15603763 -0.13124312
000120 52 39 ca bd 40 a9 7b bc bd 84 00 bc cb 30 a0 3c
       -0.09874214 -0.015360177 -0.007844147 0.019554516
000130 0f d5 7b bc 17 f4 07 bd b2 f8 19 be e3 ee d8 39
       -0.015370621 -0.033191767 -0.15036276 0.00041376715
000140 49 43 fe ba c1 16 81 be 97 db d7 3c ff ed 7f 3c
       -0.0019398715 -0.25212672 0.026349826 0.0156207075
000150 cc 57 fb 3c d5 ed 46 bd 45 b4 6a 3d 81 a7 11 3d
       0.030681513 -0.048566658 0.057300825 0.035560135
000160 ae 35 1e ba a0 fb 78 be cb c6 f0 bd 8c 5c 8c 3d
       -0.00060352206 -0.24314737 -0.11756667 0.068535894
000170 9e 0a 3b 3e 87 b8 00 3e 5e 8f 27 bb d6 8d 59 be
       0.18265769 0.12570392 -0.0025567631 -0.21245512
000180 0d 2c da 3c 09 ee a9 bd 9e 18 f0 bb ec e4 cf bd
       0.026632333 -0.08297355 -0.0073271533 -0.10151085
000190 24 df cf 3d 57 52 aa bd 11 67 3b bd 3d 96 e0 bd
       0.101499826 -0.08316486 -0.04575259 -0.10966156
0001a0 52 00 03 bd 50 29 5e be 08 da ab bd 6e 7e 53 3e
       -0.031982727 -0.21695447 -0.083911955 0.20653698
0001b0 42 c6 b7 3d ab d9 18 be be c3 05 3d 05 cf a6 bd
       0.089733616 -0.14926784 0.032657377 -0.081449546
0001c0 e9 72 94 3d 2d 34 9b 3d 77 29 83 be f3 ed 1b 3e
       0.0724848 0.07578311 -0.25617573 0.15227489
0001d0 7b ec 9e bd c3 97 68 be 41 3a 3e bd fb d2 04 be
       -0.07759949 -0.22714143 -0.046442274 -0.12971108
0001e0 70 37 1b bd c4 e3 d1 3d d1 2e ae bd e0 68 6c bd
       -0.037894666 0.10248521 -0.08505023 -0.057717204
0001f0 ff df 7c bd b7 71 85 3d 4c 18 57 3d 6a fd 56 3d
       -0.061737057 0.0651583 0.052513406 0.05248777
000200 9b bb 81 bc a4 f0 1a be b2 b2 66 3e 1e c2 5e bc
       -0.015836528 -0.1513086 0.22529104 -0.013596086
000210 b6 16 98 3d 58 ba e0 3d 5c c7 9d bd 99 41 ec 3d
       0.07426207 0.10973042 -0.077040404 0.11535949
000220 70 7e 00 3e 4c e4 5e bd 71 88 d3 bd af c1 02 3e
       0.12548232 -0.05441694 -0.103287585 0.12769197
000230 b2 c4 a8 bd 03 a6 cd 3d 7b a0 98 bd a5 e9 63 3c
       -0.08240642 0.1004143 -0.07452484 0.013910686
000240 f8 4a 3b 3e 8c 96 c5 bc 12 ef db bd 57 c4 41 be
       0.18290317 -0.024119638 -0.107389584 -0.18922554
000250 b9 30 a4 bb 85 47 4b bc 72 58 bd 3d 4b 78 06 be
       -0.005010691 -0.012407188 0.09245385 -0.13131826
000260 7e 66 c5 bc d6 b1 09 3d f2 82 cd 3d a1 23 12 bc
       -0.024096724 0.033616863 0.100347415 -0.008919627
000270 7d 8d 34 3d 7a 56 33 3e 64 41 e2 3c 94 1e 94 3d
       0.044080246 0.17513457 0.027619071 0.07232395
000280 c4 bb e9 3c 6a 24 11 3e b6 33 1c be 57 4c e4 3d
       0.028531916 0.14174047 -0.15254101 0.11147373
000290 cc b8 ac bd 48 d7 08 3e 74 60 2c bd ac 09 c7 bb
       -0.08433685 0.13363373 -0.042084172 -0.006074151
0002a0 bd 84 08 bc a9 ec 81 bc 01 86 c1 bd 63 a3 dc 3b
       -0.0083324285 -0.015859919 -0.09449387 0.0067333444
0002b0 2a 0d fb 3d 0b a9 28 3c 0c e3 6c 3d ce 74 87 bd
       0.1225837 0.010294209 0.057833716 -0.066140756
0002c0 be 51 32 bd e7 88 22 bc 89 9f b0 3d 24 72 73 3e
       -0.043534987 -0.009920335 0.08624179 0.2377401
0002d0 62 0d 73 3c 9c f1 26 3e 06 a0 f6 3d a0 4d 67 3d
       0.014834734 0.16303104 0.12042241 0.056470513
0002e0 38 58 65 3c ad 88 82 3c 4f c4 c5 bd 52 7a 0e be
       0.013998084 0.015934313 -0.096565835 -0.13913849
0002f0 14 d6 a4 3b 18 5e 2b 3d 6d 9b c4 bb df b0 12 be
       0.005030403 0.04183778 -0.0059999735 -0.14325283
000300 ea ef 00 be ff c1 41 be 20 46 15 3c 29 3f 96 b9
       -0.1259152 -0.1892166 0.009110957 -0.00028657287
000310 2c 84 0d 3d bb 75 26 3d b0 d7 86 3d cb 8c 98 bd
       0.034549877 0.04063962 0.06584108 -0.07448729
000320 92 5f 6b 3d a9 2f ed 3d 84 8c a1 bd ea 6f 73 bc
       0.05746419 0.11581356 -0.07888129 -0.014858225
000330 99 0c 73 3d 87 2c d4 3d 71 58 95 3d 5f 7a b5 3d
       0.059338186 0.103600554 0.072922595 0.08861231
000340 32 f8 02 be c6 ec 52 bd d0 85 8e 3d 1b 57 66 3d
       -0.12789991 -0.051495336 0.069591165 0.056235414
000350 ab ba 93 3c a2 3b 6c 3e b4 7d a4 bd 0d dd 4c bd
       0.018033346 0.23069623 -0.080317885 -0.050015498
000360 57 9d c4 bc 0c a1 28 3e 86 84 83 bc 17 f2 a6 bd
       -0.024000807 0.16467685 -0.016054403 -0.08151644
000370 bf e9 0b ba 43 f8 d9 bd 05 1d 0a be 38 94 58 3e
       -0.000533726 -0.10643055 -0.13487633 0.21150291
000380 3f 2a 0d 3d 7e f3 95 3d b8 ce 36 bc f5 d7 b7 3c
       0.034464117 0.07321833 -0.011157684 0.022441844
000390 bd 8e e2 bd 73 37 ac 3d 48 fa 87 3b 35 0d 7b 3d
       -0.110623814 0.084090136 0.004149709 0.061291892
0003a0 1c 0f f3 3d 5e c9 87 bd c7 31 6e bd 17 71 e1 bd
       0.11868116 -0.066302046 -0.05815294 -0.11007898
0003b0 70 f5 84 3d f9 06 12 3e ac f6 e6 bd d1 d5 4a bc
       0.06492126 0.14260472 -0.11277518 -0.012380079
0003c0 4a b0 5c bd a4 4d 17 3c 7d 35 0b 3e 49 09 a4 3d
       -0.05387906 0.00923482 0.13594623 0.080095835
0003d0 94 ba 4e 3d 99 97 97 3d 9e c8 4b bc e3 2a 7b bc
       0.050470904 0.07401962 -0.012437968 -0.015330049
0003e0 c5 72 4a bd d6 01 1a be c3 e3 af 3d ec 61 d6 bd
       -0.04942586 -0.15039763 0.08588364 -0.10467896
0003f0 4f fc 01 bd 0b d0 92 bd ed ca 9c 3b c9 06 0f bc
       -0.03173476 -0.07168587 0.004784933 -0.008729645

action_model._discrete_distribution.branches.1.bias f4 [2]
000000 b5 c1 49 be aa c1 49 3e
       -0.197028 0.19702783

action_model._discrete_distribution.branches.1.weight f4 [2, 128]
000000 91 98 89 bd ac 05 f5 3c 86 11 5d 3d 98 24 90 bc
       -0.06718553 0.029909931 0.05397179 -0.017595574
000010 d5 2e 04 3e 7f 88 56 3d 65 cd 93 bd c3 e6 3d bd
       0.1290849 0.052376267 -0.0721691 -0.04636265
000020 8d ec e1 3d fc 77 31 be 55 b3 38 bd 9c 08 f4 3b
       0.110314466 -0.17330927 -0.0450929 0.0074473154
000030 fd 64 49 3c 98 f3 0d 3e bd f5 d8 3d 15 fe 8f bc
       0.012292144 0.13862455 0.10593746 -0.01757721
000040 4b 66 d5 3d 92 0d 4a bd 90 ce 1e 3d 3c 11 b3 3d
       0.104199015 -0.049329348 0.038771212 0.087435216
000050 5b 25 18 3e 62 3b e2 bd b7 e6 0e 3a 56 c6 1c 3e
       0.14858 -0.110464826 0.00054512493 0.15310034
000060 67 37 02 3e d3 25 a9 3c 36 2b 78 bb 64 31 89 3d
       0.12716447 0.020647919 -0.0037867553 0.06698874
000070 69 7e a6 bd 56 d6 30 3e 7d 1b 51 bd cc 76 02 be
       -0.081295796 0.17269263 -0.051051605 -0.1274063
000080 50 09 40 bd aa 4f 90 3d ce 83 5f 3d 42 4d 28 3e
       -0.04688388 0.07046445 0.054569058 0.16435722
000090 81 d2 cc 3d 92 e6 f2 bb 8c 86 9e 3d a1 a3 bf 3d
       0.10001088 -0.00741274 0.077405065 0.093573816
0000a0 43 17 ae 3d 8f 86 bc 3d 9e be 06 3e 97 86 ec 3d
       0.085005306 0.092053525 0.13158652 0.115491085
0000b0 39 19 62 3e ee 51 3c 3e f9 ee 06 3d 85 ef b1 3d
       0.22079934 0.18390629 0.032942746 0.08688263
0000c0 61 ef 39 bd 08 56 c1 3c ab 15 72 3d b0 38 73 3e
       -0.045394305 0.023600593 0.059102695 0.23752093
0000d0 1f 09 14 3e 73 38 2b 3e e4 c3 68 3d 1c 21 fb 3d
       0.14456604 0.16720752 0.05682744 0.122621745
0000e0 b3 25 1a be 55 77 15 3e 3c b9 fe bd 05 3c 9f bd
       -0.15053444 0.14596303 -0.124376744 -0.0777512
0000f0 26 fc 6f bd 5b cf 35 3d a0 65 6b 3d 8e 33 be bc
       -0.058590077 0.044387203 0.057469964 -0.023217943
000100 b7 c5 83 3e 67 aa 64 bd 86 8c b9 3c 55 3e f9 bd
       0.25736782 -0.05582657 0.022650015 -0.12170092
000110 fb 13 a5 3d f4 31 ff 3d 12 6b 30 3d f7 67 17 3e
       0.080604516 0.124607 0.04307086 0.14785753
000120 ec e7 d9 3b bf ba 0a bd ca 40 b2 3d 8f 20 80 3c
       0.0066499617 -0.0338695 0.08703764 0.015640525
000130 b2 32 2f 3e ed e9 02 be fd 47 ed bd 6b 07 e9 3d
       0.17109182 -0.12784548 -0.11585996 0.11378368
000140 85 34 13 bb d9 05 4a be cd 32 be 3b 99 d8 10 3d
       -0.0022461724 -0.19728793 0.005804396 0.035362814
000150 29 6f 42 bd 04 b5 2b 3e 73 51 eb 3d 4d aa 98 3d
       -0.04746929 0.1676827 0.114901446 0.07454357
000160 bc 01 49 bd 6e d5 81 bd ab 57 ac bd 07 e4 92 bd
       -0.04907392 -0.063395366 -0.08415159 -0.07172399
000170 cb fc e3 3d b1 65 6f 3d 77 f1 9c 3d aa 34 28 3e
       0.11132201 0.05844659 0.07663243 0.1642634
000180 20 d1 ee bc 90 c2 28 3e a3 1c 88 3d b6 8b 98 3d
       -0.029152453 0.1648047 0.06646087 0.07448523
000190 da 83 1d 3e 0d 7b e0 bd 7f 31 9a 3d 81 bc 01 be
       0.15382329 -0.1096097 0.07528972 -0.12669565
0001a0 da 16 90 bd 2f 4f 45 bc 03 eb 1a be b3 08 9f bd
       -0.070356086 -0.012042805 -0.15128712 -0.07765331
0001b0 6f ea a8 3d 59 b6 d9 bd 80 ac a7 bd a6 2c e9 3d
       0.0824784 -0.10630483 -0.08187199 0.11385469
0001c0 f1 74 b2 3d 04 1e b9 3c 6f 23 f7 bd 8e 2e e4 bd
       0.08713711 0.02259732 -0.12067305 -0.11141692
0001d0 8b 69 b0 3c d2 76 dd bc 4c 5c 04 3d 4f 1e 6e 3b
       0.021534702 -0.027034197 0.032314584 0.0036333983
0001e0 e3 3e ea 3d 1d dc 84 3c 2a 26 fe 3d b8 58 85 3c
       0.11437776 0.01621824 0.12409623 0.016277656
0001f0 c6 06 b4 bb 2c 76 17 bd 28 b7 d4 bb 43 b7 0d 3e
       -0.0054939715 -0.03697793 -0.0064915605 0.1383944
000200 44 65 90 3d 64 5f c2 bc 7a 94 88 bd 6e 32 a8 3c
       0.07050565 -0.023727126 -0.06668945 0.02053186
000210 19 51 e0 bd 0f 1c cd bc c3 2b b7 3d 52 28 46 3d
       -0.10952968 -0.025037793 0.08943894 0.048378296
000220 ff 5d d0 bd ea 60 1c 3e c3 53 20 3d 25 ee cd bb
       -0.10174178 0.15271345 0.03914238 -0.0062844926
000230 76 4d 81 bb 2b 4c 0c be 3b f0 c4 bd fe 6e b4 3c
       -0.0039460016 -0.13700931 -0.09616133 0.022025581
000240 f6 05 d2 bd c1 c0 93 3d 82 42 d4 bc 3a 32 97 bd
       -0.10255043 0.07214499 -0.02591062 -0.07382627
000250 5e 91 29 be 0d 74 d2 3d ca 4a e6 3a 2f 9d 04 be
       -0.1655936 0.10276041 0.0017569896 -0.12950586
000260 7f 71 07 be ea 44 75 bb 98 cf cd 3a f6 c4 82 bd
       -0.13226889 -0.003742511 0.0015702127 -0.063852236
000270 a8 80 ab 3d 21 ee 23 be e0 67 9a 3d e7 ad ec 3d
       0.083741486 -0.16008808 0.07539344 0.11556607
000280 e0 8f 4e 3d 77 01 8c bd 47 94 32 bd aa 38 30 be
       0.05043018 -0.06836217 -0.04359844 -0.17209116
000290 4b c0 ac bd 11 90 b9 bb 66 17 9e bd e0 ec b3 bd
       -0.084351145 -0.005662926 -0.07719307 -0.08785415
0002a0 41 d8 88 bd 4d 68 9e bd b1 4b fb bd b7 93 fc bd
       -0.06681872 -0.077347375 -0.12270296 -0.12332862
0002b0 fe 38 55 be 63 3e 32 be b5 0d 00 bd 6a 97 a8 bd
       -0.20822522 -0.17406611 -0.031263072 -0.08232005
0002c0 bf bc c8 3c 0d 39 46 bb a5 1f 57 bd 7e 35 66 be
       0.024504064 -0.0030246407 -0.052520413 -0.22481343
0002d0 70 f9 08 be 51 6f 2e be 2e 99 13 bd e0 e6 ea bd
       -0.13376403 -0.17034651 -0.036034755 -0.11469817
0002e0 f5 46 07 3e d3 e3 0d be 84 d2 e1 3d 58 8b 55 3d
       0.13210662 -0.1385644 0.11026481 0.05213484
0002f0 b6 63 2d 3d 82 1b 36 bd 4e ac 42 bd c6 20 27 3c
       0.04233142 -0.044459827 -0.047527604 0.010200685
000300 59 cd 76 be c2 87 9a 3d 54 56 8b bc 4e 25 03 3e
       -0.24101771 0.07545425 -0.017008938 0.128072
000310 99 6d 8a bd 45 49 02 be ff eb 5c bd de 01 15 be
       -0.06759185 -0.12723263 -0.053936 -0.14551494
000320 1a e7 ec 3b 64 a4 1e 3d b0 af d2 bd 7e 6d 20 bc
       0.007229698 0.038730994 -0.10287416 -0.00979173
000330 b7 84 3e be 55 e8 01 3e 93 de f7 3d 18 cd fd bd
       -0.18605314 0.12686284 0.121029995 -0.12392634
000340 a0 d0 c3 ba 60 a4 38 3e ea 95 ac bb 0a bd 38 bd
       -0.0014939494 0.18031454 -0.0052668946 -0.045102157
000350 7f e4 24 3d 2d a1 2a be 76 00 f9 bd 88 ce 74 bd
       0.040256973 -0.16663046 -0.12158291 -0.059767276
000360 ed 25 38 3d e2 f4 55 3d a8 ae bd 3d 42 f1 82 3d
       0.044958044 0.05223549 0.09261829 0.063936725
000370 66 1a d9 bd fb b5 83 bd fa 2f 9a bd cc d0 22 be
       -0.10600738 -0.064311944 -0.07528682 -0.15899962
000380 5f 28 ad 3c 32 a5 27 be 3b 93 a1 bd b1 05 a1 bd
       0.021137415 -0.16371611 -0.0788941 -0.07862414
000390 1f 86 1b be ba 26 d3 3d 81 59 98 bd 1a 5a fd 3d
       -0.15187882 0.10310121 -0.074389465 0.12370701
0003a0 fa e0 3c 3d 56 82 a0 3b f0 21 23 3e bc 48 c4 3d
       0.046112992 0.0048983498 0.15930915 0.095841855
0003b0 06 f6 bb bd 34 c7 cb 3d 87 ea a6 3d 4a c6 c1 bd
       -0.091777846 0.09950104 0.08150201 -0.09461649
0003c0 44 c5 99 bd 32 30 55 3a e9 ab 05 3e 6a a6 c8 3d
       -0.075083286 0.0008132487 0.1305386 0.09797366
0003d0 ea e0 0f bd 49 89 8f 3b e8 b2 27 bd 20 69 e4 bc
       -0.035126604 0.0043803793 -0.040942103 -0.027882159
0003e0 e6 73 df bd 73 b2 63 bc d8 26 f8 bd 10 9c f7 bb
       -0.10910778 -0.013897526 -0.12116784 -0.007556446
0003f0 77 c9 12 3c f1 47 1b 3d b2 50 11 3c a1 97 08 be
       0.008959166 0.037910406 0.008869337 -0.13339092

action_model._discrete_distribution.branches.2.bias f4 [2]
000000 8b 36 97 be 86 36 97 3e
       -0.295338 0.29533786

action_model._discrete_distribution.branches.2.weight f4 [2, 128]
000000 00 76 ea bc f0 b3 04 be a2 13 ec bc 2b 7e 0c 3e
       -0.02862072 -0.12959266 -0.028817955 0.13720004
000010 f4 59 49 3d 5e b3 af 3d ed 50 11 3d 08 b4 1f bc
       0.04915805 0.085791335 0.035477567 -0.009747513
000020 1a 39 b3 3c 1a e5 d8 bc 83 0b 32 bd 77 2c 13 bc
       0.021877814 -0.026476432 -0.04346801 -0.008982769
000030 23 36 90 3d 69 13 e4 3c a8 4d c5 bd 0e 01 ab 3c
       0.07041576 0.027841287 -0.096339524 0.020874526
000040 56 ed 15 3c a5 a5 13 bd 72 86 90 bd f6 13 17 be
       0.009150824 -0.036046643 -0.070568934 -0.14753708
000050 ec b7 18 bb 7e cd 3c bd 7a f6 48 3c f9 11 8c bd
       -0.0023302985 -0.04609441 0.012265796 -0.068393655
000060 b1 34 a7 bd f7 f5 e2 bd 31 d9 03 3e b5 93 4b bd
       -0.08164347 -0.1108207 0.1287582 -0.04970141
000070 74 34 d3 3d 00 93 51 bc b2 db ae 3c c1 e1 3b 3d
       0.10312739 -0.012791395 0.021344993 0.045869593
000080 0d d8 80 bd eb 96 bb b9 93 26 70 bd 9b 5b 0c bd
       -0.062912084 -0.00035779862 -0.058630537 -0.03426705
000090 b1 4e 55 bb 83 f5 2a bd e2 ee 46 bd 07 94 7c 3d
       -0.0032548124 -0.041738044 -0.04856766 0.061664607
0000a0 2a 33 95 3d 03 8c 63 3d d3 7a e8 bd 9c 80 01 3e
       0.072851494 0.055553447 -0.11351552 0.12646717
0000b0 9e 08 1b 3d 7f 95 39 3d 52 33 97 3d 02 ee b4 3c
       0.037850015 0.045308586 0.073828354 0.022086147
0000c0 a8 21 1c 3e 75 c0 b4 bc 18 1f 76 bd ea 54 9b 3d
       0.15247214 -0.022064427 -0.060088247 0.075845554
0000d0 46 00 62 3d ea b2 d8 3d 2f f4 14 bc fc 4e 23 bd
       0.055176042 0.10581 -0.009091421 -0.039870247
0000e0 3a dd 2b bd 29 6b f9 3d 6c 6f f2 ba 9f 7e ed bc
       -0.041959025 0.12178642 -0.0018496341 -0.028991042
0000f0 8d 16 19 bd ee 8a 44 ba 7b 7e 1b 3d 17 f5 aa bc
       -0.03737502 -0.0007497509 0.037962418 -0.020868821
000100 b5 85 b9 bc 23 fd 14 3d 22 0a d0 3d 56 88 09 3e
       -0.022646764 0.036374222 0.10158183 0.13430914
000110 8b 64 8d be fe 11 21 bd e5 13 41 bc 57 65 f5 bd
       -0.2761577 -0.0393238 -0.011784528 -0.1198222
000120 e2 ef 23 3e 25 fd 7f 3d d0 93 97 bd 83 75 20 3d
       0.16009477 0.062497277 -0.0740124 0.039174568
000130 42 d8 e6 bd 50 7b a5 3d f9 16 3a 3d d9 b4 24 3d
       -0.11271717 0.080801606 0.045432065 0.040211532
000140 fb 75 d6 bd b5 cc 53 bd ba 95 b3 bd 16 ce 70 bc
       -0.10471722 -0.051708896 -0.087687925 -0.014697572
000150 98 b6 3e bd 99 b1 e5 3d f5 5c 2a be 9e 3b 46 3d
       -0.046560854 0.11215515 -0.16637023 0.0483967
000160 ab 73 80 bd fb ab 99 bd 47 cb 84 bc ea ac f9 3b
       -0.06272062 -0.07503506 -0.016210211 0.00761949
000170 85 ab e8 bb 57 39 12 bd 3e a1 3d be c6 b1 56 3e
       -0.007100525 -0.035699215 -0.1851854 0.20966253
000180 36 d1 6e bd c6 be 4a 3d f3 0c 3f be 9f 5a 66 3d
       -0.058304988 0.049498342 -0.18657283 0.056238767
000190 8f 25 72 3d c0 ca a5 bd f1 37 03 b9 c2 fc 97 3d
       0.05911785 -0.08095312 -0.00012513973 0.074212566
0001a0 ba 0f 2c 39 51 e9 92 3b e9 18 ab bc 11 87 e6 bc
       0.00016409057 0.00448338 -0.020885902 -0.028140577
0001b0 cc c3 ca 3d 7d ea 2f 3b 09 c5 bc bd ef c7 62 bc
       0.099006265 0.0026842647 -0.09217269 -0.013841613
0001c0 c1 b1 7d bd 88 67 0e 3e 92 ae 50 3c b6 f7 55 3d
       -0.061937097 0.13906682 0.012736933 0.05223819
0001d0 c8 eb 5c 3c b0 72 2c be 1f 1d df bd 58 42 65 bd
       0.013483949 -0.16840625 -0.10894226 -0.055971473
0001e0 3b 92 61 bc ab 4f bb bd 88 66 59 bb e2 e2 39 3d
       -0.013767774 -0.09146055 -0.0033172686 0.045382388
0001f0 ab 68 05 bd 13 70 c8 3d a1 bd b2 bd 76 29 3c 3d
       -0.032570522 0.097870015 -0.08727575 0.045937978
000200 b7 ac de 3c 69 bb 07 3e 38 3c 88 3c 52 0d 0b be
       0.027181966 0.13255085 0.016630277 -0.135793
000210 bf f1 82 bd 4c b7 d6 bd 03 ad 21 bd 2b 15 3e 3c
       -0.06393766 -0.1048418 -0.039471637 0.0116017265
000220 d1 02 4e bc 15 c1 45 3d 32 0a e8 3c 7c 4b 52 bc
       -0.012573914 0.04827984 0.028325174 -0.01283538
000230 58 86 8b bd 24 0e 86 bc 0c 5e a2 3d 35 46 c9 bc
       -0.068127334 -0.016364165 0.07928094 -0.02456961
000240 6b 76 77 bc e1 79 cc 3c 65 8d c4 3d 15 43 14 3e
       -0.015103917 0.02496046 0.09597281 0.14478715
000250 82 f2 49 bc f9 73 2e 3d b2 15 00 bd 27 7a 6d 3d
       -0.012325885 0.04259107 -0.03127069 0.05797782
000260 6b 38 a5 3d ed 47 ed 3d eb 7b 09 be 33 7f 65 3d
       0.080674015 0.115859844 -0.13426177 0.05602951
000270 8e 78 dc bd aa 6d 93 3c 78 0d 80 bc 00 a6 0a bd
       -0.107651815 0.017996628 -0.015631422 -0.033849716
000280 96 96 5c 3d cd c3 44 bc 68 07 a6 3d 51 d9 ca 3c
       0.053854547 -0.012009573 0.081068814 0.024761828
000290 cd d7 d3 3c b6 9a 60 3d c7 09 bc 3c 17 36 8e bd
       0.025859738 0.054835044 0.022953881 -0.069439106
0002a0 28 48 7d bd 63 ae 75 bd d1 51 05 3e 6b 36 07 be
       -0.06183639 -0.05998076 0.13019492 -0.13204353
0002b0 a6 64 19 bd 91 b4 09 bd c4 97 8b bd a0 45 1f bb
       -0.0374495 -0.033619467 -0.06816056 -0.0024302974
0002c0 e8 df 16 be b0 b4 18 3d c2 53 8f 3d 3b c3 9f bd
       -0.14733851 0.037281692 0.069983974 -0.07800909
0002d0 59 50 81 bd 5c 38 cc bd 07 17 1a 3b 1b 24 77 3d
       -0.06314153 -0.09971687 0.002351226 0.060337167
0002e0 a0 cf 1b 3d 79 55 b2 bd 38 c8 fe 3b 99 38 17 3c
       0.038039804 -0.08707709 0.007775333 0.0092298025
0002f0 d2 a1 5e 3d e9 ef 6f 3c 27 38 2e bd ee f6 72 3c
       0.054353543 0.014644601 -0.04253402 0.01482938
000300 1f 41 f4 3c c0 e8 2c bd 41 bf f1 bd b6 34 02 be
       0.029816208 -0.042214155 -0.11804057 -0.1271542
000310 7c 42 92 3e 14 9f 7f 3c 3f 98 58 3c 68 98 ea 3d
       0.2856635 0.015601892 0.013219892 0.114548504
000320 65 6b 1b be f5 1d 62 bd 8d 08 6e 3d bc e8 11 bd
       -0.15177687 -0.05520435 0.058113623 -0.035622343
000330 b5 9b cd 3d 4f 7a 90 bd 15 1b 87 bd 91 a7 03 bd
       0.100394644 -0.070545785 -0.06596962 -0.032142226
000340 31 d8 d7 3d 0e c7 5a 3d 90 bd a5 3d fd f7 91 3b
       0.10539282 0.05341249 0.08092797 0.0044546113
000350 e0 de 46 3d 4d cc bd bd 19 1d 20 3e ba ab 81 bd
       0.048552394 -0.09267483 0.156361 -0.06331582
000360 36 5e 80 3d 69 4f 75 3d 59 24 9d 3c e9 96 85 3b
       0.06267969 0.059890185 0.019182371 0.004076828
000370 a0 1d 56 39 93 1c 77 3d 25 f4 41 3e 96 dc 5e be
       0.00020419667 0.060329985 0.1894079 -0.21763834
000380 cb 63 3a 3d 96 ec 3f bd 2e ed 2f 3e b1 09 5f bd
       0.045505326 -0.046856485 0.1718032 -0.0544526
000390 a7 68 7d bd 98 45 84 3d 12 54 93 3b 54 57 8a bd
       -0.061867382 0.064585865 0.004496106 -0.06754938
0003a0 7c 10 d5 3c 4d e2 63 bc 08 44 ad 3c c1 b4 00 3d
       0.026008837 -0.013908935 0.021150604 0.03142238
0003b0 f0 8c d2 bd 8d 67 83 bb b9 16 a3 3d 56 69 5f 3c
       -0.10280788 -0.004010147 0.079633184 0.013635954
0003c0 51 42 3b 3d 2a f0 11 be 16 72 60 bc 90 7a 6b bd
       0.04571754 -0.14251772 -0.013699075 -0.05748993
0003d0 aa 68 31 bc fd 4e 31 3e bb f6 eb 3d b0 ed 76 3d
       -0.0108281765 0.17315288 0.115216695 0.06028527
0003e0 c7 41 9a 3c 27 44 c4 3d 83 b0 10 3d fc 98 2c bd
       0.018830193 0.095833115 0.035324585 -0.042138085
0003f0 d7 94 e8 3c 8e b4 89 bd 58 7f b4 3d 1a 87 42 bd
       0.028391285 -0.06723891 0.088133514 -0.047492124

action_model._discrete_distribution.branches.3.bias f4 [2]
000000 f1 17 bd be ec 17 bd 3e
       -0.36932328 0.36932313

action_model._discrete_distribution.branches.3.weight f4 [2, 128]
000000 35 87 85 3d b1 9d ae bd 81 95 87 3d a0 65 33 3d
       0.06519929 -0.08526171 0.066203125 0.04379809
000010 e4 c6 65 3d c9 6f a0 3d bb d4 08 be 6b 1b b3 3d
       0.05609788 0.07833821 -0.133624 0.08745464
000020 0b 31 6b bc a0 64 bf bd 79 15 d0 bd 9d d9 17 be
       -0.0143549545 -0.093453646 -0.101603456 -0.14829107
000030 95 2c e3 bd fb 16 6b 3d 9e 82 34 bd 87 7a 7a 3b
       -0.11092488 0.057394963 -0.04406988 0.0038220005
000040 e6 6f aa 3d 99 30 35 3e 9f 4a 2b bc 9e c9 4c bc
       0.08322124 0.1769432 -0.010454803 -0.012499241
000050 77 b8 a4 bc 75 c7 de ba 25 36 89 3b 9e 57 d9 bd
       -0.020107491 -0.0016996699 0.0041873627 -0.10612415
000060 1f 3f 8f 3d 1f 95 36 bd 63 51 15 3d eb 5e 63 3e
       0.06994461 -0.044575807 0.03645457 0.22204177
000070 7b c1 9c bd 3e 61 f6 bd de 77 9a bd c8 dd 59 bc
       -0.07654091 -0.12030266 -0.07542394 -0.013297506
000080 5c c4 85 bd 7e 0b 9a bd 98 5f 51 bd f4 65 28 bd
       -0.06531593 -0.07521723 -0.051116556 -0.041112855
000090 66 51 49 3d b4 f8 17 bd c6 30 8b 3c ef 21 56 3d
       0.049149893 -0.037102416 0.01699103 0.052278455
0000a0 33 d1 47 bd 59 a3 9a 3b d8 d7 09 3e e7 fc 6c 3d
       -0.048783492 0.0047191796 0.13461244 0.057858374
0000b0 6d 9c 2c bd b5 53 a3 bd e1 bf ab 3d 8c ff 02 be
       -0.042141367 -0.0797495 0.08386207 -0.12792796
0000c0 d1 ad 7e 3d 06 a4 6e bd c3 6c 39 be df 8d 95 3d
       0.062177483 -0.058261894 -0.18107896 0.073024504
0000d0 1d 96 46 3c 66 91 87 3d a7 4d f4 3c de 16 b9 3c
       0.012120751 0.066195294 0.029822184 0.022593912
0000e0 53 3f 78 bd 24 7d c7 bd ac a8 03 be 4e b7 d4 3d
       -0.060607266 -0.097406656 -0.12857312 0.10386525
0000f0 84 e4 7b bc 35 f0 cb bc 3b 41 07 3e 20 71 f0 bd
       -0.015374307 -0.024894813 0.13208477 -0.11740327
000100 1d af 11 3e 7d 21 34 3e 3a 65 4c 3d 7c 0a 0d be
       0.14226957 0.175909 0.049901225 -0.1377353
000110 0b 18 df 3d 6d 1a 12 3c a2 7e 57 bc 9f 2e 4a bd
       0.10893258 0.008917433 -0.01315275 -0.049360868
000120 03 c8 36 3c f9 3d 0f 3d d5 b5 0b 3c 88 99 36 bd
       0.011156085 0.03497121 0.008527239 -0.044580013
000130 43 2b b8 bd bb 7b 3d 3e ab 2b 6b bd 3a c5 36 bd
       -0.089926265 0.1850423 -0.057414692 -0.044621684
000140 6c d4 09 be 63 a2 12 3d 2d eb 99 bd 83 ce 22 be
       -0.13459939 0.035799395 -0.07515559 -0.1589909
000150 1f 81 cd bc 30 48 b7 3d 86 db 21 be 5d 25 8d 3c
       -0.025085984 0.089493155 -0.15806398 0.01722973
000160 a6 30 f0 bd a2 47 a6 b8 30 ec 81 bd 2e c2 aa 3d
       -0.11728029 -7.9288395e-05 -0.06343877 0.08337818
000170 1d 5c 80 be 51 ef 16 be aa 54 36 bc 5c c1 13 be
       -0.25070277 -0.1473973 -0.011128584 -0.1442923
000180 d0 71 ce bc e5 78 c6 3d 1e 2a 06 be bd 38 08 3e
       -0.025200754 0.096910276 -0.13102004 0.13302894
000190 37 67 e8 3d cb db 12 bd f1 78 95 bc cf 7b ae be
       0.11347812 -0.035854142 -0.018246146 -0.34078833
0001a0 58 4f 9d 3d c5 ac 27 3d 17 3f 86 3d 31 78 e5 3c
       0.07681149 0.04093625 0.06555002 0.028011413
0001b0 df d6 98 3d 67 dc 55 3d 83 58 26 3d 1a 99 9c 3d
       0.074628584 0.052212145 0.040611755 0.07646389
0001c0 25 f6 3e bd 6d cb 10 bd 9a 1b 96 3c 94 3a c8 bd
       -0.04662146 -0.035350252 0.018323708 -0.09776798
0001d0 60 d6 34 3d 1d b1 f7 3d 9e e9 4c bd 68 17 64 bd
       0.044149756 0.120943286 -0.050027482 -0.055686384
0001e0 7d ff 1c 3d e0 4c b9 3d 30 38 73 3b 8e 24 77 bd
       0.03832959 0.09047866 0.0037112348 -0.060337596
0001f0 22 0a 60 3d 6e 46 88 bc 7f 96 4d be d7 ea af bc
       0.054697163 -0.016635146 -0.20076941 -0.021474285
000200 67 bd 77 bd ab ac a1 3d 97 12 99 bd 26 69 07 bd
       -0.060483363 0.07894262 -0.07474249 -0.03305926
000210 a8 98 36 bd 6d e8 7a bd 80 00 f6 3d db f6 bd bd
       -0.044579178 -0.061256815 0.12011814 -0.092755996
000220 2a 6a 78 3c 07 86 b1 3d 44 9b d7 3d 32 65 18 3e
       0.01516203 0.08668142 0.105276614 0.14882353
000230 8e 5b d1 3d 1a a4 70 bd b9 4e 9c 3d a5 5d 01 3c
       0.10222541 -0.05875025 0.07632203 0.007895862
000240 6b b1 a9 bd 0a 15 2f be 85 c0 66 3c 8c 39 51 3c
       -0.08285793 -0.1709787 0.014083986 0.012770068
000250 56 ce 26 3c 77 88 28 3c 49 dc d4 bb 50 70 bc 3d
       0.01018103 0.010286442 -0.0064959866 0.092011094
000260 93 d9 94 bd d8 b0 29 3d 3e 01 0f bd 54 89 57 be
       -0.072680615 0.041428417 -0.034913294 -0.2104848
000270 6e 9c 89 3d 11 59 05 3e d4 a5 99 3d 34 b4 b6 3b
       0.0671929 0.13022257 0.07502332 0.005575681
000280 13 24 9c 3d 7a 23 89 3d ab fb 3d 3d 53 01 4d 3d
       0.07624068 0.0669622 0.046382587 0.05005009
000290 e1 f6 30 bd af 35 15 3d 21 15 ff bc 79 0a 76 bd
       -0.043204192 0.03642815 -0.031138005 -0.06006858
0002a0 80 81 82 3d 0c f4 4e 3a a5 79 fd bd d1 38 8d bd
       0.063723564 0.0007894642 -0.123767175 -0.068956025
0002b0 a2 91 08 3d ad 13 d1 3d 7e 51 c1 bd 84 d2 09 3e
       0.03334201 0.10208831 -0.094393715 0.13459212
0002c0 8f 57 8e bd 0a 0b 6b 3d 27 21 3b 3e 99 cd 87 bd
       -0.06950294 0.057383575 0.18274365 -0.066310115
0002d0 60 13 28 bc dc 62 96 bd ec c0 02 bd 6e b4 c2 bc
       -0.010258526 -0.07343075 -0.031922266 -0.023767676
0002e0 46 0b a9 3d ca 00 b1 3d aa ee f8 3d 9d ce bb bd
       0.08254103 0.086427286 0.121548966 -0.09170268
0002f0 a9 4f ab 3c 85 b9 1d 3d ed 54 06 be 34 29 c5 3d
       0.020912008 0.038507003 -0.13118334 0.096269995
000300 a9 e5 10 be fa 0c 2b be 47 f1 74 bd 5c df 0e 3e
       -0.14150108 -0.16704169 -0.059800413 0.13952392
000310 ff 30 f8 bd 2c 06 57 bc e5 f6 f6 3b 77 ec 4a 3d
       -0.1211872 -0.01312403 0.0075367563 0.049541917
000320 31 e0 de bc 0b 17 0f bd fd e1 9a bc 84 4c 26 3d
       -0.027206512 -0.034934085 -0.018906588 0.040600315
000330 b9 d7 9f 3d 64 14 38 be 9f ba 7e 3d b5 ae 15 3d
       0.07804818 -0.17976528 0.062189694 0.036543567
000340 74 c3 17 3e 7d ce b5 bc 45 da 91 3d 28 7d 2a 3e
       0.14820653 -0.022193188 0.0712171 0.16649306
000350 81 b1 05 3d 89 fc a4 bd 3b 0c 10 3e df 8e 0b bd
       0.032639984 -0.0805598 0.14067166 -0.0340718
000360 eb fb 07 3e 43 ff 15 3c d0 f2 46 3d 49 84 b2 bd
       0.13279693 0.009155097 0.048571408 -0.08716638
000370 54 df 72 3e 14 0b 24 3e 35 b0 05 3c cd eb 0b 3e
       0.23718005 0.16019851 0.008159687 0.1366417
000380 46 bb 9c 3c 3a 60 db bd 19 16 09 3e fc 82 e9 bd
       0.019132268 -0.10711713 0.13387336 -0.114019364
000390 07 73 be bd e6 76 4f 3d c8 14 f0 3c 36 6c ab 3e
       -0.092992835 0.0506505 0.029306784 0.33480996
0003a0 84 b2 91 bd d3 4e f4 bc 9b 2f b1 bd 37 99 fb bc
       -0.07114127 -0.029822743 -0.08651658 -0.030712707
0003b0 af 71 8c bd 62 95 89 bd 51 54 d8 bc fd f6 b7 bd
       -0.06857621 -0.06717946 -0.026407393 -0.08982656
0003c0 14 37 d4 3c a4 dc a0 3c 24 f1 17 bd a4 2a b6 3d
       0.02590517 0.01963646 -0.037095204 0.08894852
0003d0 ea 25 14 bd dd 86 f7 bd 49 c3 33 3d 97 01 73 3d
       -0.03616897 -0.1208627 0.04388741 0.059327688
0003e0 d8 19 37 bd ba 4a b1 bd da ac ed bc 91 d8 6b 3d
       -0.04470238 -0.08656831 -0.029013086 0.05757958
0003f0 a4 e4 8b bd 74 0f c8 3c 7f 25 61 3e 2b 21 10 3d
       -0.06830719 0.024421431 0.2198696 0.03518788

action_model._discrete_distribution.branches.4.bias f4 [2]
000000 41 f8 a3 be 3d f8 a3 3e
       -0.3202534 0.32025328

action_model._discrete_distribution.branches.4.weight f4 [2, 128]
000000 65 c1 4b bd 76 00 6f 3d d9 61 d9 bc 89 6b 65 be
       -0.049744982 0.05835005 -0.026535915 -0.22404303
000010 2f a1 1b bd 25 56 86 3c 04 c1 a5 bd 12 dc 98 3d
       -0.037995514 0.016398499 -0.080934554 0.0746385
000020 c3 54 ec 3c 6b 1f 39 3c 41 cd f3 3d 79 d2 5f 3d
       0.028849011 0.0112989945 0.119043835 0.05464408
000030 f1 73 7f 3d 3c df d6 3c cf 40 ef 3b 54 a7 2a 3e
       0.06236643 0.026229493 0.007301427 0.16665393
000040 54 98 cb 3d cf b6 30 3e 05 83 c5 3d d1 2f f9 bb
       0.09941164 0.17257236 0.096441306 -0.007604577
000050 4c ed 6e bd 9e b9 49 3e 62 15 f9 bc 05 5e 8d bd
       -0.058331773 0.19699714 -0.030405704 -0.069026984
000060 f0 79 92 bd 0c 4f da 3d e0 32 07 3d bf 4a f6 3d
       -0.07152164 0.10659608 0.033007503 0.120259754
000070 63 4d 41 bd d0 94 83 3d 52 b6 cd bd 80 d9 23 be
       -0.047192942 0.06424868 -0.100445405 -0.16000938
000080 7d 35 9a bd 88 7f 18 3e 41 ef 89 bd 9c af 09 be
       -0.07529733 0.148924 -0.06735087 -0.13445896
000090 98 af 81 bd 43 25 6a 3d 64 d6 57 bd de 4f 30 be
       -0.0633232 0.05716444 -0.052694693 -0.17217967
0000a0 9d 24 db bc 2c 8c 89 3e c0 51 a6 b9 0f 11 1e be
       -0.026750857 0.26864755 -0.00031722896 -0.15436195
0000b0 20 d9 98 bd 5a 32 3d 3e c4 4c d2 3c 3c 26 63 3e
       -0.07463288 0.18476239 0.02567137 0.22182554
0000c0 ef 8e 9e 3d d5 04 a6 bc 41 54 3b 3c 3a 78 87 3c
       0.07742106 -0.020265976 0.011433662 0.01653682
0000d0 d8 df be bd 66 d1 ab 3d f5 a9 0c 3e 70 52 db bd
       -0.093200386 0.08389549 0.13736708 -0.10709083
0000e0 2c c6 eb 3c eb 0a c9 bd 08 4f 89 bd 21 f6 8d 3e
       0.02878102 -0.098165356 -0.06704527 0.27726844
0000f0 3a b8 4e be b9 db e4 bd 50 ad 91 3e 3d cc bc bc
       -0.20187464 -0.11174721 0.2845254 -0.023046607
000100 8d 01 85 bd 2d a0 0f 3e c4 45 db 3d 08 5c 46 3d
       -0.064944364 0.14025946 0.10706666 0.04842761
000110 f6 fb 7d bd 4c 27 14 3e 3e 2f 34 3c d3 b0 2b bd
       -0.062007867 0.14468116 0.010997592 -0.04191668
000120 04 a0 7f 3b 1d 2a 44 3c 68 31 32 bd ca 48 1c be
       0.003900529 0.011972931 -0.04350415 -0.15262142
000130 ec 02 ef 3b 22 d5 44 bc d8 ce f1 3d 5d ca d0 bd
       0.0072940495 -0.012013705 0.118070304 -0.10194848
000140 10 ba db 3d 1a 75 d2 3d 8b e1 3c 3e f6 12 5b be
       0.10728848 0.102762416 0.18445413 -0.21393952
000150 57 59 60 bd 56 c3 7a 3d 92 ab b7 bd e8 52 3a 3e
       -0.0547727 0.061221443 -0.08968271 0.18195689
000160 88 17 1f 3d 34 18 76 3e 98 46 15 bd 9b b0 7b 3d
       0.0388408 0.2403267 -0.036444277 0.06144772
000170 4d f4 6c 3d ea 1c 0f 3b d1 60 f5 bd 61 62 08 3e
       0.05785017 0.0021837302 -0.11981357 0.13318779
000180 30 08 73 3d d4 b7 85 3e b3 32 a7 3c f9 eb 16 bc
       0.05933398 0.26116812 0.020409917 -0.009211534
000190 3a a1 c0 bd 4b d9 ec bd df 2f ee 3d 2d 06 89 3c
       -0.094057515 -0.11564883 0.116302244 0.016726578
0001a0 96 8b aa 3c 08 6e 29 3d 99 b8 0b 3e 77 e4 58 3e
       0.020818513 0.0413647 0.13644637 0.21180902
0001b0 98 d0 f8 3d 8a bf 88 bc dd f3 b2 bd ae b5 4e 3c
       0.12149161 -0.016692895 -0.087379195 0.012616558
0001c0 99 ce 0e be bc 0a 89 3d 60 cb 40 3e 28 87 94 3d
       -0.13945998 0.066915005 0.18827581 0.072523415
0001d0 32 0c c0 bc 8c 61 21 3c 30 22 07 be 7b 04 de 3c
       -0.023443315 0.009849917 -0.13196635 0.027101746
0001e0 3c 61 70 3e a6 85 79 be 13 fc 5a be 38 b4 8b 3d
       0.23474592 -0.24367389 -0.21385221 0.068214834
0001f0 d1 69 c2 3b 64 09 92 3d 2c cb f8 bc d2 43 d2 bd
       0.0059330245 0.07130697 -0.030370317 -0.10266842
000200 38 e2 03 3d e8 75 8e bd 5b 22 2c 3d 79 5b 6c 3e
       0.03219816 -0.069560826 0.04202495 0.23081769
000210 3a dd ff 3c 2c 39 45 bc 29 5f 8b 3d 77 de b4 bd
       0.031233419 -0.012037557 0.0680526 -0.08831494
000220 2b 47 3b bd 87 44 3d bb d6 15 f8 bd c1 90 4b bd
       -0.045722168 -0.0028879957 -0.1211354 -0.049698595
000230 f0 f1 5c bd 9c c5 8e bc 3c d6 8b bb cc 0a 26 be
       -0.053941667 -0.017428212 -0.004267482 -0.16215056
000240 6d 82 be bd be 11 37 be 79 bb c2 bd 25 05 aa bb
       -0.093022205 -0.17877862 -0.09508414 -0.0051886016
000250 af f9 80 3d 8f df 62 be 86 a3 fe 3c d1 d1 57 3d
       0.06297623 -0.22155593 0.031083833 0.05269033
000260 69 1e 82 3d b3 41 03 be 7f 9f e0 bc da a0 fd bd
       0.063534565 -0.12818031 -0.027419804 -0.123841956
000270 f2 a2 62 3d 80 8f ac bd 2a 3a ce 3d c1 f3 0a 3e
       0.055331178 -0.08425808 0.10069688 0.13569547
000280 7d 17 b7 3d ee a6 13 be c2 86 73 3d 47 b8 14 3e
       0.08940027 -0.14419147 0.059454687 0.14523421
000290 53 ea 3e 3d db 8f 71 bd 43 d7 3c 3d 0f 2c 21 3e
       0.046610188 -0.058975082 0.046103727 0.15739463
0002a0 a5 c9 69 3c bd c7 83 be d5 5b 4f 3a 35 ba 1d 3e
       0.014269267 -0.25738326 0.00079101074 0.15403064
0002b0 b8 57 82 3d 2a 5f 41 be 1b 23 4c bd f6 42 6a be
       0.06364387 -0.18883958 -0.049838167 -0.22877106
0002c0 9e 21 91 bd 10 f7 de 3c d9 67 9e bb 75 eb 21 bd
       -0.0708649 0.027217418 -0.004834157 -0.03953119
0002d0 14 62 b6 3d 87 02 d0 bd d7 3a 14 be c3 88 cf 3d
       0.08905426 -0.10156732 -0.1447557 0.10133507
0002e0 3d 97 5c bc 1f 41 b5 3d 69 1a 7e 3d e4 cf 98 be
       -0.013463792 0.088503115 0.062036905 -0.29846108
0002f0 27 3c 4d 3e 57 6d db 3d 4e ef 89 be 5c e4 7a 3c
       0.20042478 0.10714214 -0.26940387 0.015313234
000300 af bb 93 3d 15 d0 2e be fb 1b fb bd c3 b8 5a bd
       0.07213532 -0.17071564 -0.12261196 -0.05339886
000310 c7 b7 9a 3d 11 3f 1e be 83 8b de bc 4f 75 c8 3c
       0.07554584 -0.15453745 -0.027166134 0.02447
000320 dc 23 a3 3a df c8 dc 3a 25 f4 46 3d eb b4 14 3e
       0.00124466 0.0016844532 0.048572678 0.1452214
000330 4a 8e 5e ba cf 4e e4 3c 1c 9d ca bd a7 b5 af 3d
       -0.00084898307 0.02786961 -0.098932475 0.08579569
000340 60 17 e8 bd e2 ca ae bd 4e b0 47 be 43 c4 6b 3e
       -0.113325834 -0.085347906 -0.19500849 0.23024087
000350 e3 eb 72 3d 64 c8 4e bd ae 6b d2 3d 19 48 20 be
       0.05930699 -0.050484076 0.102744445 -0.15652503
000360 c0 14 25 bd 7e 3e 66 be 59 bb 10 3d 1c fb 7c bd
       -0.040302992 -0.22484776 0.03533492 -0.061762914
000370 5c 25 9e bd a7 d3 f9 bb d8 7a f4 3d bb 8b ff bd
       -0.077219695 -0.007624108 0.11937493 -0.12477823
000380 76 94 4f bd 49 df 8f be 29 db ad bc f1 45 f6 3b
       -0.050678693 -0.2810004 -0.021222668 0.007515662
000390 13 ee b1 3d 5c a6 ff 3d 6f 25 01 be 61 48 b8 bc
       0.08687987 0.124829024 -0.12611936 -0.02249545
0003a0 90 13 0b bd ca 93 ca bc c6 86 10 be be 67 4b be
       -0.033954203 -0.024728674 -0.14113912 -0.19863793
0003b0 f9 ad e5 bd 0b 93 b4 bb 9e 2d b8 3d de 76 a9 bb
       -0.11214823 -0.005510693 0.08993076 -0.005171641
0003c0 ac 2a 0f 3e dc c9 84 bd 4f 61 4f be 9d 07 7d bd
       0.13981122 -0.06483814 -0.20251964 -0.06177484
0003d0 dd 44 2d 3d e8 82 c4 3b 45 5b 04 3e b2 50 02 bd
       0.042302 0.0059970506 0.12925442 -0.03181524
0003e0 04 37 75 be 32 9a 70 3e 47 4b 3b 3e 8d 98 8b bd
       -0.23946768 0.23496321 0.18290435 -0.06816206
0003f0 d9 96 9d 39 46 ad 98 bd ae 0d ba 3c 63 b6 ae 3d
       0.00030057764 -0.07454924 0.022711601 0.08530881

discrete_action_output_shape f4 [1, 5]
000000 00 00 40 40 00 00 00 40 00 00 00 40 00 00 00 40
       3.0 2.0 2.0 2.0
000010 00 00 00 40
       2.0

network_body._body_endoder.seq_layers.0.bias f4 [128]
000000 f7 0b d2 bc 62 3d 8c bc 61 be 36 bd 61 2e 8b be
       -0.02564047 -0.017119113 -0.044615153 -0.27183822
000010 61 2d 77 39 64 6f 56 3d 86 3c dd bd 7f 04 cd bd
       0.0002357266 0.052352324 -0.108025596 -0.10010623
000020 fd c6 f4 bd 2a 40 bc bd d9 23 00 be 2c 30 0d be
       -0.119520165 -0.09191926 -0.12513675 -0.13787907
000030 dd 35 91 bc 3c b4 4a bd 32 a3 cb bd 18 eb ab 3d
       -0.01772588 -0.04948829 -0.099432364 0.0839445
000040 d9 fc ef 3c bc a6 c1 3d 35 80 af bd 77 d5 0a bd
       0.029295372 0.0945563 -0.085693754 -0.033894982
000050 e5 f1 15 bd 31 78 95 3d 60 84 8a bd 2f 0d 5a 3d
       -0.03660764 0.07298315 -0.0676353 0.05323523
000060 7f 59 04 3c 8b 8a 14 be 55 40 06 be 8a a3 25 be
       0.008077978 -0.14505975 -0.13110478 -0.16175666
000070 3f cf 69 bd 34 ca 11 be 23 74 fa bd 33 80 0d be
       -0.05708241 -0.1423729 -0.122291826 -0.13818435
000080 32 91 15 be 1c 4f ce 3d a5 57 d8 bc f3 00 dd bb
       -0.14606169 0.10073683 -0.02640898 -0.006744498
000090 73 ff 6b be 4d 07 05 be fc f2 d0 bd d4 0e 80 bd
       -0.23046665 -0.12991066 -0.102025956 -0.06252828
0000a0 88 54 df bd a0 03 2d be 2b fc 21 be a2 db ce bd
       -0.10904795 -0.16895914 -0.1581885 -0.101004854
0000b0 f1 22 ea bd eb 8c 1c be 28 d6 5c bc 9b 25 64 be
       -0.11432446 -0.15288131 -0.013478793 -0.2227997
0000c0 3a 79 17 be aa 2a 16 be 8e 1d 48 be e3 fa 49 bd
       -0.14792338 -0.14664713 -0.19542524 -0.04931153
0000d0 61 f1 79 3d 55 2e 8c bd d2 1d 30 3d c1 7f a5 be
       0.061021212 -0.06844775 0.04299719 -0.3232403
0000e0 37 20 cd 3c f6 50 63 bd 77 12 6c 3d 38 40 14 be
       0.025039775 -0.055497132 0.057634797 -0.14477623
0000f0 c6 a8 4a ba 22 57 6b be e8 57 08 be 6a 61 0e be
       -0.00077308377 -0.22982457 -0.13314784 -0.13904348
000100 05 17 bc bc 15 a8 8e 3c b1 c3 96 bd ef c0 1b 3d
       -0.022960195 0.017414132 -0.07361544 0.038025793
000110 ef 09 2a be 6c 19 e8 bd 4e d8 e4 3d 70 88 8e bc
       -0.16605352 -0.11332974 0.11174069 -0.017399043
000120 00 70 c0 bd 74 bd 2f 3c 81 0a db bd 7f 5e 3e bd
       -0.09396362 0.0107263215 -0.10695363 -0.046476837
000130 8a 39 92 bd f5 36 f3 bc 16 ac 52 bd 79 51 60 bd
       -0.07139881 -0.029689291 -0.051433645 -0.0547652
000140 06 8b 48 be a1 9c 4a be 3e bd 1d be 9e 5c 3a 3d
       -0.19584283 -0.19786312 -0.15404221 0.045498483
000150 46 c1 0a be b6 b5 f1 bb 36 3e 49 bd 53 f1 be 39
       -0.1355029 -0.007376398 -0.049131595 0.00036419425
000160 64 d5 01 be 85 e1 02 3d ea 73 84 bd fc 20 3e 3c
       -0.12679058 0.031953353 -0.06467421 0.011604544
000170 86 f6 2c be 22 33 db bd 8d ad 2b be 6a 2d 31 be
       -0.16890916 -0.10703112 -0.16765423 -0.1730248
000180 03 1f 9c bd 56 a8 f4 bd 62 a9 b3 3c 72 88 8e be
       -0.076231025 -0.1194617 0.021931354 -0.27838475
000190 bb 9f 8f 3d ea 17 30 3b 5a e8 45 bc 25 b1 41 bd
       0.07012888 0.0026869723 -0.012079323 -0.04728808
0001a0 85 5f 0d be ec 6d 2b 3c eb 8b 14 be 4b 10 0a be
       -0.13805969 0.010463219 -0.145065 -0.13482778
0001b0 af 0c 80 be f1 f2 31 bd 23 7f 69 be a7 fc 46 be
       -0.25009677 -0.043444578 -0.22802405 -0.19432317
0001c0 d8 16 0a 3e 65 42 83 bc ab 42 e0 bc 0a d2 6a bd
       0.13485277 -0.01602287 -0.02737554 -0.057329215
0001d0 cc 37 5f be ac 8b 6f be 68 75 2c b9 8c 59 24 be
       -0.21798629 -0.23393124 -0.00016446935 -0.16049784
0001e0 42 aa 0c be ed 28 73 3c 00 e9 07 be de 63 1e bd
       -0.13736823 0.0148413 -0.13272476 -0.03866946
0001f0 07 d4 0a be 6a ed 98 bd d4 9f bf bc 36 50 d4 bd
       -0.13557445 -0.07467158 -0.023391642 -0.103668615
