Assets/Brains/Brains 1/LearnFightStandard.onnx (onnx, 82205 bytes, 16 tensors)

action_model._continuous_distribution.log_sigma f4 [1, 2]
0.024902739 0.0364984
00000000: d400 cc3c 597f 153d

action_model._continuous_distribution.mu.bias f4 [2]
0.00440873 -0.003959203
00000000: 1c77 903b 34bc 81bb

action_model._continuous_distribution.mu.weight f4 [2, 128]
0.020782195 -0.010139957 -0.014018617 -0.014126627 -0.0038271626 -0.010742139 -0.0039597563 0.0073728035
-0.012673893 -0.001925575 -0.019279368 -0.020260086 0.0045223385 -0.014957256 -0.020242423 0.019952502
0.0016235712 0.0038072155 -0.005535551 -0.0037471598 -0.011670841 -0.01766399 -0.017783858 -0.0021593794
-0.0020144342 4.1530853e-05 -0.03650669 -0.009383651 -0.019364689 0.01774087 -0.0018727523 -0.039083198
-0.0126777515 0.019367307 -0.004188494 -0.0061268667 0.0083714295 0.02118756 -0.0049449313 -0.0060478677
-0.022906212 -0.008311905 -0.020976769 -0.0095046405 0.0021275529 0.00010822616 0.023700291 0.020767841
-0.006899678 0.006591439 0.019025756 -0.009288941 -0.010987394 0.020326182 -0.022430236 0.004152596
-0.04461608 -0.0051361094 -0.013669656 0.033418857 -0.0038567102 -0.039072417 -0.00727937 -0.011348204
0.008858339 -0.009253054 -0.0006301784 -0.0021958956 -0.017904678 -0.038316593 0.010151935 -0.02676063
0.040831044 0.0031294166 -0.0011057862 -0.029523652 -0.025318032 -0.0156858 0.021856183 -0.02085132
0.019990228 -0.0022455559 -0.0009040307 -0.02666588 -0.020846415 0.00072938064 0.016283201 0.004594673
-0.016081057 -0.024206214 -0.0056738723 0.022555051 0.029963262 0.0072069857 -0.0120741315 0.00032206406
-0.013562211 -0.014422628 0.058379587 -0.014972575 -0.024787731 0.02036023 -0.006718058 0.017427683
-0.009735233 0.015192285 -0.008079624 0.014448048 -0.01354961 0.02080834 0.03757166 0.011974897
0.041864164 -0.0085656475 -0.016969543 -0.009530135 0.004621903 0.044610206 -0.017828891 -0.002945568
-0.01626381 -0.015717182 0.022363253 -0.017654147 0.017926313 0.0044167982 0.023647547 -0.016632546
0.0145043265 0.006744133 -0.009314408 0.030254517 -0.0043688314 0.01620714 0.009402591 0.02179317
0.012383288 0.014828514 -0.015978351 0.007884335 0.025133442 0.010552537 0.002668153 -0.01820547
0.032697786 0.00723249 -0.026011927 -0.014911077 -0.011682082 0.00920933 -0.015843546 -0.0007011872
-0.003929715 -0.03789691 0.0051097204 0.002653706 0.009924529 -0.024403753 -0.020500978 0.019498605
0.0041082706 0.027352896 -0.009440371 -0.008903749 -0.011743226 0.025180943 0.021105776 0.022276636
-0.0070422865 -0.022032894 0.007029045 -0.017155102 -0.018324679 -0.012940374 0.009903745 0.00056573615
-0.0027101883 0.022701316 -0.007543846 -0.007380575 -0.007204994 -0.021250667 -0.007926159 0.011150017
-0.023159444 -0.005717804 0.011375889 -0.021419454 0.008983572 -0.008477631 -0.01778071 -0.012343862
0.03239601 0.014716967 0.0015100256 0.0057562687 0.0035205425 0.015956754 -0.00614959 -0.0038823856
0.0048886146 -0.020572212 0.035000194 0.033621427 -0.022191321 -0.033019383 -0.006040863 -0.009239406
-0.0066651064 0.027834881 -0.015678383 -0.011434247 -0.003936798 0.0069411523 0.025627658 -0.015537941
-0.010295118 0.019175434 -0.027907055 -0.03964833 -0.0065379203 0.0045628226 0.009205338 -0.008182536
0.02667805 -0.0068288064 0.010667988 -0.04013729 0.023497242 0.0227944 0.021840382 0.026718397
-0.031686988 0.06313699 -8.235957e-05 5.022864e-05 -0.011069211 -0.021893075 0.0052778567 -0.014786832
0.02654788 -0.002487662 -0.019539876 0.0010660829 0.008366116 -0.026599312 0.014588027 -0.0034604643
0.01762991 0.00010687953 -0.026972743 0.00065337267 0.0047868364 -0.007975187 0.004273163 -0.03356007
00000000: 6c3f aa3c 1022 26bc 57ae 65bc 5e73 67bc
00000010: 22d1 7abb ccff 2fbc d8c0 81bb 8f97 f13b
00000020: 29a6 4fbc 9363 fcba c4ef 9dbc 7bf8 a5bc
00000030: 2030 943b 470f 75bc 70d3 a5bc 6e73 a33c
00000040: 02ce d43a 7a82 793b 9163 b5bb e992 75bb
00000050: 0e37 3fbc 12b4 90bc 74af 91bc 6084 0dbb
00000060: 9904 04bb 6a31 2e38 0a88 15bd e3bd 19bc
00000070: b2a2 9ebc 4d55 913c 2477 f5ba b415 20bd
00000080: 58b6 4fbc 30a8 9e3c a23f 89bb e2c3 c8bb
00000090: 5228 093c 8991 ad3c 1709 a2bb 312d c6bb
000000a0: cfa5 bbbc a82e 08bc 79d7 abbc 5ab9 1bbc
000000b0: 6a6e 0b3b 7af7 e238 1d27 c23c 5221 aa3c
000000c0: b216 e2bb fffc d73b e7db 9b3c a430 18bc
000000d0: 7804 34bc 1883 a63c 9dbf b7bc 8012 883b
000000e0: 5abf 36bd cf4c a8bb b1f6 5fbc 36e2 083d
000000f0: dcc0 7cbb 660a 20bd c887 eebb d1ed 39bc
00000100: 9122 113c 1f9a 17bc 8e32 25ba 04e9 0fbb
00000110: d5ac 92bc dcf1 1cbd 4d54 263c 1c39 dbbc
00000120: 743e 273d e616 4d3b 07f0 90ba 96db f1bc
00000130: c367 cfbc 827f 80bc bd0b b33c 63d0 aabc
00000140: 8cc2 a33c 2d2a 13bb 79fc 6cba 6772 dabc
00000150: 1ac6 aabc e833 3f3a 5964 853c e98e 963b
00000160: 6cbc 83bc 1c4c c6bc e4eb b9bb 5fc5 b83c
00000170: 8475 f53c 9428 ec3b 94d2 45bc b5da a839
00000180: 0934 5ebc e34c 6cbc 6f1f 6f3d 884f 75bc
00000190: a40f cbbc 7fca a63c 2823 dcbb 80c4 8e3c
000001a0: 8780 1fbc 10e9 783c 6660 04bc 81b7 6c3c
000001b0: 2fff 5dbc 4076 aa3c bee4 193d 5c32 443c
000001c0: c279 2b3d ee56 0cbc b603 8bbc 4924 1cbc
000001d0: 5573 973b 31b9 363d e50d 92bc 6e0a 41bb
000001e0: af3b 85bc 52c1 80bc 2433 b73c 6e9f 90bc
000001f0: 34da 923c caba 903b 80b8 c13c fa40 88bc
00000200: 8ea3 6d3c e3fd dc3b 759b 18bc 52d8 f73c
00000210: 6a28 8fbb d6c4 843c 530d 1a3c 9787 b23c
00000220: 46e3 4a3c 4cf3 723c 08e5 82bc 4c2d 013c
00000230: a6e4 cd3c 8ce4 2c3c 2edc 2e3b a323 95bc
00000240: 1dee 053d 86fe ec3b f716 d5bc 974d 74bc
00000250: 3466 3fbc bbe2 163c 53ca 81bc e0cf 37ba
00000260: d7c4 80bb ca39 1bbd 716f a73b cce9 2d3b
00000270: 7e9a 223c 61ea c7bc abf1 a7bc 8abb 9f3c
00000280: ac9e 863b 2e13 e03c c9ab 1abc 08e1 11bc
00000290: a966 40bc 4448 ce3c 05e6 ac3c 7e7d b63c
000002a0: fbc2 e6bb 547e b4bc e753 e63b db88 8cbc
000002b0: a31d 96bc dd03 54bc 5143 223c e94d 143a
000002c0: 6a9d 31bb 1cf8 b93c 5e32 f7bb c0d8 f1bb
000002d0: df17 ecbb e115 aebc b8dc 01bc 90ae 363c
000002e0: e0b8 bdbc 6b5c bbbb f061 3a3c da77 afbc
000002f0: d52f 133c c3e5 0abc daa8 91bc e93d 4abc
00000300: aeb1 043d 6f1f 713c 0dec c53a 159f bc3b
00000310: e7b8 663b bdb7 823c 8082 c9bb 9f6f 7ebb
00000320: ac30 a03b 0e87 a8bc 5d5c 0f3d 9fb6 093d
00000330: 93ca b5bc 553f 07bd 6ff2 c5bb e160 17bc
00000340: f766 dabb fa05 e43c f46f 80bc b556 3bbc
00000350: 4100 81bb 9b72 e33b 18f1 d13c d992 7ebc
00000360: dbac 28bc cd15 9d3c 569d e4bc 4a66 22bd
00000370: 0d3c d6bb bb83 953b fcd1 163c 0b10 06bc
00000380: ed8b da3c 2ec4 dfbb c9c8 2e3c 0067 24bd
00000390: 4a7d c03c 52bb ba3c 9aea b23c 8ae0 da3c
000003a0: 37ca 01bd f74d 813d 75b8 acb8 97ac 5238
000003b0: a35b 35bc 1b59 b3bc dff1 ac3b 7844 72bc
000003c0: f17a d93c 0b08 23bb 1712 a0bc cebb 8b3a
000003d0: 0912 093c cde6 d9bc 9f02 6f3c f5c8 62bb
000003e0: 9a6c 903c 8324 e038 f1f5 dcbc 1947 2b3a
000003f0: e5da 9c3b 5caa 02bc e405 8c3b 4976 09bd

action_model._discrete_distribution.branches.0.bias f4 [3]
-0.009847924 0.0017140891 0.008820209
00000000: 3059 21bc 49ab e03a a382 103c

action_model._discrete_distribution.branches.0.weight f4 [3, 128]
0.0038826184 -0.020644791 -0.010498907 -0.008647823 -0.006912981 0.006515597 0.00065430754 0.0051823948
0.04519021 0.020810064 -0.00055628055 0.0072238115 0.019986812 0.012113782 -0.02416035 0.015833829
0.0018052254 -0.011243508 -0.00396198 0.005481137 -0.0038494475 -0.009063662 0.0030395405 -0.017382499
-0.0034426153 0.017794218 0.00014862603 -0.015461659 0.0010395012 0.0055080308 -0.0022457645 0.00041999985
0.0155901555 -0.004311003 -0.033114307 0.015598338 0.023667064 0.0007545785 -0.018444424 0.0003712314
-0.0057090074 0.0023633344 -0.003955095 -0.037598502 -0.007082464 0.0011089592 0.020066379 -0.019004175
-0.020851063 0.005322834 0.007715496 -0.039577466 0.022486776 -0.01303208 -0.005563733 -0.0023424432
0.005891433 0.010017784 -0.018040728 0.015106553 -0.003900292 0.008475863 -0.008721274 0.0053513087
-0.0027774961 -0.033117913 -0.02660498 0.009050026 0.0014585452 -0.011088309 0.009395678 -0.0007047745
-0.00540877 -0.020433335 0.029687269 -0.034243327 0.0017755829 -0.00022165579 -0.004088984 0.005662018
0.015052115 0.005015912 -0.00087664585 -0.016309068 0.008535468 -0.02062611 -0.010619458 0.014526878
-0.016695216 0.013720284 0.020321866 -0.00035305347 -0.0019150792 -0.016690956 0.00760959 0.02184575
0.016652329 -0.014270188 0.0041641686 0.021958001 0.004402307 0.0034862582 -0.0191965 0.014230083
-0.016538978 0.028021198 0.033480927 -0.01896903 -0.025218768 -0.02661638 0.0062468494 -0.0106825605
0.008835096 0.021480383 -0.015275783 0.0015622753 -0.0010921634 -0.02098921 -0.012795261 -0.029509794
0.006935042 -0.005392427 -0.0028345732 0.011459214 -0.018180681 -0.013153854 -0.0024285326 0.023625039
-0.00035347915 -0.009870586 0.003384653 0.009445994 0.0032940265 0.013315325 -0.02784201 -0.003761063
-0.011782535 0.0018882978 -0.0027198948 -0.009306523 -0.0100925295 0.0026875753 -0.001361971 0.0029022763
0.0029821103 -0.0028813593 0.00814389 -0.017225824 0.0058433567 -0.015936038 0.011820064 -0.00041298833
-0.0016221084 -0.0065737762 0.013982303 -0.003320182 0.001202527 0.014111886 0.0042461306 0.0150272725
0.012419876 -0.006451941 0.0079251425 0.00017018919 -0.0198464 0.029892039 0.006112869 0.009087227
0.017877057 -0.00022461986 0.0051410873 0.014122607 -0.0024019415 0.016421735 -0.012984199 -0.00010209675
0.005483823 0.0068112914 -0.0039528063 0.016105006 0.0007704917 -0.0016004007 0.0016141138 -0.0048004165
-0.01455335 -0.0061983136 0.009263924 0.003476884 0.004126206 0.0025143719 0.010433556 0.00638445
0.02250599 0.0049415813 0.012568239 -0.008840094 0.016430698 -0.010620001 -0.0175935 -0.004648564
0.014341207 0.006184944 0.003049014 0.0027521902 0.012356074 0.011470892 0.00038249782 0.016580509
-0.013101769 -0.0051830853 0.016979499 0.0032214401 0.00501011 0.013555025 0.0004559492 0.009005044
-0.0056754076 0.0036683301 -0.00859534 0.018691476 0.0033543578 0.0048438073 -0.009464605 0.0015515713
-0.0005019852 -0.016894834 0.0015998166 -0.02809738 0.00046307896 -0.009212818 0.0035686726 -0.0016786158
-0.010056009 -0.005610154 -0.022418888 0.0033612014 0.016292784 -0.00093960017 -0.0019003922 -0.0002638141
0.0011013623 0.011402014 -0.013962647 -0.02572696 -0.01502336 0.01367817 -0.0054951105 0.011317875
-0.012504569 -0.002032058 0.01722028 -0.0072660632 -0.008704425 -0.017889936 -0.0027826342 0.012627168
00000000: 8773 7e3b 441f a9bc 9c03 2cbc 99af 0dbc
00000010: 4a86 e2bb ca80 d53b d685 2b3a 14d1 a93b
00000020: 5f19 393d de79 aa3c 5bd3 11ba b9b5 ec3b
00000030: 62bb a33c e278 463c edeb c5bc f2b5 813c
00000040: 509d ec3a b136 38bc 7fd3 81bb 1c9b b33b
00000050: 0347 7cbb c17f 14bc 0733 473b be65 8ebc
00000060: 809d 61bb 2ec5 913c 7fd8 1b39 e652 7dbc
00000070: df3f 883a b67c b43b ad2d 13bb 6d33 dc39
00000080: da6d 7f3c 5043 8dbb dea2 07bd 2c90 7f3c
00000090: 6ee1 c13c e8ce 453a c318 97bc d6a1 c239
000000a0: a012 bbbb 2ce2 1a3b be99 81bb e300 1abd
000000b0: 0414 e8bb 7f5a 913a 3f62 a43c a5ae 9bbc
000000c0: d9cf aabc 2b6b ae3b 45d2 fc3b fb1b 22bd
000000d0: 3036 b83c 8184 55bc fa4f b6bb ad83 19bb
000000e0: ec0c c13b a221 243c 26ca 93bc 7a81 773c
000000f0: 0b9c 7fbb 59de 0a3c ade3 0ebc 085a af3b
00000100: a706 36bb a6a6 07bd b0f2 d9bc 8f46 143c
00000110: a82c bf3a bdab 35bc 54f0 193c 9ec0 38ba
00000120: 0d3c b1bb cf63 a7bc b732 f33c bb42 0cbd
00000130: adba e83a 466c 68b9 e2fc 85bb 7388 b93b
00000140: 259d 763c 855c a43b b5ce 65ba 989a 85bc
00000150: 59d8 0b3c 16f8 a8bc 3cfd 2dbc 2402 6e3c
00000160: 68c4 88bc 0bcb 603c 0b7a a63c 091a b9b9
00000170: 6503 fbba 79bb 88bc de59 f93b dcf5 b23c
00000180: 776a 883c 82cd 69bc 9473 883b 44e1 b33c
00000190: 3a41 903b b579 643b fa41 9dbc 4b25 693c
000001a0: c07c 87bc b68c e53c 4c23 093d f064 9bbc
000001b0: 9797 cebc 980a dabc 5fb2 cc3b e805 2fbc
000001c0: 14c1 103c a1f7 af3c 4747 7abc 43c5 cc3a
000001d0: ec26 8fba 90f1 abbc 37a3 51bc 86be f1bc
000001e0: 593f e33b f5b2 b0bb 3fc4 39bb 6dbf 3b3c
000001f0: a7ef 94bc 4383 57bc 0428 1fbb 4c89 c13c
00000200: 2b53 b9b9 3db8 21bc 0ed1 5d3b 5fc3 1a3c
00000210: 98e0 573b 8528 5a3c ed14 e4bc 2b7c 76bb
00000220: 890b 41bc c380 f73a 4340 32bb 637a 18bc
00000230: 235b 25bc 0822 303b 2a84 b2ba 1e34 3e3b
00000240: 826f 433b 30d5 3cbb f36d 053c 2c1d 8dbc
00000250: a179 bf3b 4b8c 82bc f1a8 413c 5b86 d8b9
00000260: ed9c d4ba d568 d7bb 0816 653c 6997 59bb
00000270: 1c9e 9d3a 8a35 673c 2023 8b3b f334 763c
00000280: bc7c 4b3c ce6a d3bb 75d8 013c d074 3239
00000290: eb94 a2bc 26e0 f43c 764e c83b 98e2 143c
000002a0: e872 923c ef87 6bb9 9176 a83b 8262 673c
000002b0: e469 1dbb e086 863c aebb 54bc c61c d6b8
000002c0: a4b1 b33b 4131 df3b 8b86 81bb a5ee 833c
000002d0: d3fa 493a 89c4 d1ba ac90 d33a d04c 9dbb
000002e0: 2d71 6ebc 391b cbbb b7c7 173c 6fdc 633b
000002f0: 2035 873b 29c8 243b 81f1 2a3c a634 d13b
00000300: 7b5e b83c fdec a13b 04eb 4d3c 0bd6 10bc
00000310: ac99 863c 83ff 2dbc 3e20 90bc fb52 98bb
00000320: 62f7 6a3c 12ab ca3b f7d1 473b 175e 343b
00000330: 2171 4a3c 68f0 3b3c fd89 c839 d9d3 873c
00000340: cda8 56bc dfd6 a9bb 9718 8b3c cc1e 533b
00000350: d92b a43b e515 5e3c 770c ef39 e489 133c
00000360: c5f8 b9bb 5e68 703b 78d3 0cbc de1e 993c
00000370: c9d4 5b3b cdb8 9e3b 6e11 1bbc 185e cb3a
00000380: a897 03ba 0967 8abc f0b0 d13a 7a2c e6bc
00000390: 68c9 f239 5cf1 16bc 64e0 693b 0005 dcba
000003a0: f5c1 24bc 62d5 b7bb d1a7 b7bc 9a47 5c3b
000003b0: 7278 853c 804f 76ba 9516 f9ba 8750 8ab9
000003c0: 965b 903a 83cf 3a3c 96c3 64bc 58c1 d2bc
000003d0: 8a24 76bc 671a 603c 5410 b4bb 9c6e 393c
000003e0: f7df 4cbc 472c 05bb 8b11 8d3c 2818 eebb
000003f0: 019d 0ebc ea8d 92bc db5c 36bb 2ee2 4e3c

action_model._discrete_distribution.branches.1.bias f4 [2]
0.025718058 -0.025718056
00000000: adae d23c acae d2bc

action_model._discrete_distribution.branches.1.weight f4 [2, 128]
0.006066771 -0.01690169 0.018560344 0.009093243 0.010108205 0.019438358 -0.008882774 0.0034929167
-0.047107875 -0.0018905159 -0.0044337166 0.033288833 -0.0038946914 -0.008232367 0.004422636 0.010768299
0.023829076 0.0046164645 -0.023591504 -0.01277123 0.013810164 0.010416886 0.016530383 0.0017009999
0.007331229 -0.0040079234 0.0052099014 0.037994538 0.0010073781 0.05552652 0.011519371 0.009747727
-0.008053178 0.003977929 0.00059385784 0.08200075 0.007456292 0.002981504 0.0030688252 -0.05389195
-0.027491013 -0.018110642 -0.00012668749 -0.011465771 0.022560637 0.022468219 0.043083757 0.022888863
0.022016957 0.0053346423 0.0063327346 0.0008383297 0.019341093 -0.01769981 -0.003926088 -0.005015269
-0.013408265 -0.026910434 0.00623646 0.044925 0.0054558557 0.007026508 0.018644731 0.022266071
0.01808577 -0.023798378 -0.00581036 0.013931518 0.00998193 -0.02118472 0.03161959 0.007857261
-0.0015548154 0.0061023673 -0.04375567 -0.01436558 0.055533163 0.008205857 0.00082318316 -0.009047828
-0.006937768 0.026047857 0.0044181687 -0.0001600353 0.017090311 -0.01541938 0.0039614593 -0.0035574518
0.0059516584 0.0022805762 -0.016962612 -0.0048185517 -0.01973286 0.008551678 0.0007696865 -0.00108025
-0.0038528661 0.000254642 0.013330506 -0.0057769073 0.020724295 -0.014291231 0.0052183126 -0.021619929
0.011907521 -0.071021885 -0.023637883 0.0020263907 0.016730329 0.01279605 0.0445227 0.025791142
0.0016864003 -0.02347262 -0.009120797 0.01572557 -0.015491079 -0.021466078 0.016626243 0.0015455143
-0.025763556 0.008790046 0.0050519076 -0.026199348 0.0029163482 -0.011054783 0.022846675 -0.025293734
-0.008926857 0.032152135 -0.019633133 0.0024664581 0.005481254 -0.022071598 0.0017361648 -0.027673759
0.059404362 0.0016366773 -0.0021379394 -0.034127444 0.0018592259 0.015408043 -0.008342738 -0.012192971
-0.013820459 -0.012180793 0.016033333 0.0013926192 -0.0077791833 -0.0121940235 -0.022460848 0.011949214
-0.009306427 -0.0003549802 0.009416299 -0.030835753 -0.0057004187 -0.07841772 -0.015402112 0.01168385
0.0031961286 0.0023530843 -0.010722054 -0.06155272 -0.017381193 -0.008299479 0.023870967 0.058381528
0.009838156 0.0071726106 -0.010181048 0.0051579755 0.003019258 0.005249836 -0.0363091 0.0011757078
-0.008825536 -0.009903955 -0.03014543 -0.011300447 -0.010247331 0.025784759 -0.0015239409 0.013013436
0.017899865 0.030619545 0.012680305 -0.06301228 0.0045468444 0.00286416 0.007926577 -0.028384032
-0.00052631577 0.017358487 0.009469689 -0.0152404355 -0.02170584 0.017716754 -0.032156933 0.012108728
0.0013465041 -0.0050663566 0.04035174 0.015310067 -0.050593734 -0.014026939 -0.012061021 0.011668944
0.017798025 -0.00789125 -0.0071412874 -0.009249514 -0.041848693 -0.0007181467 -0.0091345385 0.010508285
-0.018348321 0.00846632 0.006015704 0.009729416 0.019294703 -0.0056744893 0.0018726146 0.033664234
0.009568935 -0.010485511 -0.015357773 -0.005782041 -0.0058710612 0.015000668 -0.00077942136 0.0044944105
-0.0032235412 0.06404407 0.0115725435 0.0026500432 -0.027616464 -0.016773956 -0.033957392 0.0037919856
-0.006900649 0.01744931 -0.0052112867 -0.0031252408 0.020764327 0.019034829 -0.014604688 0.0054773376
0.022582063 -0.01432594 0.013045214 0.022410335 -0.02841192 -0.0012773398 -0.014146268 0.021013433
00000000: c4cb c63b 6a75 8abc dd0b 983c d3fb 143c
00000010: e29c 253c 313d 9f3c 0e89 11bc 6be9 643b
00000020: 30f4 40bd 30cb f7ba b648 91bb df59 083d
00000030: 143e 7fbb 0de1 06bc c2eb 903b 856d 303c
00000040: 3235 c33c b645 973b f842 c1bc 6c3e 51bc
00000050: 0744 623c 96ab 2a3c ba6a 873c 16f4 de3a
00000060: ce3a f03b e654 83bb d2b7 aa3b 29a0 1b3d
00000070: 000a 843a c76f 633d bebb 3c3c eeb4 1f3c
00000080: 7af1 03bc 4959 823b 20ad 1b3a 02f0 a73d
00000090: e953 f43b 5665 433b 581e 493b cebd 5cbd
000000a0: d534 e1bc c55c 94bc 6ad7 04b9 eeda 3bbc
000000b0: 16d1 b83c 450f b83c 9878 303d 6d81 bb3c
000000c0: e85c b43c 39ce ae3b d482 cf3b 5bc3 5b3a
000000d0: 3671 9e3c 31ff 90bc 6aa6 80bb 2057 a4bb
000000e0: 57ae 5bbc 4573 dcbc 385b cc3b 4703 383d
000000f0: 09c7 b23b 9f3e e63b d6bc 983c 5667 b63c
00000100: 9c28 943c d1f4 c2bc d564 bebb 0641 643c
00000110: 408b 233c 948b adbc 8b83 013d bebb 003c
00000120: f3ca cbba 5ef6 c73b 2539 33bd 9c5d 6bbc
00000130: be76 633d dc71 063c e3ca 573a 573d 14bc
00000140: 3756 e3bb 5162 d53c 49c6 903b 26cf 27b9
00000150: fb00 8c3c 91a1 7cbc 21cf 813b 2324 69bb
00000160: 2106 c33b b875 153b 2df5 8abc f1e4 9dbb
00000170: cfa6 a1bc 561c 0c3c c9c4 493a 2d97 8dba
00000180: 5e80 7cbb 7881 8539 3268 5a3c 364c bdbb
00000190: ffc5 a93c c425 6abc 61fe aa3b 471c b1bc
000001a0: c317 433c ec73 91bd 3ca4 c1bc 32cd 043b
000001b0: 0b0e 893c 86a6 513c 6f5d 363d f247 d33c
000001c0: 340a dd3a a749 c0bc 656f 15bc e9d2 803c
000001d0: 4bce 7dbc a1d9 afbc c233 883c db92 ca3a
000001e0: 180e d3bc 2004 103c 798a a53b 04a0 d6bc
000001f0: 3420 3f3b 1f1f 35bc f328 bb3c ce34 cfbc
00000200: f441 12bc f5b1 033d aad5 a0bc 4da4 213b
00000210: 179c b33b 7fcf b4bc 0690 e33a 14b4 e2bc
00000220: fd51 733d c785 d63a ac1c 0cbb 38c9 0bbd
00000230: 45b1 f33a 0472 7c3c fbaf 08bc 07c5 47bc
00000240: 356f 62bc f391 47bc 5658 833c 8c88 b63a
00000250: 85e8 febb 71c9 47bc d0ff b7bc a3c6 433c
00000260: fc79 18bc a31c bab9 d246 1a3c 439b fcbc
00000270: 94ca babb 7899 a0bd 2459 7cbc 9e6d 3f3c
00000280: 2476 513b 3436 1a3b 8eab 2fbc b41e 7cbd
00000290: 0163 8ebc 8afa 07bc 0c8d c33c 7821 6f3d
000002a0: 3830 213c 3808 eb3b 69ce 26bc 3c04 a93b
000002b0: bede 453b d106 ac3b dab8 14bd 351a 9a3a
000002c0: fb98 10bc 3344 22bc 8cf3 f6bc 8325 39bc
000002d0: 6ce4 27bc 8f3a d33c f9be c7ba 4f36 553c
000002e0: bda2 923c d7d5 fa3c 0ec1 4f3c 950c 81bd
000002f0: b2fd 943b a2b4 3b3b 79de 013c a185 e8bc
00000300: 74f8 09ba 6333 8e3c c126 1b3c 05b3 79bc
00000310: 72d0 b1bc ba22 913c fdb6 03bd b063 463c
00000320: 2e7d b03a ae03 a6bb de47 253d 13d7 7a3c
00000330: 603b 4fbd 3fd1 65bc 979b 45bc 192f 3f3c
00000340: 2acd 913c 4d4a 01bc 7601 eabb 468b 17bc
00000350: 8969 2bbd 0242 3cba 08a9 15bc f12a 2c3c
00000360: 384f 96bc 52b6 0a3c 621f c53b 2168 1f3c
00000370: ed0f 9e3c 11f1 b9bb 8572 f53a 82e3 093d
00000380: 06c7 1c3c 6ccb 2bbc 2b9f 7bbc 4677 bdbb
00000390: 0862 c0bb 5dc5 753c 1552 4cba d945 933b
000003a0: 0c42 53bb 8a29 833d c49a 3d3c 59ac 2d3b
000003b0: ec3b e2bc 8969 89bc e816 0bbd f682 783b
000003c0: d71e e2bb dbf1 8e3c 71c3 aabb d7d0 4cbb
000003d0: f319 aa3c eeee 9b3c 8048 6fbc 3d7b b33b
000003e0: 05fe b83c 59b7 6abc 98bb 553c e195 b73c
000003f0: 1dc0 e8bc 696c a7ba c0c5 67bc 5d24 ac3c

action_model._discrete_distribution.branches.2.bias f4 [2]
-0.021524444 0.02152445
00000000: 0854 b0bc 0b54 b03c

action_model._discrete_distribution.branches.2.weight f4 [2, 128]
0.00020817651 -0.0053453096 -0.0031401962 0.0112089915 -0.0039607356 -0.017846819 0.004383499 0.0013010788
0.020956391 0.016097296 0.0023031211 -0.008067087 -0.0002727883 0.012455363 -0.0055275103 0.012857331
0.013627584 -0.009225024 0.007409005 0.0017112945 -0.0043406533 -0.0118178595 0.009607577 0.00068765425
0.0069277883 0.01162707 0.0020869342 -0.020329949 0.018435067 -0.012963102 -0.012099037 -0.008276209
0.015538333 -0.0075120972 -0.0041094227 0.0054319636 -0.012078874 0.008268097 -0.0021403863 0.04214862
0.0019741715 -0.0026804407 0.009398576 -0.002014911 0.00724263 0.008071247 -0.03927437 -0.0061631496
-0.015978238 0.008211782 -0.011655855 0.004719288 0.0004593433 -0.0015494917 0.0024804897 0.013900393
0.014687347 0.020992355 0.007873354 -0.020980068 -0.010595182 -0.0066369027 0.005403884 -0.003073045
0.0054079974 0.0030509413 -0.018265998 0.008153036 -0.017678343 -0.012611839 -0.019682523 -0.013861669
0.000881588 0.004591767 0.029833717 0.001977641 -0.008854992 0.0037832144 -0.010341002 0.011182871
-0.0020495914 0.01680037 0.0038030115 -0.006322133 -0.0069914614 -0.011142435 -0.027733397 -0.001694543
-0.0021354684 -0.0003916922 0.0011110384 0.017579356 0.00030414396 0.011876656 0.014057982 0.004034232
-0.008627757 0.006513165 0.011699583 -0.0038655326 -0.00081991503 0.017313845 -0.0010122713 -0.0019803944
-0.012039861 0.052595794 0.003068276 -0.0021956337 -0.010543669 0.00088621833 -0.010558875 0.0015319611
0.020739907 0.01198257 0.011877311 -0.017589903 -0.007720423 -0.018037533 0.0077616763 -0.020008026
0.012050916 -0.010847412 0.012943286 -0.006564834 0.007768012 -0.011709673 0.007323053 0.01528413
-0.002634841 -0.0049661086 0.0022859569 0.001896282 0.015472963 -0.010328498 0.00023498891 0.0031288986
0.004090722 -0.00269361 0.010000057 0.00585524 -0.0059300195 0.0011937874 0.013481283 0.004977377
0.0069751292 0.0057956637 4.895519e-06 -0.0041416315 0.0069774007 0.018662885 0.010460852 -0.010441046
-0.0027412865 -0.009948978 0.0076151616 0.014473843 0.008105955 0.020833382 -0.0042692027 0.007392566
-0.009456899 0.015579251 -0.005669765 0.016923284 -0.005348886 0.0017791748 0.014366056 -0.033363648
-0.004339192 -0.0131266 0.014764901 -0.0014556079 -0.009784016 0.002005111 0.015399616 0.007492751
0.0056921165 0.0046217404 0.017923482 -0.008736629 0.004812131 -0.0061284825 0.00888319 -0.007462462
-0.0020056893 -0.01950002 0.006258578 0.02620413 -0.0037480346 -0.011132452 0.0055342666 0.028578768
-0.006920424 0.0020293908 0.021175766 -0.003167837 -0.0040829726 -0.007888324 0.014012517 0.02104938
0.0037662173 -0.004740807 -0.021398565 0.014294188 0.027818909 -0.0012639958 0.010271982 0.009759512
0.009376627 -0.0037471242 -0.0075153047 -0.0022148704 0.014386895 -0.008908412 0.013934655 0.011116918
-0.0009831494 -0.0002701241 6.247716e-05 -0.015024788 0.0058399444 -0.015079249 0.0060266056 -0.01048454
-0.0014608055 0.012834773 0.0037137007 -0.0043856003 0.00874806 -0.022638861 0.0069109458 0.003608505
0.00081852975 -0.04388711 -0.004258396 0.008430429 0.016106902 0.0016587826 0.009367897 0.011935892
-0.0026742353 0.0073007527 0.019193282 0.0103486525 0.00036165147 0.010224198 -0.009741123 0.012045994
-0.00982388 -0.0035504191 -0.004662209 -0.020813059 -0.00014703421 0.0032800995 0.0027226207 -0.003840436
00000000: f549 5a39 b527 afbb c0cb 4dbb eba5 373c
00000010: 0fc9 81bb 7e33 92bc 74a3 8f3b f688 aa3a
00000020: bdac ab3c 7ade 833c f6ef 163b d12b 04bc
00000030: 0705 8fb9 9411 4c3c 1e20 b5bb 8ea7 523c
00000040: 3b46 5f3c 8e24 17bc 3dc7 f23b 844d e03a
00000050: 0a3c 8ebb b29f 41bc 1969 1d3c b243 343a
00000060: 8002 e33b 777f 3e3c f2c4 083b fe8a a6bc
00000070: 2305 973c 3163 54bc 0a3b 46bc f098 07bc
00000080: 7e94 7e3c 0a28 f6bb 56a8 86bb 9dfe b13b
00000090: 78e6 45bc ea76 073c b945 0cbb 08a4 2c3d
000000a0: 1a61 013b 55aa 2fbb 7cfc 193c 990c 04bb
000000b0: 9553 ed3b 433d 043c 29de 20bd 3ff4 c9bb
000000c0: cbe4 82bc b68a 063c 33f8 3ebc 42a4 9a3b
000000d0: 04d4 f039 5018 cbba b68f 223b 79be 633c
000000e0: 33a3 703c 29f8 ab3c 3dff 003c 64de abbc
000000f0: 6a97 2dbc 607a d9bb 1113 b13b 2465 49bb
00000100: 9235 b13b 4df2 473b 93a2 95bc 5094 053c
00000110: 2cd2 90bc e3a1 4ebc 3e3d a1bc 0e1c 63bc
00000120: 5f1a 673a 8976 963b d765 f43c 4f9b 013b
00000130: 8714 11bc ceef 773b 4e6d 29bc 5c38 373c
00000140: 7052 06bb eea0 893c f23b 793b e529 cfbb
00000150: a118 e5bb c28e 36bc 2631 e3bc 6e1b deba
00000160: 37f3 0bbb 0a5c cdb9 43a0 913a 9502 903c
00000170: 8375 9f39 4e96 423c 7353 663c 9731 843b
00000180: 705b 0dbc 636c d53b 9caf 3f3c e054 7dbb
00000190: 91ef 56ba c4d5 8d3c 30ae 84ba 81c9 01bb
000001a0: d642 45bc b06e 573d 2115 493b 9fe4 0fbb
000001b0: 5abf 2cbc 1b51 683a 22ff 2cbc 16cc c83a
000001c0: bde6 a93c 8b52 443c 0e99 423c b318 90bc
000001d0: 9afb fcbb 73c3 93bc a955 fe3b dfe7 a3bc
000001e0: 3571 453c 58b9 31bc 1410 543c d21d d7bb
000001f0: cf8a fe3b eed9 3fbc 39f6 ef3b 4a6a 7a3c
00000200: 4cad 2cbb bdba a2bb fecf 153b aa8c f83a
00000210: 5082 7d3c dc38 29bc 5b67 7639 350e 4d3b
00000220: 770b 863b 4787 30bb 47d7 233c 50dd bf3b
00000230: 9c50 c2bb dc78 9c3a 99e0 5c3c 4419 a33b
00000240: a08f e43b 8de9 bd3b 3044 a436 86b6 87bb
00000250: aea2 e43b e8e2 983c fe63 2b3c ec10 2bbc
00000260: 28a7 33bb 0a01 23bc 9b88 f93b b323 6d3c
00000270: d7ce 043c c5aa aa3c abe4 8bbb 573d f23b
00000280: 1cf1 1abc 1d40 7f3c 70c9 b9bb b3a2 8a3c
00000290: b545 afbb 3333 e93a 9b5f 6b3c 52a8 08bd
000002a0: c82f 8ebb f310 57bc 7ce8 713c 19ca beba
000002b0: 234d 20bc 2e68 033b ac4e 7c3c c085 f53b
000002c0: ef84 ba3b f871 973b 44d4 923c 1424 0fbc
000002d0: 15af 9d3b 70d1 c8bb cd8a 113c ab87 f4bb
000002e0: e271 03bb 82be 9fbc c214 cd3b 0baa d63c
000002f0: 96a1 75bb e364 36bc cb58 b53b 051e ea3c
00000300: b9c4 e2bb 87ff 043b cd78 ad3c 7c9b 4fbb
00000310: 75ca 85bb 073e 01bc c294 653c c06f ac3c
00000320: a4d2 763b c658 9bbb 0b4c afbc 2b32 6a3c
00000330: 7be4 e33c a9ac a5ba d14b 283c 5ce6 1f3c
00000340: 6da0 193c 5092 75bb f242 f6bb 5c27 11bb
00000350: 03b7 6b3c 97f4 11bc 2e4e 643c bc23 363c
00000360: 05dd 80ba 719f 8db9 2b06 8338 872a 76bc
00000370: 015d bf3b f40e 77bc d57a c53b 59c7 2bbc
00000380: 8078 bfba f148 523c 8f61 733b 15b5 8fbb
00000390: 0654 0f3c 2275 b9bc 3775 e23b ab7c 6c3b
000003a0: 9a92 563a f8c2 33bd 048a 8bbb c81f 0a3c
000003b0: 9ff2 833c 826b d93a cf7b 193c c28e 433c
000003c0: 3942 2fbb 273b ef3b 3b3b 9d3c 658d 293c
000003d0: 0a9c bd39 6583 273c 3b99 1fbc 905c 453c
000003e0: 57f4 20bc 26ae 68bb 72c5 98bb 2680 aabc
000003f0: 322d 1ab9 f0f6 563b ff6d 323b d3af 7bbb

action_model._discrete_distribution.branches.3.bias f4 [2]
0.0015401795 -0.0015401744
00000000: d9df c93a addf c9ba

action_model._discrete_distribution.branches.3.weight f4 [2, 128]
-0.0047758534 0.0091005135 0.009665975 0.012465449 0.012415076 0.011532195 0.0024183763 0.004645586
-0.0045660534 0.014688874 0.005535173 0.005713038 -0.0025411057 0.014745171 -0.0013254395 -0.016512018
-0.012837527 0.0059098927 0.014420968 0.016765736 0.00095535745 0.0039368984 -0.0012740747 -0.0037212924
-0.0020267423 -0.0029277976 0.009605232 0.0051214527 0.017944768 0.014406572 -0.003174949 0.008797149
-0.00046328836 0.0013279859 -0.00072116725 0.011659464 -0.018047385 -0.0050194156 -0.0006326724 -0.010541022
-0.006826973 -0.0025559384 0.008427532 0.006197041 0.002623818 -0.00055610505 0.0018468497 -0.008077185
-0.027127294 0.007631901 0.016211031 0.0018506482 -0.0020131506 -0.0023477841 -0.006066406 0.0023499238
0.01696333 0.0012679332 0.0014608816 0.00039235153 0.010885742 -0.0044264817 -0.0067253974 0.0076652104
0.022142394 0.007284194 -0.011162814 -0.0074477415 -0.002575554 0.0067355675 -0.0061528827 0.004821624
-0.0034977004 0.023161598 -0.003395757 -0.00849719 -0.006866171 0.012255343 -0.006567359 -0.0031126675
0.012817527 0.01506778 -0.005618962 -0.0060323803 0.025478892 0.002202648 0.014828249 0.007535889
0.009798246 -0.011378558 0.006791363 0.0060810205 0.012023574 0.009039439 0.00061454123 0.027241962
0.005714825 0.0013075781 0.007818344 -0.008303343 -0.009235118 -0.004447645 -0.0010642745 -0.011365945
0.00187666 -0.005364046 0.008477298 -0.00946068 0.010713177 0.013255574 0.013126345 0.0046205525
0.0007758491 -0.0025056005 -0.0072849193 -0.0019381995 -0.0012755037 -0.0025172567 0.00025235442 0.00095069176
-0.0011295956 0.0058403 -0.0030918485 0.0027141583 0.010698157 0.006834897 0.0040758736 -0.010289816
-0.01942719 -0.011089094 -0.023975287 0.004243836 -0.0011695318 -0.010713607 0.0012889184 0.00062120566
0.0068158773 -0.023162624 -0.003162389 -0.003938412 -6.0122213e-05 -0.028676664 -0.016354391 0.005256053
-0.0015469269 0.0023126828 0.008060912 0.0069371397 -0.010257863 0.0044025374 -0.008580258 -0.0021802562
-0.013239103 0.0040345066 -0.016318414 -0.011315066 0.0035116181 0.004358456 -0.0030621702 -0.021507656
-0.0043959534 -0.009173161 -0.022814443 -0.0071550333 0.023869148 -0.010373308 -0.00030503326 -0.011433264
0.0075001866 -0.0077711632 0.0022238283 -1.9069812e-05 -0.011633351 0.0010735337 -0.012469908 0.005456035
0.002274018 -0.0028540948 -0.010786306 -0.029539213 -0.0033693165 -0.0128655415 -0.008785599 -0.012002348
-0.0210128 0.0020474242 0.0011413887 0.0014611933 -0.0010024457 -0.007144737 -0.011144402 -0.0014682552
-0.0015770107 0.008478338 -0.00025762047 0.0004203451 -0.012029172 -0.004025526 0.0062258095 0.010715317
-0.010668751 -0.0029203524 0.0128871435 0.013431461 0.007903741 0.0005776198 -0.016638592 -0.0027773983
-6.248882e-05 -0.005486481 0.0026814537 0.0008700631 0.0031077135 0.0075311586 0.008772683 0.0024768547
-0.0015435447 -0.0037290193 -0.0056600887 -0.008766652 -0.0010145635 -0.0011042899 -0.0024821311 -0.00564661
0.0056676613 0.011466855 -0.011895647 -0.018189428 -0.0053430675 -0.00935982 0.009964336 -0.016658466
-0.013633579 0.0063700234 -0.00793681 0.0020262832 -0.006786167 0.001822284 -0.017220544 -0.005437165
0.006660078 -0.00034158345 0.004332044 -0.007075372 0.008408014 0.026756618 -0.0055282735 0.0036254663
-0.002512728 -0.002654181 -0.015379431 0.020764012 -0.0019836826 0.00046007786 -0.006971739 0.01497526
00000000: c37e 9cbb 521a 153c 0a5e 1e3c e23b 4c3c
00000010: 9a68 4b3c 88f1 3c3c 9f7d 1e3b 003a 983b
00000020: d59e 95bb 9aa9 703c 6660 b53b 7034 bb3b
00000030: ae88 26bb bb95 713c 5fba adba 3644 87bc
00000040: 7e54 52bc c6a7 c13b ec45 6c3c 4c58 893c
00000050: f470 7a3a 1901 813b dafe a6ba ede0 73bb
00000060: 18d3 04bb 4be0 3fbb 435f 1d3c dcd1 a73b
00000070: e800 933c 8b09 6c3c ce12 50bb eb21 103c
00000080: 83e5 f2b9 d00f ae3a b70c 3dba 5607 3f3c
00000090: 1cd8 93bc e979 a4bb edd9 25ba 40b4 2cbc
000000a0: cdb4 dfbb 8881 27bb a213 0a3c 8c10 cb3b
000000b0: 5df4 2b3b 94c7 11ba fe11 f23a 2b56 04bc
000000c0: 0f3a debc 0715 fa3b ffcc 843c 7391 f23a
000000d0: 10ef 03bb 48dd 19bb b4c8 c6bb 2e01 1a3b
000000e0: aef6 8a3c c730 a63a 0d7b bf3a 88b4 cd39
000000f0: 1c5a 323c 050c 91bb b960 dcbb 722c fb3b
00000100: f763 b53c 40b0 ee3b 3ce4 36bc 2f0c f4bb
00000110: a0ca 28bb 09b6 dc3b 1f9e c9bb b7fe 9d3b
00000120: ad39 65bb 64bd bd3c 598b 5ebb cc37 0bbc
00000130: 9efd e0bb a2ca 483c 0033 d7bb e5fd 4bbb
00000140: 9b00 523c dade 763c 451f b8bb 46ab c5bb
00000150: 1cb9 d03c 4d5a 103b 2ff2 723c 9eef f63b
00000160: d388 203c 226d 3abc 158a de3b 4c43 c73b
00000170: 86fe 443c 281a 143c 2a19 213a 892a df3c
00000180: 6d43 bb3b 0a63 ab3a 8318 003c bf0a 08bc
00000190: e44e 17bc 8dbd 91bb 207f 8bba 3b38 3abc
000001a0: 43fa f53a e1c4 afbb 5de4 0a3c f800 1bbc
000001b0: 5286 2f3c e82d 593c e20f 573c 0168 973b
000001c0: 5a62 4b3a 0035 24bb 55b6 eebb 2f0b feba
000001d0: cd2e a7ba 8ff8 24bb 704e 8439 d837 793a
000001e0: f00e 94ba fd5f bf3b 9ca0 4abb 05e0 313b
000001f0: 5347 2f3c 46f7 df3b e88e 853b 9e96 28bc
00000200: c525 9fbc 08af 35bc d267 c4bc e00f 8b3b
00000210: fa4a 99ba 2088 2fbc edf0 a83a 68d8 223a
00000220: b957 df3b 8bbf bdbc 1540 4fbb cb0d 81bb
00000230: bc2b 7cb8 53eb eabc a5f9 85bc f83a ac3b
00000240: 41c2 caba 6190 173b ea11 043c f250 e33b
00000250: 9910 28bc 2943 903b 3694 0cbc a1e2 0ebb
00000260: d3e8 58bc e533 843b 32ae 85bc d462 39bc
00000270: 2d23 663b 61d1 8e3b b1ae 48bb d330 b0bc
00000280: ee0b 90bb 074b 16bc 5be5 babc c574 eabb
00000290: 3b89 c33c cff4 29bc dfec 9fb9 9652 3bbc
000002a0: 20c4 f53b 3ea5 febb a6bd 113b 1cf8 9fb7
000002b0: d099 3ebc d0b5 8c3a 964e 4cbc 8ac8 b23b
000002c0: b107 153b c40b 3bbb 0cb9 30bc 38fc f1bc
000002d0: c0cf 5cbb fec9 52bc 79f1 0fbc 7fa5 44bc
000002e0: 0923 acbc 142e 063b a69a 953a 8385 bf3a
000002f0: 7f64 83ba 661e eabb 0397 36bc 7872 c0ba
00000300: b3b3 ceba bae8 0a3c 3c11 87b9 c461 dc39
00000310: 0116 45bc 8fe8 83bb e001 cc3b 4c8f 2f3c
00000320: fccb 2ebc 6263 3fbb 9924 533c a10f 5c3c
00000330: b17e 013c 696b 173a a84d 88bc 0305 36bb
00000340: 6e0c 83b8 f0c7 b3bb 54bb 2f3b f214 643a
00000350: c8aa 4b3b f0c7 f63b 4dbb 0f3c ba52 223b
00000360: c450 caba 9062 74bb 4478 b9bb 01a2 0fbc
00000370: 1afb 84ba d2bd 90ba 40ab 22bb 3307 b9bb
00000380: cab7 b93b 7adf 3b3c f6e5 42bc ff01 95bc
00000390: e614 afbb ee59 19bc 7441 233c 5677 88bc
000003a0: 605f 5fbc a1bb d03b 6509 02bc 64cb 043b
000003b0: 7f5e debb b4d9 ee3a 1912 8dbc 3f2a b2bb
000003c0: c93c da3b 8e16 b3b9 d2f3 8d3b 86d8 e7bb
000003d0: c4c1 093c b230 db3c 8526 b5bb 3b99 6d3b
000003e0: 95ac 24bb c5f1 2dbb 02fa 7bbc 4a19 aa3c
000003f0: ac00 02bb 9b36 f139 3073 e4bb cb5a 753c

discrete_action_output_shape f4 [1, 4]
3.0 2.0 2.0 2.0
00000000: 0000 4040 0000 0040 0000 0040 0000 0040

network_body._body_endoder.seq_layers.0.bias f4 [128]
0.014274845 -0.010166399 0.034623668 -0.0037122632 0.020810533 -0.0033680869 0.00018332618 -0.0057895007
-0.007090278 -0.0035387112 0.00042321475 0.025606506 -0.0158841 -0.00745626 0.0034640958 -0.008313038
-0.0006469112 0.01589173 0.008997125 0.006988669 -0.008330479 -0.025335612 -0.0022076634 0.0076900613
0.013373859 0.012374352 -0.01319399 -0.004735256 0.008978498 -0.0015612433 -0.008823024 -0.000540095
0.02729949 -0.012540452 0.0017120828 -0.0038203376 -0.0011405303 0.012285846 -0.004930787 -0.02022498
-0.006260084 0.012830218 0.007109304 -0.0030092478 0.012439764 0.004794586 -0.005836328 0.03785895
-0.014339064 0.0060167396 -0.016582334 -0.004210652 -0.010426099 0.0040843566 -0.015226375 0.00010583246
-0.0036038714 -0.0014057506 -0.0023804493 0.010008186 0.027462088 -0.0021419001 -0.002284868 0.016347889
-0.0052958797 0.0021815496 0.007857623 0.014160763 -0.005943155 -0.025250148 0.019608183 0.036850158
0.008035354 -0.0011765349 0.0126430895 0.006985569 -0.0021996873 0.0004996997 0.0038251234 -0.032620512
0.0028614935 -0.0048868437 0.027994806 -0.005246594 0.019836694 -0.00026129556 0.016190195 0.0020070395
-0.022573536 0.011486466 -0.016097229 0.005314141 -0.0013960103 0.006578107 -0.0107396925 -0.0061256373
0.008686376 0.0013167117 0.009745927 0.0032204243 -0.021149443 0.006264831 0.010210485 0.018037865
-0.0033295285 -0.00074283313 -0.014735489 0.0019762542 0.017131845 6.9673726e-05 -0.0039199363 0.0074899564
-0.0077060023 0.022359107 0.010071355 -0.012065196 -0.010294919 0.009151184 -0.0076184464 0.0011850453
0.0058253077 -0.0016694476 -0.0065352824 -0.008511071 0.013311302 -0.013849442 0.0074790786 0.009121706
00000000: 0ae1 693c f890 26bc 8cd1 0d3d 7149 73bb
00000010: da7a aa3c 1fbb 5cbb 3f3b 4039 dab5 bdbb
00000020: 9055 e8bb b9e9 67bb ece2 dd39 bcc4 d13c
00000030: 5f1f 82bc a453 f4bb e205 633b 6933 08bc
00000040: 7a95 29ba 602f 823c ad68 133c 3401 e53b
00000050: 907c 08bc a18c cfbc 72ae 10bb e9fc fb3b
00000060: 081e 5b3c cbbd 4a3c 9b2b 58bc 352a 9bbb
00000070: 8d1a 133c a2a2 ccba 728e 10bc 2995 0dba
00000080: 2ea3 df3c 7876 4dbc f767 e03a a15e 7abb
00000090: d97d 95ba 934a 493c 7092 a1bb dbae a5bc
000000a0: 6421 cdbb d635 523c 2af5 e83b cd36 45bb
000000b0: 27d0 4b3c e71b 9d3b ab3e bfbb fd11 1b3d
000000c0: 65ee 6abc 1228 c53b add7 87bc 82f9 89bb
000000d0: 3bd2 2abc 11d6 853b 0c78 79bc 5ff2 dd38
000000e0: ee2e 6cbb 2a41 b8ba 5001 1cbb 60f9 233c
000000f0: 2cf8 e03c 1f5f 0cbb b9bd 15bb 02ec 853c
00000100: 0f89 adbb 54f8 0e3b 42bd 003c 8b02 683c
00000110: ccbe c2bb 66d9 cebc 57a1 a03c 31f0 163d
00000120: b8a6 033c f635 9aba f624 4f3c 33e7 e43b
00000130: a128 10bb 47fe 023a ecae 7a3b 169d 05bd
00000140: e587 3b3b d121 a0bb 5d55 e53c 9feb abbb
00000150: 9080 a23c 7ffe 88b9 4da1 843c 8988 033b
00000160: 23ec b8bc bb31 3c3c 56de 83bc 3f22 ae3b
00000170: 55fa b6ba 298d d73b 89f5 2fbc 92b9 c8bb
00000180: 4d51 0e3c 8395 ac3a 61ad 1f3c c10d 533b
00000190: 9941 adbc 3649 cd3b e149 273c 25c4 933c
000001a0: 3834 5abb b0ba 42ba 1f6d 71bc 0b84 013b
000001b0: 1558 8c3c cc1d 9238 cf72 80bb 4f6e f53b
000001c0: a282 fcbb 722a b73c 5302 253c 1aad 45bc
000001d0: 05ac 28bc d9ee 153c 29a4 f9bb 8653 9b3a
000001e0: 39e2 be3b 5ed1 daba ec25 d6bb 0572 0bbc
000001f0: a617 5a3c c5e8 62bc 0f13 f53b 3573 153c

network_body._body_endoder.seq_layers.0.weight f4 [128, 8]
0.07171326 -0.27584925 -0.6359164 0.19935565 0.041415237 0.27617067 0.030451225 -0.42830387
0.16872662 -0.03926476 0.1601589 0.1287261 0.097181186 0.28385714 0.14586882 0.45441365
-0.05061847 -0.49567762 0.25892437 -0.1919048 0.42871544 -0.17395762 0.4180993 -0.21637791
-0.48296326 0.18896933 0.14885804 -0.4403527 0.063220054 -0.14163207 -0.14354964 0.11602926
-0.6077693 -0.61466706 0.29891297 -0.25688398 -0.24026765 0.23722625 -0.09650087 0.3139365
-0.0039626854 -0.4611277 -0.41974914 0.6672381 -0.35237473 -0.0031835246 -0.20288973 -0.085909516
-0.5179945 0.18981452 -0.5409089 0.5724203 -0.44932598 -0.11055338 -0.6027957 0.3400552
0.1842395 0.190393 -0.10992515 -0.47938287 0.51326257 0.22052856 0.44968006 -0.800765
0.0888194 0.19872952 0.20251185 0.24046299 0.103666194 -0.43537644 -0.3730994 -0.24625136
0.09010351 -0.30707112 -0.66134584 -0.07160576 -0.28638357 -0.13965297 -0.27602285 -0.26048145
-0.025771393 0.13259985 0.49256265 0.14878304 -0.20107147 -0.1873191 -0.065973565 -0.26210704
0.10272494 -0.45233855 -0.19052221 -0.18513304 0.29347676 0.007855875 0.65079004 -0.35045037
-0.38546842 -0.2141129 0.3192443 0.66050315 0.5341618 -0.18466808 0.06787217 0.72863835
-0.15390666 0.41808665 -0.16996294 -0.45250362 0.036350437 -0.6707219 -0.40073037 -0.053157173
0.49263972 1.0157979 0.5103371 0.39060012 -0.18741915 0.20530416 0.68018305 0.054950878
-0.19991814 0.36715406 -0.0045922496 -0.007265792 -0.10309579 0.25966725 -0.5029681 0.029952228
0.32849944 0.6984406 -0.13121699 -0.59078413 -0.32897103 0.18734358 0.07945417 -0.93475294
0.3043732 -0.33935067 0.08039643 -0.047396608 0.2544688 -0.16682647 0.40188858 0.49320832
0.32278126 0.39607695 0.061402008 0.67039835 0.09168805 -0.23509185 0.20982882 0.15961519
-0.13618551 -0.66081005 -0.5044705 -0.07651046 -0.2226848 -0.021320969 0.6436003 0.077396
0.09666193 -0.14365925 0.09757678 0.8767553 -0.5968591 -0.3343828 -0.29957545 -0.35564518
-0.17740726 -0.46405536 0.6126339 -0.53377414 -0.47266844 0.22483887 -0.28641787 -0.038864076
0.15184541 0.2232231 -0.053518195 0.17426378 0.010800831 -0.12147262 -0.14570586 -0.32647136
-0.36906222 0.31414184 -0.6702425 -0.3045139 -0.15122978 -0.104068175 -0.050955813 0.016057536
0.08029614 -0.10511131 0.06284131 -0.31324485 0.43656024 -0.062040918 -0.06525984 -0.10383533
0.6887174 -0.56794643 0.13093984 -0.09302769 0.10945446 -0.44000337 0.26473704 -0.05117927
0.5717565 -0.18689273 0.28561902 -0.51214063 -0.49225214 0.18292385 -0.099576555 0.192071
0.20347907 0.16985866 -0.05627063 0.0070074257 0.050736472 0.3397934 -0.22148193 -0.2124569
-0.0974709 -0.25920826 -0.66184384 0.27985892 -0.0044129095 0.18515958 0.019769777 0.46502927
-0.56028455 -0.82890433 -0.0145816505 0.12780434 -0.005455661 -0.05100074 0.12017432 -0.32104406
-0.13917422 -0.31700906 0.31559387 -0.45425147 -0.316443 0.36415735 -0.2342252 -0.36007336
-0.13371216 -0.5085053 -0.46786213 0.57827413 -0.29529172 0.06464076 0.14767689 -0.10258116
00000000: 67de 923d 1d3c 8dbe 6bcb 22bf e323 4c3e
00000010: 06a3 293d 3e66 8d3e d974 f93c a54a dbbe
00000020: acc6 2c3e 16d4 20bd b200 243e c6d0 033e
00000030: ee06 c73d b955 913e a35e 153e e8a8 e83e
00000040: 5055 4fbd 75c9 fdbe bc91 843e b182 44be
00000050: 9780 db3e f221 32be 1d11 d63e 2c92 5dbe
00000060: f646 f7be 2d81 413e 3e6e 183e e975 e1be
00000070: 8479 813d ff07 11be adfe 12be c0a0 ed3d
00000080: c596 1bbf d25a 1dbf 1f0b 993e 4c86 83be
00000090: b908 76be 70eb 723e 40a2 c5bd 49bc a03e
000000a0: 6ad9 81bb ee18 ecbe 5ce9 d6be 1ed0 2a3f
000000b0: 766a b4be aea2 50bb 53c2 4fbe 54f1 afbd
000000c0: 4a9b 04bf bd5e 423e 0179 0abf 238a 123f
000000d0: 0e0e e6be cf69 e2bd d250 1abf b71b ae3e
000000e0: 48a9 3c3e 62f6 423e 7020 e1bd ac71 f5be
000000f0: 2d65 033f 3dd2 613e 773c e63e effe 4cbf
00000100: f2e6 b53d c07f 4b3e 445f 4f3e ee3b 763e
00000110: f14e d43d a9e9 debe e206 bfbe 5129 7cbe
00000120: 3088 b83d 6d38 9dbe f64d 29bf 0aa6 92bd
00000130: dea0 92be 3001 0fbe de52 8dbe d35d 85be
00000140: 871e d3bc 41c8 073e 2c31 fc3e 955a 183e
00000150: aee5 4dbe 94d0 3fbe 261d 87bd e532 86be
00000160: 7461 d23d eb98 e7be 4118 43be 8493 3dbe
00000170: 9642 963e eeb5 003c 2d9a 263f 3b6e b3be
00000180: 1e5c c5be 6940 5bbe fd73 a33e bc16 293f
00000190: d4be 083f a119 3dbe 9000 8b3d 0b88 3a3f
000001a0: b599 1dbe 740f d63e c40a 2ebe 8eae e7be
000001b0: 32e4 143d 6eb4 2bbf 882c cdbe 56bb 59bd
000001c0: 463b fc3e aa05 823f 74a5 023f bdfc c73e
000001d0: ceea 3fbe 413b 523e 7a20 2e3f 2c14 613d
000001e0: 57b7 4cbe 9efb bb3e 957a 96bb e215 eebb
000001f0: e323 d3bd 1bf3 843e 84c2 00bf 605e f53c
00000200: 1431 a83e 01cd 323f bf5d 06be a13d 17bf
00000210: e46e a8be ffd6 3f3e deb8 a23d f84b 6fbf
00000220: ced6 9b3e 5fbf adbe e2a6 a43d f222 42bd
00000230: bc49 823e 8fd4 2abe 57c4 cd3e cd85 fc3e
00000240: 9643 a53e 99ca ca3e ac80 7b3d 3a9f 2b3f
00000250: f2c6 bb3d ebbb 70be 5edd 563e 2a72 233e
00000260: 3774 0bbe d92a 29bf fb24 01bf 84b1 9cbd
00000270: 7c07 64be 50a9 aebc fdc2 243f cb81 9e3d
00000280: b1f6 c53d 691b 13be 56d6 c73d 0973 603f
00000290: c2cb 18bf 3934 abbe f461 99be 2017 b6be
000002a0: 40aa 35be aa98 edbe 93d5 1c3f 6ca5 08bf
000002b0: 9901 f2be 293c 663e 5da5 92be f02f 1fbd
000002c0: 5d7d 1b3e 9994 643e e535 5bbd 3472 323e
000002d0: f8f5 303c a3c6 f8bd eb33 15be 4127 a7be
000002e0: b9f5 bcbe 33d7 a03e 0395 2bbf 3fe9 9bbe
000002f0: fbdb 1abe b221 d5bd 0bb7 50bd 188b 833c
00000300: 4d72 a43d 9944 d7bd f2b2 803d a161 a0be
00000310: d384 df3e 9e1e 7ebd f3a6 85bd 9ea7 d4bd
00000320: c94f 303f f064 11bf 1815 063e 4d85 bebd
00000330: a929 e03d 1f48 e1be 9d8b 873e 5ba1 51bd
00000340: a25e 123f cf60 3fbe a83c 923e a61b 03bf
00000350: 7908 fcbe 6450 3b3e cbee cbbd 43ae 443e
00000360: d15c 503e 6eef 2d3e 087c 66bd 8c9e e53b
00000370: 0cd1 4f3d 67f9 ad3e 29cc 62be 4d8e 59be
00000380: d39e c7bd f2b6 84be 996e 29bf ab49 8f3e
00000390: 2b9a 90bb 799a 3d3e 3af4 a13c 5118 ee3e
000003a0: cf6e 0fbf 1333 54bf e0e7 6ebc 24df 023e
000003b0: 67c5 b2bb 27e6 50bd f41d f63d e35f a4be
000003c0: b083 0ebe 034f a2be 8595 a13e a693 e8be
000003d0: d104 a2be d572 ba3e bbd8 6fbe 895b b8be
000003e0: d7eb 08be 672d 02bf a08b efbe c609 143f
000003f0: 7a30 97be 6062 843d 9c38 173e 1216 d2bd

network_body._body_endoder.seq_layers.2.bias f4 [128]
0.0007660927 0.004200754 0.015369237 -0.0044815294 -0.0021205237 0.0029610265 -0.016876353 0.0012028448
0.003428874 0.0018521583 -5.9400732e-05 0.009720631 -0.0007161128 -0.008116266 0.01118956 -0.00021880356
0.0006297649 0.01947543 0.004039402 -0.0112884 0.013872734 0.0075688297 0.007934794 -0.003897034
-0.0016146005 -0.0035565447 -0.009604829 0.033804614 -0.015267195 0.040002026 0.014636524 -0.009123164
-0.0111949835 -0.00024492043 0.004860789 0.0629655 0.009916902 -0.007707155 -0.0025961094 -0.0087648295
0.0014223885 -0.002787572 -0.006783776 0.013905724 -0.0024128573 0.007545986 0.027402475 0.011631701
0.019302178 -0.009426013 0.02187819 0.007925083 0.0048252563 -0.0003266243 -0.0027771394 -0.023584342
-0.008071379 0.0008652261 0.0062637855 0.039298985 -0.0087898625 -0.007380755 -0.003807022 0.02880565
-0.0035151946 0.013429876 0.032628957 -0.010380108 0.009795018 -0.002895582 0.023555355 0.0033087477
-0.0013035585 0.00646135 0.010769519 0.01038081 0.031411942 0.0040395237 0.009048348 -0.012227348
-0.0020701592 -0.0049610133 0.0011139133 -0.0053584888 0.021423189 -0.010411474 0.011272198 0.001853361
0.005333374 -0.01183653 -0.0059647574 -0.0032031045 -0.0069834203 -0.009310061 -0.016014827 -0.01234713
-0.014872717 -0.0016948549 0.011895758 -0.0017401603 -0.006329369 -0.006005046 -0.002955993 -0.0072905743
0.01661129 0.016456138 -0.0074532395 0.00025305527 0.033856176 0.008875552 0.02798578 0.015373313
-0.005325706 -0.008152372 4.5485376e-05 0.011955143 -0.0055083716 0.009923473 -0.0016399982 0.015149016
0.00013375039 0.0022699444 0.0008066841 -0.014510648 0.005061023 0.008503683 0.010597503 0.0010301826
00000000: 9cd3 483a 7ba6 893b 41cf 7b3c cbd9 92bb
00000010: 7cf8 0abb c80d 423b 4740 8abc c6a8 9d3a
00000020: f6b6 603b 1fc4 f23a 0d25 79b8 4843 1f3c
00000030: 84b9 3bba 16fa 04bc 6b54 373c a26e 65b9
00000040: cf16 253a f08a 9f3c f65c 843b fbf2 38bc
00000050: 774a 633c f203 f83b f000 023c 6265 7fbb
00000060: 01a1 d3ba eb14 69bb 935d 1dbc b576 0a3d
00000070: 4223 7abc 2ad9 233d 08ce 6f3c 5379 15bc
00000080: 2a6b 37bc aa68 80b9 4147 9f3b 0ef4 803d
00000090: 807a 223c 4d8c fcbb 7d23 2abb 5c9a 0fbc
000000a0: 706f ba3a b3af 36bb 704a debb d5d4 633c
000000b0: 0721 1ebb 5244 f73b 287b e03c e492 3e3c
000000c0: 9a1f 9e3c 906f 1abc e439 b33c 35d8 013c
000000d0: 2f1d 9e3b c53e abb9 ab00 36bb f333 c1bc
000000e0: d13d 04bc 57d0 623a 7140 cd3b f9f7 203d
000000f0: 5b03 10bc 43da f1bb 3b7f 79bb d4f9 eb3c
00000100: 2e5f 66bb fc08 5c3c f1a5 053d 5411 2abc
00000110: 487b 203c cec3 3dbb 29f7 c03c 93d7 583b
00000120: 2adc aaba bbb9 d33b a372 303c 4614 2a3c
00000130: cfa9 003d fb5d 843b 863f 143c 3755 48bc
00000140: 82ab 07bb ff8f a2bb ba00 923a 4396 afbb
00000150: af7f af3c e394 2abc 06af 383c 7aec f23a
00000160: 95c3 ae3b 01ee 41bc 0374 c3bb 2deb 51bb
00000170: 2dd5 e4bb 3a89 18bc 8731 83bc 9e4b 4abc
00000180: b2ac 73bc e525 deba 6de6 423c 1716 e4ba
00000190: 9866 cfbb fac5 c4bb 55b9 41bb c5e5 eebb
000001a0: 6614 883c 06cf 863c 4e3a f4bb 81ac 8439
000001b0: c6ac 0a3d c36a 113c 6f42 e53c 59e0 7b3c
000001c0: 4383 aebb 8791 05bc 8dc7 3e38 81df 433c
000001d0: 927f b4bb 1096 223c 35f5 d6ba 9433 783c
000001e0: 593f 0c39 59c3 143b a777 533a 12be 6dbc
000001f0: f0d6 a53b 0853 0b3c 26a1 2d3c 3107 873a
