Assets/Brains/Brains 1/LearnFightSword.onnx (onnx, 84149 bytes, 18 tensors)

action_model._continuous_distribution.log_sigma f4 [1, 2]
000000 96 d9 17 3d 35 17 56 3d
       0.03707274 0.052268226

action_model._continuous_distribution.mu.bias f4 [2]
000000 0e 6d 81 ba a8 9c 0a 3a
       -0.000987442 0.0005287626

action_model._continuous_distribution.mu.weight f4 [2, 128]
000000 d2 35 0b 3d 27 5a 3c 3d d5 7e 89 bc 42 32 c8 bc
       0.033986874 0.045984413 -0.016784111 -0.024438027
000010 c4 44 38 3b 91 14 bf 3a 50 10 aa bc 0d 0c 2c 3b
       0.002811716 0.0014578273 -0.020759732 0.00262523
000020 84 95 04 3d fd 04 0e bc 9d 00 12 3b bb e9 9b 3c
       0.03236915 -0.0086681815 0.0022278198 0.01903235
000030 00 c9 d1 bc 2e 8c fa bc 72 c0 bd 3c 91 c2 23 bd
       -0.02560854 -0.030584421 0.023163054 -0.039980475
000040 cc a5 89 3c df 2c ac bc 5b af 22 3c 52 e4 1a bc
       0.01680269 -0.02101749 0.009929503 -0.00945385
000050 07 c8 a6 ba c3 96 38 3b 5c a1 81 3c 49 12 69 3b
       -0.0012724408 0.0028166033 0.015824012 0.0035563877
000060 a6 6b 4a 3c 3b 42 84 bc 2f d1 01 bc 68 ec 40 bd
       0.012354767 -0.016144862 -0.007923408 -0.047100455
000070 d4 93 1d bd ea 2e b6 bc 79 ec ed bb 12 49 b6 3b
       -0.038471058 -0.022239167 -0.0072608558 0.00556291
000080 4c 41 ab 3b 1a 1e c5 3c 46 2f 1b 3c 31 86 1f ba
       0.00522629 0.024062205 0.00947172 -0.0006085365
000090 80 ec 96 3b ac 31 a0 3c cd 9b d4 3c 60 f0 fc 3c
       0.0046058297 0.019554935 0.025953198 0.030876338
0000a0 fd 41 40 3c 0a 61 98 bc 9c da 3a 3c 16 4d 45 bd
       0.011734483 -0.01860096 0.01140466 -0.048169218
0000b0 a5 18 4b bb c8 6e ac 3b 25 e8 26 3d b9 01 63 bc
       -0.003099003 0.0052622296 0.040748734 -0.013855391
0000c0 17 b3 54 bb 50 17 d6 bb 9d 7a 2e bd 59 3b 1b bc
       -0.0032455379 -0.006533541 -0.042597402 -0.009474599
0000d0 78 33 ff bb db 6b e1 bc 66 54 cd bc 46 87 7c 3c
       -0.007788118 -0.02751725 -0.025064658 0.015413111
0000e0 05 bc 11 3d 55 ce 82 bc c0 2c d1 3b 7e c8 de bb
       0.0355797 -0.015967527 0.0063835084 -0.006798803
0000f0 5c 05 bd 3c eb 86 0e ba 8d 3b cd bc 0e 1f c7 3b
       0.023073845 -0.00054369745 -0.02505281 0.0060767
000100 df 64 87 3c af 7b 06 3c f7 95 de 3c 1d fb f7 bb
       0.016527591 0.008208199 0.027171118 -0.007567777
000110 2d c7 ae 3c 4e 12 21 3c 24 68 ba 3c 76 9b d1 3c
       0.021335209 0.009831024 0.022754736 0.025586825
000120 9d b8 0d 3d 74 49 81 3c a6 da a1 3b 7d ae 8a 3c
       0.03459989 0.015782095 0.004939395 0.016928906
000130 a1 0e da 3c e7 ca b9 bc fe 42 79 bc b2 1f 8c 3c
       0.026618304 -0.02267976 -0.015213726 0.017104957
000140 dc 70 8b bc 39 21 3d bb 13 04 1f bc 97 5c d4 3c
       -0.017021589 -0.0028858914 -0.009705561 0.025923057
000150 85 9e e5 3b 3a 36 c1 bc 50 d6 21 3c 45 e0 2d bd
       0.0070074224 -0.023585428 0.009877756 -0.04245021
000160 47 6e 50 3b e0 3a d1 ba 35 5f 22 3c 43 7e 5a 3c
       0.0031804012 -0.0015962981 0.009910394 0.013335767
000170 06 bf db bb 00 e9 6d 3c d3 bb 75 bd 6f 36 cc bc
       -0.0067061214 0.014520884 -0.059993576 -0.0249283
000180 1e 18 4b 3c d7 44 86 bc fa 33 b8 bc b3 a5 6a 3c
       0.012395887 -0.016390247 -0.022485722 0.014321732
000190 a1 d4 20 3d 58 22 2e 3c 61 96 b7 bc c9 88 f5 bb
       0.03926528 0.010628305 -0.022410573 -0.0074931127
0001a0 69 9e 58 3c 14 3b 4a 3b 4b 74 2f 3c 7c 60 44 bc
       0.013221362 0.0030857967 0.010708879 -0.011985894
0001b0 15 ee a4 bc 5b 48 37 3d 16 92 a1 3c 1d 83 0f 3b
       -0.020133058 0.044746738 0.01972298 0.0021898218
0001c0 50 f4 b4 bc 06 db 1c 3d ee d7 93 ba 8b 1b 68 bc
       -0.022089154 0.038294815 -0.0011279562 -0.014166723
0001d0 7c 37 ae 3c 41 56 e1 3c e5 72 13 3c 11 5c f0 bc
       0.021266691 0.02750695 0.008999561 -0.029340776
0001e0 7c 40 81 3c fc 31 97 bc 79 85 d2 bc de 09 7f bc
       0.015777819 -0.018456452 -0.02569841 -0.015566317
0001f0 66 2a 79 bc 9b b3 0c bc 16 6c 0e 3b e5 e1 7e bc
       -0.0152078625 -0.008587743 0.0021731905 -0.015556787
000200 b2 b5 13 bc 42 ba b5 3c 79 b9 d7 bc d3 84 99 3c
       -0.0090154875 0.022183541 -0.026333557 0.018740093
000210 de ad 4b bc 82 13 4e 3d 41 af ae bc 40 0d ec 3c
       -0.01243159 0.050311573 -0.021323802 0.028814912
000220 53 07 b5 bc 29 31 de 3c 7d 67 f3 bc 4c 5a 3f 3c
       -0.022098219 0.02712305 -0.029712433 0.011679243
000230 63 11 36 bc 6c ad 1a ba 53 42 bb 3c 70 ce 54 3b
       -0.011112544 -0.00059004757 0.022858774 0.003247168
000240 98 7f b5 bc 4b 34 d9 bc 1a 41 a7 bb 9c 43 c8 3b
       -0.022155568 -0.026514193 -0.0051041963 0.0061115753
000250 fd d4 0c ba 22 7c 0b bc 32 3d a0 3c c2 a9 3c 3b
       -0.0005372314 -0.008513482 0.01956043 0.0028787707
000260 54 1a 40 3b 46 14 17 bc 02 4b cb bc 36 63 52 3c
       0.0029312568 -0.009221142 -0.02481604 0.012841037
000270 ba ab 47 3b d7 32 59 3c bd 49 22 3c eb bc 78 ba
       0.0030467347 0.01325675 0.009905276 -0.00094886
000280 92 f7 3d 3c 34 22 ea 3b 8d 85 6c bc 0d 3d 85 3c
       0.01159467 0.0071451906 -0.014436138 0.016264463
000290 54 08 48 3c d4 60 04 3b 68 17 3e 3c 27 b4 14 3d
       0.012209017 0.0020199316 0.01160226 0.03630462
0002a0 2d b3 c9 3c 0d 16 9f 3a ad 5b 88 bc bc a8 bb bc
       0.02462157 0.0012137309 -0.016645277 -0.022907607
0002b0 31 5e c3 bb bf 8b f4 bb d3 b5 49 3c 39 93 33 3b
       -0.005962156 -0.007462948 0.012311417 0.0027400984
0002c0 92 2c 29 3c a3 10 bc bc bd 70 c5 3b 52 7d cd 3c
       0.010325568 -0.022957152 0.0060254023 0.025084171
0002d0 69 38 00 3c 84 37 0e 3c 16 59 af 3a 5e 08 b1 3b
       0.007825949 0.008680228 0.001337799 0.005402609
0002e0 cf fb 77 3c 68 2f b7 bc fc cf 02 bc 15 a8 58 3c
       0.015135719 -0.022361472 -0.007984158 0.013223668
0002f0 ce 29 85 bb eb a1 a0 3c d2 b3 33 3c be 34 0c ba
       -0.0040638214 0.019608459 0.0109681655 -0.00053484354
000300 40 99 3c bc 6a 5a d5 3b 7d 0c 86 bc 52 0b a1 bc
       -0.011511147 0.0065110223 -0.016363377 -0.019658718
000310 06 4c 59 3c 4e 93 07 bb e3 a1 b0 bb fe 62 ef bc
       0.013262754 -0.0020687166 -0.005390392 -0.029222008
000320 c8 59 a4 bb 70 51 06 3d e2 72 63 bc 2c a9 d9 bb
       -0.0050155856 0.03279251 -0.013882371 -0.0066424813
000330 c6 9e 7e 3c de ba 7c 3b 9e 88 0a bc e0 6b 63 3c
       0.015540784 0.003856353 -0.008455424 0.0138807
000340 fd a4 4a bb 5b ca a5 bc f6 55 79 3c a0 65 9c 3b
       -0.0030921095 -0.020238092 0.015218249 0.004772857
000350 6e df cc 3c 1b b7 ca 3a b7 74 2e bb 01 af 22 3b
       0.025008883 0.0015465947 -0.002661986 0.0024823549
000360 3a c7 1c 3d f1 a7 4d bb 5f f7 d1 3b e7 53 0c 3b
       0.038275935 -0.0031380618 0.0064076628 0.0021412314
000370 d4 ac 4d 3c 04 fd 46 3d 9c ff 71 bb 0b bf 95 bc
       0.0125534125 0.04858114 -0.0036926037 -0.018279573
000380 e3 92 7b 3b ed d2 de ba d7 f1 9e bc ca 67 09 bc
       0.0038387112 -0.0017000117 -0.019402428 -0.008386562
000390 a4 9c 0a bd a0 e5 01 3c d3 82 b6 bb 48 04 c8 bb
       -0.03384079 0.007928282 -0.0055697947 -0.006104026
0003a0 47 95 ae bb 0f f5 ac bc 5e d7 c5 bc 16 63 e4 bc
       -0.005327854 -0.021112947 -0.024150547 -0.02787928
0003b0 71 f1 e3 bb ea 80 3b ba c2 8c 40 bb e9 cb 79 bc
       -0.0069562723 -0.00071526936 -0.0029380773 -0.01524637
0003c0 63 ca 99 bc c0 e3 db 3b 84 2f e4 bb 76 93 94 3b
       -0.018773263 0.0067104995 -0.006963672 0.0045341803
0003d0 90 d2 58 3c 7f 88 ef 3b 2d e8 1f 3c ed 74 23 3d
       0.013233796 0.007309973 0.009759945 0.03990643
0003e0 de 62 93 bc f9 ca 70 bb ec fe b4 bc ec a6 aa bb
       -0.01799148 -0.0036742075 -0.022094212 -0.005207887
0003f0 25 e8 be 3c 80 2d e4 ba 38 aa c1 3c 90 b5 c8 3b
       0.023304055 -0.001740858 0.023640737 0.0061251596

action_model._discrete_distribution.branches.0.bias f4 [3]
000000 a4 64 35 bb 2a b8 b8 3b b0 77 37 bb
       -0.0027678395 0.0056371884 -0.0027994923

action_model._discrete_distribution.branches.0.weight f4 [3, 128]
000000 7b 1d 45 3c 9a ea c4 3b 46 a8 ba 3b 89 e6 0e 3d
       0.0120309545 0.006009412 0.0056963293 0.034887824
000010 37 e9 6c bc 79 d3 78 bb ea 10 06 3c 61 e9 33 3c
       -0.0144599 -0.0037967844 0.008182744 0.010980935
000020 2b 09 fe 3b ec b7 55 3c a7 19 99 bc a0 21 0c 3c
       0.0077525578 0.013044339 -0.01868899 0.008552939
000030 19 ce 9c bc 09 c8 3c bd 4b ba 5f 3c 72 d4 da 3b
       -0.019141244 -0.046089206 0.013655256 0.0066781575
000040 c6 b4 40 3c 77 28 fd bb 01 2d 7e 3b bf 7c 81 3c
       0.01176185 -0.007725771 0.0038784149 0.015806554
000050 48 52 80 bc a8 aa 52 bb e3 fb cd bc 08 8d e2 3a
       -0.015664235 -0.0032145176 -0.025144523 0.0017284462
000060 77 81 0e bc 43 ff da bc a7 25 d6 b8 4a be 37 bc
       -0.008697859 -0.026733046 -0.000102113285 -0.011214802
000070 09 88 15 3b fe 53 09 3c b9 bd cd ba a5 06 bc 3c
       0.002281668 0.008381842 -0.00156968 0.022952387
000080 86 da 6c 3b 5b 8e 39 bc 91 f6 40 bc d5 94 0f 3b
       0.0036140992 -0.011325444 -0.011777536 0.002190878
000090 5f 6f 07 3b 43 9c 3f bb 58 25 e1 ba b7 47 17 bb
       0.0020665748 -0.0029237426 -0.0017177267 -0.0023083517
0000a0 89 8a 25 bc ad ff 6e ba a6 15 e7 3b 02 0d 05 bc
       -0.01010383 -0.0009117078 0.0070521412 -0.008120777
0000b0 50 dc 0c bc 6c 4f 84 3c 2f 15 e0 b9 87 e8 23 3d
       -0.0085974485 0.016151153 -0.00042740392 0.040016677
0000c0 e8 4a 1a bc 26 78 49 3c eb 07 36 bc fe 8a 1f 3c
       -0.009417273 0.012296712 -0.011110286 0.009737728
0000d0 f8 6a da bb a7 d1 b1 bb 70 38 13 3c de 23 02 3c
       -0.0066655837 -0.005426604 0.008985624 0.007943122
0000e0 cd 34 d3 ba 8d 55 01 3c 9b 43 0a 3d 0a f5 09 bd
       -0.0016113758 0.007893932 0.03375588 -0.033680953
0000f0 ce 79 98 bb 0b b7 9a bc 96 08 c8 3b 32 e9 a0 3c
       -0.004653192 -0.01888611 0.006104539 0.019642446
000100 ca 1e e7 3a 3b 81 65 3a d6 19 ad bc 77 4a 51 3c
       0.0017633077 0.00087549136 -0.021130484 0.012774101
000110 e9 8f 82 bc 75 a9 cd bb 63 94 ad 3c 03 dd 6d 3c
       -0.015937762 -0.0062763044 0.02118892 0.014518025
000120 d8 20 4a 3c ce 28 5e 3c d1 2c 1a 3b 71 89 25 bc
       0.012336932 0.013559533 0.0023525248 -0.010103569
000130 93 05 bd 39 72 31 f9 3b 8a f2 17 3c 7e 4d ff bc
       0.00036053042 0.0076047713 0.009274134 -0.03116488
000140 2f 7a f5 bb 4b 4a ae 3a 75 6a af 3c 48 a9 d1 bb
       -0.007491372 0.0013297288 0.021413067 -0.0063983537
000150 60 4b ac 3c b1 ff 87 bb 67 59 ac bb b2 8b a9 bc
       0.021032035 -0.004150354 -0.005259681 -0.020696495
000160 93 45 e2 bb a7 59 3b 3c f6 24 ef 3c ef 44 84 3b
       -0.0069052665 0.011434949 0.029192429 0.004036538
000170 88 a0 59 bc 6a 31 98 3c d6 a6 51 3c a2 93 3f bc
       -0.013282903 0.01857825 0.012796124 -0.011692913
000180 29 d3 1f b9 64 d0 a3 3b 28 8c 4f bb b3 97 c1 3b
       -0.00015242085 0.0049992073 -0.0031669233 0.0059079765
000190 15 81 ba bb df ca 39 3c 42 dd 7e 3b da 91 c0 ba
       -0.0056916573 0.011339872 0.0038889204 -0.0014691905
0001a0 48 cd be 3b 62 a3 d0 bc 36 89 59 3c 57 11 86 3c
       0.0058228113 -0.025468532 0.013277343 0.01636569
0001b0 46 68 14 3b 40 4b 2a bc 62 11 24 3c 9e ab 69 bc
       0.002264516 -0.010393918 0.01001391 -0.014262108
0001c0 04 76 7e 3b 5f 4a 3b 3b 0c 95 85 bc 97 08 15 3c
       0.0038827667 0.0028578264 -0.016306423 0.009096286
0001d0 1f 0e 96 bc 71 4c c6 3c 15 2e f4 3b 09 48 10 bc
       -0.01831728 0.024206372 0.0074517825 -0.008806237
0001e0 d9 f5 43 bc 03 0c 96 bb 0f 78 07 bc 31 66 57 3c
       -0.01196047 -0.0045790686 -0.00826837 0.013146923
0001f0 84 0f f4 3c 80 24 db 3c 60 3c 3e bc 60 9a 5c 3c
       0.029792555 0.026750803 -0.011611074 0.01346454
000200 a1 07 6d bc 3c 8f 27 3b 26 ab c7 bc d1 bf 89 38
       -0.014467151 0.0025567552 -0.024373602 6.568398e-05
000210 e6 7a 27 3c 50 72 ed ba 9c 07 42 3a 99 22 70 bb
       0.010222172 -0.0018115733 0.00074016466 -0.0036641716
000220 dc d2 80 3c 25 84 5b 3c 5c 61 59 3c 8a 1c 95 ba
       0.015725546 0.013398205 0.013267841 -0.0011376303
000230 b1 27 d5 3a 48 10 93 3b 14 e9 89 3c 3e 6b b2 3c
       0.0016262439 0.004488025 0.016834773 0.021779653
000240 78 62 db 3b 3d c8 91 bc f9 67 17 3b b8 40 ec 3b
       0.006695088 -0.017795676 0.0023102744 0.0072098635
000250 9c cc 68 3b 5d 71 77 bb 76 82 2f 38 02 9f f3 3b
       0.0035522347 -0.0037756779 4.1844753e-05 0.0074347267
000260 11 0e fa bb 6f 3a b0 3c 2b 84 c1 3c d2 cc 17 3c
       -0.0076310714 0.021512238 0.023622593 0.009265142
000270 c0 1c a5 bb 92 a8 10 3c 28 f3 21 3c 61 cb 37 bc
       -0.0050388277 0.008829253 0.009884633 -0.011217923
000280 f0 c6 10 3b 96 cf cf 3b 45 f8 f9 b9 3c 9d 24 3c
       0.0022091232 0.006341885 -0.00047677956 0.010047253
000290 0b f0 86 3b a2 8c 3f 3c 71 51 08 bd eb b7 5d bc
       0.004117971 0.011691244 -0.033280794 -0.013532619
0002a0 8b 09 ce bb 8e 96 93 3a 68 82 d8 3a 7f 3f 9b bb
       -0.0062877587 0.0011260079 0.0016518356 -0.004737794
0002b0 f3 9c c0 3b 39 f8 4d 3b 97 e1 e7 ba 3e 00 9e 3c
       0.005878085 0.003142847 -0.0017691132 0.019287225
0002c0 3a 45 04 3c f0 78 99 3a 21 df 77 ba 70 2f 13 bb
       0.0080731455 0.0011709016 -0.0009455551 -0.0022458695
0002d0 46 26 3a 3b b1 25 78 3b 53 28 29 bc ce 27 01 3b
       0.002840416 0.0037864263 -0.010324555 0.0019707563
0002e0 1a 56 e0 ba a1 91 98 3b 0a 0c d4 bb 96 66 dc ba
       -0.0017115504 0.004656032 -0.0064711617 -0.0016815241
0002f0 20 c9 f5 bb 1a 38 9a bc 7c 6c 83 bc 88 ed 86 bc
       -0.0075007826 -0.01882558 -0.01604294 -0.016470686
000300 04 6b cc 3b e9 9b 55 bc 88 05 7a bb 68 b8 3a bc
       0.006238343 -0.01303766 -0.003815027 -0.011396505
000310 dc f3 f2 3b f8 fc 82 bc 9c 46 9a 3b a3 58 42 3a
       0.007414324 -0.015989766 0.0047081243 0.00074137206
000320 a8 46 7b 3c 0e 94 cb b9 f2 52 a9 bc bf 7b cf bb
       0.01533667 -0.00038829487 -0.020669434 -0.0063318904
000330 15 9c 97 bb a4 9f 13 3c cf 08 47 bc 23 95 59 3c
       -0.0046267607 0.009010229 -0.012148096 0.013280186
000340 82 6b 2c bc 83 93 52 3c 65 73 15 bb 1e 54 6b 3b
       -0.010523679 0.012852552 -0.0022804376 0.0035908292
000350 28 19 75 bb 3c ef 4d 3b 05 65 ac 3c 8c 9b 87 3c
       -0.0037399027 0.0031423112 0.021044264 0.016553663
000360 21 65 64 bc 54 5f 6c bc b0 c0 36 bc b8 c6 27 bb
       -0.013940127 -0.014427025 -0.011154339 -0.0025600623
000370 6d 63 f8 3b 45 2b e7 bb e4 93 0e bb 12 39 07 3a
       0.007580212 -0.0070547187 -0.002175563 0.00051583454
000380 61 e7 09 bc f3 a2 13 ba ca 29 59 bc 34 eb 37 bc
       -0.008416981 -0.00056318863 -0.013254592 -0.01122551
000390 82 86 4e bc 33 48 12 bc fa 48 75 3b e2 75 52 bb
       -0.012605311 -0.008928346 0.003742753 -0.003211372
0003a0 f4 d6 61 3b da d6 c2 bb 68 4d de 3b db 63 00 3c
       0.0034460397 -0.0059460225 0.00678413 0.007836307
0003b0 11 4f 89 3b 04 e4 b7 bb 8c 3b ce bc 15 05 0c 3b
       0.0041903337 -0.0056118984 -0.025174879 0.0021365334
0003c0 cb 37 e1 bb e7 d0 1c bc f2 4c 79 ba 9e 4b 88 3c
       -0.006873106 -0.009571291 -0.0009510062 0.01663762
0003d0 88 51 a6 ba d7 dc 32 3c 8f 1f 05 ba 5f 67 06 bc
       -0.0012689093 0.01091691 -0.000507825 -0.0082033565
0003e0 9e de 4b bb 80 41 35 3b cb e4 67 3c f6 50 01 3c
       -0.0031108032 0.002765745 0.01415367 0.007892838
0003f0 0c 33 2f bc 64 1e 48 bc f0 c9 a2 3c 46 1c 84 3c
       -0.010693323 -0.012214277 0.019871682 0.016126763

action_model._discrete_distribution.branches.1.bias f4 [2]
000000 bf f2 25 bb c0 f2 25 3b
       -0.002532169 0.0025321692

action_model._discrete_distribution.branches.1.weight f4 [2, 128]
000000 36 33 35 3c 4f d7 11 b9 cf 55 7c bc 09 a3 0d ba
       0.011059573 -0.00013908486 -0.015401318 -0.0005403017
000010 f5 1c a3 3b c3 6a 08 3d e0 05 7e 3b 2d 6c 8a bc
       0.004977817 0.03330494 0.0038760826 -0.016897285
000020 ad 04 04 bc a1 de 59 bb 78 08 9c 3b bb 6b 4d bc
       -0.008057755 -0.003324427 0.0047617517 -0.012537892
000030 98 db b2 bb 96 66 fe 3c 69 36 bf ba bd fb 89 bc
       -0.0054583065 0.031054776 -0.0014588359 -0.016843671
000040 8e 7d 11 bc a2 e8 ac 3b 6f 47 78 bb 43 16 47 bb
       -0.008880032 0.0052767554 -0.0037884375 -0.003037826
000050 9d 36 2c bb 88 4f 98 bc 69 50 21 bb d8 f1 76 39
       -0.002627767 -0.018592611 -0.0024614579 0.00023550482
000060 33 2c 89 3b 00 fe 8b 3c de 29 8d bb 56 80 e1 3b
       0.004186177 0.01708889 -0.0043079695 0.006881754
000070 e2 5b 13 ba b2 e7 ed 3b 39 27 1c bc 47 ca e8 3b
       -0.00056212966 0.0072602862 -0.009530836 0.0071041915
000080 3b f9 b6 39 94 a5 b9 3b 69 da 5c bb 71 39 bb 3c
       0.00034899436 0.0056654904 -0.0033699519 0.022854539
000090 97 73 42 3c 83 66 08 3c c9 59 85 3a 79 e4 17 bc
       0.011868379 0.008325222 0.0010173853 -0.009270781
0000a0 31 91 07 3b f0 31 19 bc 34 4e 22 bb f2 d8 90 3a
       0.0020685906 -0.009350285 -0.002476585 0.0011050983
0000b0 cc 0b d8 bb a7 b0 50 3c c3 f6 34 bc a1 ca 25 3c
       -0.006593203 0.01273743 -0.011045161 0.010119111
0000c0 b6 51 43 3b a0 a7 84 3c ca 35 4f ba 53 f7 f2 ba
       0.0029803342 0.016193211 -0.00079044385 -0.0018536843
0000d0 0d 70 0e bc aa 9e d1 bb 46 fc 17 3c da 5b 6d 3c
       -0.008693707 -0.006397088 0.009276455 0.014487231
0000e0 2b 6c 21 3b d1 66 11 bc 05 88 0f bc 2e d5 52 3a
       0.0024631124 -0.008874611 -0.008760457 0.00080426305
0000f0 ef e3 d3 bb ae 15 7b 3a e8 09 21 bc de 7a 8b 3b
       -0.006466381 0.00095781207 -0.009829022 0.0042565903
000100 a6 e5 d3 bb e0 f8 11 3c 50 89 7a 3c f8 77 17 bc
       -0.006466585 0.008909434 0.015291527 -0.009244911
000110 53 38 04 bb af a1 ec bb 2c 22 d3 39 b4 f1 07 3b
       -0.0020175173 -0.0072214226 0.00040270516 0.0020743432
000120 ab 5c c3 bb 85 7e 36 bb e9 bd 01 3b 5a f2 84 3c
       -0.0059619746 -0.0027846408 0.0019797033 0.016228843
000130 5b ab c4 3a 8c 7a ea 3b 71 59 9e 3c 92 56 6a bb
       0.0015004681 0.007155722 0.019329758 -0.0035757166
000140 85 0e 6e bb dd bd 65 3a 3a 10 10 3c ae 81 c6 3b
       -0.0036324572 0.00087639486 0.008792931 0.0060579395
000150 6f c2 19 bc 73 18 e4 3a ed e7 4d 3b e2 8b 2f 3c
       -0.0093847355 0.0017402306 0.0031418756 0.010714503
000160 8f 2f 4d 3c 26 e0 55 bc 02 b7 36 bc 3e cf 85 3c
       0.012523546 -0.013053929 -0.011152031 0.016334172
000170 1a 85 b7 3b 51 ad 66 bc b1 ff 14 3c 2f 82 b4 3b
       0.0056005837 -0.014079408 0.009094165 0.005508683
000180 6b 0d 15 3c f3 fa a7 bc 8a 24 9b bb d8 ac d5 3b
       0.009097437 -0.020505404 -0.0047345804 0.0065208487
000190 b8 9b 14 bc 72 26 1f 3c d3 2b e7 39 3e 50 da b8
       -0.009070329 0.009713756 0.00044092405 -0.00010409996
0001a0 a9 68 15 3b fd 25 a6 bb 0e 91 9e bb 2f ea 70 bb
       0.0022797978 -0.0050704465 -0.004839069 -0.0036760678
0001b0 ae 58 03 bc 25 8e a0 bb 55 5b be 3c b2 70 f5 bb
       -0.008016748 -0.0048997574 0.02323691 -0.007490241
0001c0 c4 50 6f bc b7 b6 d7 bb b1 3c 52 bb 83 92 42 3c
       -0.014606658 -0.0065830606 -0.0032079632 0.011875751
0001d0 b3 05 b5 3c af e7 5a 3b 97 7a 2c 3b bb 67 22 3b
       0.022097444 0.0033402254 0.0026318186 0.0024781066
0001e0 e0 b0 6d ba 48 e3 c4 bc 21 8d 54 3c ee 51 39 bc
       -0.0009067189 -0.024034157 0.012973101 -0.0113110375
0001f0 f7 f6 9c bc 7c fc 22 bb 24 7f 63 3b 2d 3f 57 3c
       -0.01916073 -0.002486973 0.0034713233 0.013137621
000200 93 c7 0d bc dd 76 cc 3c 36 4e 96 3a 59 6d 20 3b
       -0.008653539 0.024959022 0.00114674 0.0024479239
000210 41 3f 85 3b fb 57 91 38 22 45 1b 3c c0 57 47 3c
       0.0040663783 6.9305264e-05 0.009476932 0.012166917
000220 77 6b 3a 3b 31 56 17 3c 4a e5 87 3b 0e ad f9 3b
       0.0028445402 0.009236858 0.0041472064 0.0076195067
000230 1e ad b3 bc bc 72 5f bc 5e 58 2f bc 79 39 1c bc
       -0.021933135 -0.013638195 -0.010702221 -0.009535187
000240 2a f9 22 bc 66 08 28 bc 48 c5 1f bc bc 8d 13 3c
       -0.009947101 -0.010255909 -0.009751625 0.00900596
000250 85 4f 50 bc 98 67 91 3a 68 cc b3 3b 8f 51 94 3a
       -0.012714271 0.0011093495 0.0054870136 0.001131581
000260 e1 51 fc 3a 24 8d 31 bc 95 b5 ca bb d3 86 05 3a
       0.0019250476 -0.010836873 -0.006186197 0.0005093638
000270 69 70 2a bc 64 3e b2 3a 0b 03 11 bc 98 28 d5 3b
       -0.010402777 0.0013598916 -0.008850823 0.0065050833
000280 72 85 2a 3c e2 f1 fe ba fa a8 30 3c ad ed a6 bc
       0.010407792 -0.0019450749 0.010782475 -0.020377005
000290 e0 14 48 3c af bf 05 3c 08 14 6a bc 01 89 3d 3c
       0.012212008 0.008163377 -0.014287002 0.011568309
0002a0 0e 96 2c 3c e5 28 e8 3a 5f c3 a1 bb fe e1 01 3c
       0.010533823 0.0017712383 -0.00493662 0.007927416
0002b0 07 45 e5 39 04 6a 80 3c b4 c9 9f 3b 9a b7 68 b9
       0.00043729713 0.015675552 0.00487634 -0.00022193641
0002c0 b6 e7 a5 bb da a0 eb 3b 96 ec c9 3a c8 3a e9 3a
       -0.0050630225 0.007190806 0.0015405591 0.0017794007
0002d0 b6 e0 94 3b 91 c0 4c bc 90 b5 1d bc 7d 40 b5 bb
       0.004543389 -0.012497083 -0.009625807 -0.0055313692
0002e0 ff 2f 59 bc aa 5e b8 bb 95 92 08 ba 64 3d 84 3b
       -0.013256072 -0.005626519 -0.00052098307 0.0040356386
0002f0 1d 7b b5 b8 b6 9f 8e ba b0 ea 98 bb e7 01 6b 3a
       -8.653684e-05 -0.0010881338 -0.004666649 0.0008964822
000300 20 a7 19 3c 36 e4 e0 ba e9 22 31 bb 27 26 76 bb
       0.009378225 -0.0017157856 -0.0027028865 -0.0037559362
000310 58 69 0d 3a a0 a4 12 bb 97 a9 ba 3b 47 db ab bb
       0.00053944206 -0.0022375956 0.005696486 -0.0052446458
000320 ba 4a 98 3c 0f 66 97 3b 4d 4a a5 bb c5 09 7f bc
       0.01859032 0.0046203206 -0.0050442577 -0.015566294
000330 e3 4d c7 b7 0b 1e 2f 3c 06 81 d4 bc 52 75 16 bc
       -2.3758917e-05 0.010688315 -0.02594043 -0.009183245
000340 c4 7f 15 3c ff d6 88 3b ae f6 af bc 84 b5 7f b9
       0.0091247 0.00417602 -0.02147993 -0.00024386315
000350 c7 a5 22 bc 45 50 17 bb be e2 02 ba 58 af 0e 3c
       -0.00992722 -0.0023088616 -0.00049928937 0.008708797
000360 a9 94 b7 b9 d9 37 a9 bb 65 e2 95 bb 23 a2 b9 39
       -0.0003501524 -0.0051641283 -0.0045741075 0.0003540675
000370 70 b3 59 bb 79 24 85 3b ec a6 cd 3b 39 cb e2 ba
       -0.0033218525 0.004063186 0.006276002 -0.0017302997
000380 30 72 7e 3b d9 db bc b9 93 ec 39 3c 21 20 51 3c
       0.0038825385 -0.00036021954 0.011347908 0.012764008
000390 22 4e 05 bc 97 16 18 3c cb 89 16 3c 9e 71 91 39
       -0.008136304 0.00928273 0.009188126 0.00027741207
0003a0 82 21 fe bb e1 b5 91 bb 74 59 f2 bb 2a 8e 7d ba
       -0.0077554593 -0.0044467305 -0.0073959175 -0.0009672368
0003b0 85 3b ed 3b 4b 3c 37 3c 22 11 9e bb 40 1e 35 3a
       0.0072397613 0.011183809 -0.0048238197 0.00069091097
0003c0 f2 40 ff 3b 6e aa c6 3a 1e 19 42 bc 4f 4f 1d 3c
       0.0077897245 0.0015156993 -0.011846809 0.009601428
0003d0 1d e8 a2 bb 34 ec 45 bc ae a7 db 3b 41 f6 2d 3c
       -0.0049715177 -0.012080241 0.0067033386 0.010617794
0003e0 3a 56 6e 3b 2e 41 39 bb 59 1e bf ba e9 8b 10 3b
       0.0036367313 -0.002826761 -0.0014581188 0.002205605
0003f0 88 7e 15 3c be 74 b4 3c 2e 5e 13 3c ea 1e 9b bc
       0.009124406 0.022028323 0.008994622 -0.01893564

action_model._discrete_distribution.branches.2.bias f4 [2]
000000 e4 e4 14 3b d1 e4 14 bb
       0.0022719437 -0.0022719393

action_model._discrete_distribution.branches.2.weight f4 [2, 128]
000000 0f 4f ef 3c 78 01 49 3c 97 a5 2d 3c dc 85 c1 bb
       0.029212503 0.012268417 0.010598562 -0.00590585
000010 d6 24 71 bc 8c 61 fa 3b 48 1d 19 bc 18 00 17 bc
       -0.014718255 0.007641023 -0.00934536 -0.009216331
000020 85 be 25 3c 90 a1 1b ba b1 57 59 ba 36 b9 64 3c
       0.010116224 -0.00059368555 -0.000829096 0.013960173
000030 9d 67 25 bc 89 3f 3c 3c 5c 0a cf 38 8f 96 66 3c
       -0.010095504 0.011489757 9.872459e-05 0.014073982
000040 1c 01 2c bc 2b cd fa 3b 3b 52 29 3c cb 8d 35 3c
       -0.010498311 0.0076538525 0.010334547 0.011081169
000050 ff 07 f8 3b 06 1c 29 3c 98 52 8b 3b 35 77 2a 3b
       0.0075693126 0.010321623 0.0042517893 0.0026010994
000060 5a 32 e1 3b fd 3b 3e bb 65 92 bb b9 fe f1 aa ba
       0.0068724575 -0.0029027455 -0.00035776492 -0.001304209
000070 4e 83 03 ba 2e ef 2f bc fd 92 72 3a 00 c3 32 bb
       -0.00050168193 -0.010738177 0.00092534703 -0.0027276874
000080 ed dc 7c 3b 10 7e f4 ba ae c5 0c 39 68 fb 63 3c
       0.003858383 -0.0018653292 0.00013425082 0.01391492
000090 94 7a 66 3c 13 3e bc bb 3a fb 6d 3b a5 9f 15 3c
       0.014067311 -0.0057447045 0.0036313073 0.0091323005
0000a0 e6 b2 23 bc 9c f5 4c bb 55 cb 1b bc fb bd d0 bb
       -0.009991383 -0.0031274324 -0.009508927 -0.0063703037
0000b0 7e 8f 6c bb c8 40 b0 3b 73 ef ba bb eb ca 84 b8
       -0.003609627 0.0053788163 -0.005704814 -6.332047e-05
0000c0 a5 d1 03 3c 1e 4a 1c bc ee 84 31 bc 7f aa ab 3b
       0.008045589 -0.009539155 -0.010834916 0.0052388306
0000d0 2d e6 44 bc 6b 75 92 3b 64 e0 08 3c f2 e7 87 3b
       -0.012017769 0.0044695637 0.00835428 0.004147523
0000e0 a5 86 14 bc a1 0f ee 3c 59 ba e4 bb 5e 26 82 3a
       -0.009065305 0.029060187 -0.006980222 0.0009929647
0000f0 d1 d2 b5 bc 05 8b 5b bc 50 90 25 bb 01 82 29 bc
       -0.022195252 -0.013399844 -0.002526302 -0.010345937
000100 18 aa 25 3c 8c 65 25 3c 5d 47 10 bc 22 01 0d 3c
       0.010111354 0.010095011 -0.008806077 0.008606227
000110 d1 c8 e3 ba b7 1f e4 3b b4 bd b2 bb eb d6 04 bc
       -0.0017378574 0.0069617885 -0.0054547433 -0.008107881
000120 c0 8f 22 bc 52 b5 18 3b a8 9a a6 b9 b7 79 98 ba
       -0.009921968 0.0023301435 -0.00031777215 -0.0011632954
000130 a7 3d 06 3c 64 d0 cd bc cd 4d 5e bb 52 2d 1b 3c
       0.00819341 -0.025123782 -0.0033920885 0.009471254
000140 fd a1 df bb 84 aa 23 3c 20 eb 90 bb 3a 14 66 bc
       -0.0068247304 0.009989385 -0.0044225603 -0.014042908
000150 78 96 60 bc 75 da 01 3a 81 c8 bb 3c ef f6 5a 3c
       -0.01370775 0.0004953512 0.022922756 0.013364538
000160 fc 7f fe 3b e8 e3 25 bc 13 84 55 3c 2b 6b 41 b9
       0.007766722 -0.010125138 0.013031977 -0.00018445837
000170 fd fd 03 bb f7 40 6f 3c fb b9 44 3b 6b cc 98 3b
       -0.0020140402 0.014602891 0.003001808 0.0046630404
000180 9f a9 40 3c 4d b9 b5 ba 19 6a 1b 3c 4e bf 8b 3b
       0.011759191 -0.0013864428 0.009485745 0.0042647487
000190 67 db 05 3b e7 d0 9a ba fb 62 ab bb 45 28 76 3c
       0.0020424963 -0.0011811525 -0.0052303053 0.015024249
0001a0 97 53 93 3b ec 8b 0f b9 48 cc 25 3b af ed dc 3c
       0.0044960487 -0.00013689668 0.0025298763 0.026968805
0001b0 68 70 d2 bb 77 23 68 3b 49 0c b0 bb 2f 6d 1e bb
       -0.0064220913 0.003542153 -0.0053725583 -0.0024173965
0001c0 e2 5e bc bb 42 90 58 3c e5 8d f2 bb f6 16 a7 3c
       -0.0057486156 0.0132179875 -0.007402169 0.02039669
0001d0 cf db 4a bc 0b 8c 17 bc 86 d3 3b 3c 74 d2 87 bb
       -0.012381508 -0.009249697 0.011464005 -0.004144961
0001e0 50 e7 66 bb 97 67 62 bc bc a1 cc bb 9b 68 ef 3b
       -0.0035233088 -0.013818643 -0.006244866 0.007306171
0001f0 a8 4f 88 ba c2 b5 ca 3b e7 d5 72 3c cc 0c 4a 3c
       -0.0010399716 0.006186218 0.014821506 0.012332153
000200 d7 4b 7f 3a bc 07 48 bc a3 fb 5d 3c 1b 67 e0 3c
       0.0009738779 -0.012208875 0.013548764 0.027392915
000210 33 64 9b 3a 5d 64 83 3c fe 07 12 ba 77 2e 43 3c
       0.0011855423 0.016039068 -0.0005570649 0.011912934
000220 11 fe 6e bb e2 74 92 bb b8 8d 13 bb af dd e4 bb
       -0.0036467353 -0.0044695 -0.002251489 -0.0069844346
000230 30 89 f7 3c cc 71 b7 b9 44 39 12 bb e3 4d 53 bc
       0.030216783 -0.00034989265 -0.0022311965 -0.012896988
000240 84 1a 53 3c a5 7b 80 bb da fd 21 3c 42 3e 31 bc
       0.01288474 -0.0039209896 0.009887183 -0.010818066
000250 1f 0f 16 bc 28 97 80 bb 11 a7 81 3c 71 cf d2 39
       -0.009158879 -0.003924269 0.015826734 0.00040208877
000260 97 2d b8 bc 4a 0b a4 3c ec 9c 03 3b e4 f0 1f 3b
       -0.022482676 0.020024914 0.0020082546 0.0024405057
000270 50 9f 33 3c cc 20 f9 3b b7 90 d3 b9 86 ea 48 3c
       0.010963276 0.0076027866 -0.00040352877 0.012262946
000280 a2 51 3d 3c 78 51 12 ba dc 94 89 3c d4 0a 4a bc
       0.011555107 -0.0005581598 0.016794614 -0.012331683
000290 06 1e 56 3b bb 5c b5 bc 07 84 07 bc 89 64 09 bc
       0.0032671704 -0.022138944 -0.008271224 -0.008385786
0002a0 6e 8c 23 ba 22 da 0a bc 98 de 0c 3b 93 2a 53 3a
       -0.0006238882 -0.0084748585 0.002149498 0.0008055355
0002b0 2a 67 24 bc 27 3c 11 3c d7 86 3d bc 06 99 64 3c
       -0.010034362 0.008864439 -0.011567793 0.013952499
0002c0 a2 d6 1e bc ee 27 ca ba de 86 50 3c e7 05 c1 bb
       -0.009694727 -0.0015423277 0.012727467 -0.005890596
0002d0 a6 e5 c8 b9 04 90 35 3b 1d 62 c3 3c f8 e5 97 bc
       -0.00038318074 0.0027704248 0.023850495 -0.018542275
0002e0 fe 94 6b bb de 38 c5 bc 7e 6b d6 bb 55 33 83 bc
       -0.003594696 -0.024074968 -0.006543576 -0.016015688
0002f0 c7 54 b9 3c fd 9f 19 3c 33 2f f8 3a d0 b3 1c 3c
       0.022623433 0.009376523 0.0018934965 0.009564355
000300 44 46 03 bc 18 6f a1 3b 45 f9 8f bc 64 6c 3e 3c
       -0.008012358 0.0049265735 -0.017574916 0.011622522
000310 3d 81 48 3c 57 09 7e 3b af b9 e2 ba cc 11 94 3c
       0.012237844 0.0038762891 -0.001729777 0.018074892
000320 6e 31 91 bb b2 1e 6a bc 62 a0 3d 3c 68 f0 43 3b
       -0.0044309413 -0.014289545 0.011573883 0.0029897932
000330 4c 64 a0 bc b1 6d 0c 3c 9c 13 29 bb f8 0a 95 bc
       -0.019579075 0.008571074 -0.0025799042 -0.018193707
000340 bf 97 95 bc 5c 83 fe bb 4e 21 27 3c 28 e3 92 3b
       -0.018260835 -0.007767124 0.010200812 0.0044826455
000350 fe ca 5c b9 0d 59 00 3c 29 6a f6 bb 7b 66 89 3c
       -0.00021056455 0.007833731 -0.0075199795 0.0167725
000360 9d 49 0c 3c 34 66 72 bc 4d 51 ad 3b f3 8e 72 bb
       0.008562473 -0.014794875 0.005289233 -0.0037011474
000370 7a 19 85 bc cd 65 cd bc 0e 18 d3 3b b1 04 65 bc
       -0.0162475 -0.025072956 0.0064420765 -0.013978169
000380 09 43 9d 3c fc b0 b0 bb 0b 40 19 bc 32 ab e1 3b
       0.019197004 -0.005392192 -0.009353648 0.006886863
000390 92 2d fc bb ba 56 3e bc 86 2f 1b bb 3a 2b 37 3a
       -0.007695862 -0.011617357 -0.002367945 0.0006987337
0003a0 67 87 d4 bb 5a b2 8e 3c 71 42 c5 bb bb 33 6b bc
       -0.006485868 0.017419029 -0.0060198833 -0.014355595
0003b0 8c 4a f6 bb b8 79 c3 bc b7 05 a4 3b 82 68 78 bc
       -0.007516211 -0.023861751 0.005005564 -0.015161635
0003c0 b4 13 a3 bc 18 b8 00 3c 25 5b 21 bc 25 56 a0 bc
       -0.019906856 0.007856391 -0.009848391 -0.019572327
0003d0 57 08 58 3b 68 73 f5 b9 de 3a 3b 3c aa 66 8d bb
       0.0032963955 -0.00046816026 0.011427609 -0.004315217
0003e0 e3 0f 0a 3c f4 4c b4 3a 1b fc 4a 3b d3 94 c9 ba
       0.008426639 0.0013755844 0.003097302 -0.0015379436
0003f0 1a ff ec 3b 1b 22 99 bb c7 00 22 bc 17 08 32 bb
       0.007232559 -0.004673255 -0.009887881 -0.0027165466

action_model._discrete_distribution.branches.3.bias f4 [2]
000000 0b 6a 44 bb 14 6a 44 3b
       -0.0029970433 0.0029970454

action_model._discrete_distribution.branches.3.weight f4 [2, 128]
000000 6b c1 0d bc fb 07 db bb 89 23 c0 3b 92 3f cf bb
       -0.0086520715 -0.006684301 0.005863611 -0.006324717
000010 2a f1 64 38 60 c0 6a bb 14 01 17 3a 8c 3b 69 bc
       5.4584038e-05 -0.003582023 0.00057603535 -0.0142353885
000020 12 15 23 3b cf 61 b3 ba 88 bb ec 3a 3a 7f 68 3c
       0.0024884385 -0.0013685765 0.001806126 0.014190489
000030 82 47 b2 3c 5f 1e 8f 3b 39 2c 76 ba 35 fe ca 3a
       0.021762613 0.004367634 -0.0009390745 0.0015487137
000040 04 e8 a8 bb d7 50 54 bb 57 6c 8d bc 68 e3 ac 3b
       -0.0051546115 -0.0032396817 -0.017263575 0.0052761324
000050 34 7a 12 bc 95 fc 10 3c 35 79 74 3b 11 c7 96 3c
       -0.008940268 0.008849283 0.003730369 0.01840547
000060 f2 71 a8 b9 79 ce 81 bc 6b 24 5f bb b2 70 73 bb
       -0.00032128353 -0.015845524 -0.0034048806 -0.003714603
000070 82 14 d2 b9 1a 2b c5 3b 7b 29 63 3a ed cd fc 3b
       -0.000400696 0.006017101 0.0008665544 0.007714978
000080 a2 fc bb b8 9d 99 33 3b 88 fe 0d bb 92 eb 31 3a
       -8.9639114e-05 0.0027404793 -0.0021666605 0.0006787117
000090 c2 7d ab bb 77 13 6a 3c fa 89 ca 3b d2 e9 da 3b
       -0.0052334974 0.014286867 0.006180999 0.0066807056
0000a0 15 5b 82 3c 26 86 76 3c fc 40 a7 bc 9b 28 04 3b
       0.015912572 0.015046632 -0.02041673 0.0020165804
0000b0 f9 f7 33 bb 3e 68 5b 3c e7 6c 13 3b 44 2c 36 3b
       -0.0027461036 0.0133915525 0.002249533 0.002779738
0000c0 e3 02 f7 3b c4 53 d9 3b a0 04 7a 3b e9 4f 73 bb
       0.007538186 0.0066323 0.003814973 -0.0037126488
0000d0 94 aa 08 bc ef a0 87 bb a3 34 37 bc c0 71 05 bc
       -0.00834145 -0.004139058 -0.011181983 -0.008144796
0000e0 81 46 bb bb 80 75 4f bc e1 45 e2 3b 4a 6f b5 3b
       -0.005715192 -0.0126622915 0.006905303 0.0055369483
0000f0 22 65 73 bc f9 10 8d bc 20 91 7b bb bc ee d9 b9
       -0.014855655 -0.017220007 -0.0038386062 -0.00041567336
000100 25 81 68 3c 2c 44 90 3b f6 35 82 3c 4c 23 98 bc
       0.014190947 0.004402658 0.015894871 -0.018571518
000110 1e 1d 7d 3a cf aa 10 bc 51 e0 b7 3b b0 38 b0 3b
       0.0009655523 -0.008829786 0.0056114574 0.0053778514
000120 72 79 ce bb 2e b6 11 3c 81 71 5c 3c 66 16 b6 3a
       -0.0063010985 0.008893533 0.013454796 0.0013892173
000130 39 04 54 3c 0d 34 e6 3b d7 6e 0c bb 54 bd c0 b8
       0.01294046 0.007025248 -0.002142837 -9.1905385e-05
000140 7c 45 cd bb b4 53 31 bb 5b 70 9b ba d6 28 55 bc
       -0.0062643867 -0.0027057948 -0.0011859046 -0.013010224
000150 8a bc dd 3a e6 63 1b bc 63 54 6d bc 8d 65 e6 bc
       0.0016917151 -0.009484267 -0.014485451 -0.028124595
000160 db 87 2a 3c fc 8b 28 bc ee 0f 09 3c 5a 8c b2 bb
       0.010408367 -0.010287281 0.008365614 -0.00544886
000170 2f 75 50 bb c0 6b 54 bc 3e 91 62 bc 6e 36 9e 3b
       -0.0031808128 -0.012965143 -0.013828574 0.004828266
000180 e7 39 0c bc 5d e1 d9 39 fe 91 5c 3b a8 71 78 3b
       -0.008558727 0.00041557374 0.0033656354 0.0037909541
000190 7c af 66 bb 50 ec dd ba e8 a6 91 3c 88 1f 08 3c
       -0.0035199812 -0.0016931389 0.017779782 0.008308299
0001a0 d8 03 38 3b 30 50 04 3b f6 79 71 3c d8 c5 8d 3c
       0.0028078463 0.0020189397 0.01473855 0.017306253
0001b0 47 f1 34 bc 58 e3 11 3b 99 33 fd 3b 2d d8 84 3b
       -0.011043853 0.0022260752 0.007727098 0.0040540905
0001c0 bf 24 14 bc fe 82 c2 bb 1d d9 41 3c 02 bd 6e bc
       -0.009041964 -0.0059360256 0.011831549 -0.01457143
0001d0 cd 07 31 3b 25 53 5e 3c 5f ed 85 bb cf a3 da 3b
       0.0027012706 0.013569628 -0.0040871347 0.0066723595
0001e0 2f a9 24 bc d0 9a 0b bc 07 47 e9 bb d1 29 68 3c
       -0.010050102 -0.008520797 -0.007119063 0.014170126
0001f0 27 0c c6 3c 95 34 34 3c ec 23 29 bc b6 d3 27 3b
       0.024175717 0.010998865 -0.010323506 0.0025608367
000200 f4 75 a5 bb b2 8b 0d ba 09 85 f0 3c 7b f2 5d bc
       -0.0050494615 -0.00053995394 0.029360311 -0.013546581
000210 ca 56 73 3b 87 e2 ac bb a4 8f 87 bb 09 eb 28 bb
       0.0037130588 -0.0052760276 -0.0041369963 -0.0025774857
000220 61 77 ef 3b cc ca 23 bc cc e1 44 3c ac c4 5c 3b
       0.0073079322 -0.009997081 0.012016725 0.0033686562
000230 4e d1 fa bb 64 de c0 39 5a e0 b4 3b a7 d4 ac 3c
       -0.0076543456 0.00036786788 0.005519909 0.021097494
000240 fd ce a1 b9 39 80 80 3c 23 a8 f3 bb cb 89 72 b9
       -0.0003086253 0.015686141 -0.007435815 -0.0002313025
000250 40 36 2b bc cf 9d d2 3b b8 40 b5 bc 37 ec c9 bb
       -0.010449946 0.0064275037 -0.022125587 -0.006162192
000260 80 b6 07 bb 11 bd 57 3a 44 53 99 3c ff c8 13 3c
       -0.0020708144 0.0008229772 0.018716462 0.009020089
000270 e4 ae ca 38 f2 73 3d 3c f7 57 ff bb 2b f5 2c ba
       9.6646865e-05 0.011563288 -0.0077924686 -0.0006597812
000280 2a 85 2d bb 0a 3b 69 3b 57 5c d5 bb 0a b4 92 3c
       -0.0026477077 0.0035588169 -0.006511252 0.017908115
000290 ab 9d 8f 3c b5 46 62 3b 81 f3 98 3c 55 ad 54 3c
       0.017531237 0.0034527008 0.0186708 0.012980779
0002a0 55 18 d8 3b 57 c7 ef bb af 44 7f bb f5 2c ed bb
       0.0065946975 -0.0073174643 -0.003895085 -0.0072380253
0002b0 03 55 16 3c dd 4d 37 bb 5c d9 00 bc e6 e4 a7 ba
       0.009175542 -0.0027969994 -0.0078643225 -0.0012809306
0002c0 7a 66 cc 3a 1b 6c 98 bb 77 da 99 3b 04 d0 d3 3b
       0.0015594505 -0.004651559 0.0046952325 0.0064640064
0002d0 04 94 a3 3b 25 74 33 bc f2 46 a1 bb 0f 55 27 3c
       0.00499201 -0.010952984 -0.0049217874 0.010213151
0002e0 26 cc 63 bb d5 f8 b0 3b 05 e9 89 bc 6e 2e 22 3a
       -0.0034759133 0.005400757 -0.016834745 0.0006186728
0002f0 e5 11 20 3c 6c 4c ef 3c 52 fb 2f bb f8 f0 89 3b
       0.009769891 0.029211245 -0.002685268 0.004209634
000300 d1 84 d5 3c 60 42 6d bc a0 83 6d bc 5e 91 93 3c
       0.026064308 -0.014481157 -0.014496714 0.018013652
000310 80 e8 15 bb f2 0d 4d bb c0 49 04 3b fa d2 95 3b
       -0.0022874177 -0.003128883 0.002018556 0.0045722695
000320 0a 12 14 3c 38 4a 33 3c 33 fe 76 bc 29 21 96 39
       0.009037504 0.010942988 -0.015075254 0.00028634936
000330 bb 2d 50 3c fd eb 8a 39 4e 83 e6 3b 1e 85 d1 bb
       0.0127062155 0.00026497236 0.0070346957 -0.0063940426
000340 f8 68 65 bb f0 b9 1a 3b 4a 03 26 bb aa 95 26 3c
       -0.0035005193 0.0023609363 -0.002533155 0.010167519
000350 1a c0 89 ba bf de 83 3c 67 9e 6a ba e9 99 db 3c
       -0.0010509521 0.016097425 -0.00089499954 0.026806789
000360 bb a7 81 3b 9f ae f1 bb 78 6e 83 bc ed 0c 11 bc
       0.0039567626 -0.007375553 -0.016043887 -0.008853179
000370 eb 18 82 3a 22 e2 3b 3b 7b 8d 3d bc b5 f1 31 3c
       0.0009925639 0.0028668721 -0.011569376 0.01086085
000380 51 7e 8d bc e3 c7 5c bc 0d d4 26 3c a1 40 3b bc
       -0.017272146 -0.013475391 0.010182393 -0.011428983
000390 70 bd 37 bc f9 41 25 bc e1 3f 54 3c e3 8a 0f 3b
       -0.011214599 -0.01008653 0.012954683 0.0021902851
0003a0 1e e4 d8 ba 97 ed 5e 3c 26 f5 46 bc af 8e 37 bc
       -0.0016547476 0.0136064505 -0.012143409 -0.011203452
0003b0 05 00 14 3b 52 9b 06 3c 53 50 be 39 fa 27 18 3c
       0.002258302 0.008215742 0.0003629947 0.009286875
0003c0 1a a2 b6 3b d5 4d ca bb ae c0 92 bc e0 d8 f3 3a
       0.005573523 -0.006173829 -0.017914142 0.0018604062
0003d0 15 f3 ae bc ba ba 0f 3c 6d 91 a6 bb 4e d4 e8 ba
       -0.021356145 0.008772546 -0.005083254 -0.0017763467
0003e0 ac b3 10 3b f6 e8 b6 bb dd 11 95 3c 4b ff 97 bb
       0.002207975 -0.0055819703 0.018196994 -0.0046385876
0003f0 3c 99 5c bc 02 f3 1e bc fb 43 92 3a 16 97 53 3c
       -0.013464268 -0.009701492 0.0011159176 0.01291444

action_model._discrete_distribution.branches.4.bias f4 [2]
000000 9b 14 1f bc a0 14 1f 3c
       -0.009709503 0.009709507

action_model._discrete_distribution.branches.4.weight f4 [2, 128]
000000 64 7d 3a bc 80 73 a7 3b 51 62 4a 3c d2 eb cc 3b
       -0.0113824345 0.005110204 0.012352542 0.006253698
000010 b3 14 d6 bb c5 1c 03 bb b4 13 a8 bc 40 78 8f 3c
       -0.0065332293 -0.0020006162 -0.020517208 0.017513394
000020 80 d8 a1 ba 0c 4b 52 38 c9 43 11 bc a7 a9 c0 ba
       -0.0012347847 5.0137794e-05 -0.008866259 -0.0014698998
000030 5e 51 ab bc 6a 79 06 bb dc 85 6e 3c 00 17 f3 3b
       -0.020912822 -0.0020519146 0.014558282 0.0074185133
000040 b2 39 7d bb e0 e0 9f 3a 8d a9 51 bb 4b c8 25 bc
       -0.0038639125 0.0012197755 -0.003199193 -0.010118554
000050 3c 9f 82 3b fb 1a 67 3b 57 e0 c4 3a 06 da 15 3c
       0.0039862674 0.0035263884 0.0015020472 0.009146219
000060 69 6e 49 3c 6e d4 c6 3b f4 87 b2 bb 77 e2 89 3b
       0.01229439 0.006067804 -0.005448336 0.004207905
000070 06 24 61 bc ae 17 bb 3b 45 a8 0e bc ab 9e e3 3b
       -0.013741499 0.00570961 -0.008707111 0.006946405
000080 18 67 1d bc 7e 95 a4 3c 3d c5 e2 3b c0 ff 52 bc
       -0.009607099 0.020090815 0.0069204853 -0.012878358
000090 a7 a2 69 bc 43 9a a5 bb 89 9f 8d ba 9e 5b 2a 3c
       -0.014259971 -0.00505379 -0.0010804991 0.01039782
0000a0 ee 92 2b bc 95 69 0e 38 1d 97 cc 3b 18 48 5b 39
       -0.0104720425 3.395377e-05 0.0062436 0.00020912325
0000b0 30 38 87 bb a9 de 00 bb a7 8b b7 3c 42 23 e1 3b
       -0.004126571 -0.0019663966 0.022405459 0.006870658
0000c0 fe ba c1 bc 61 7b 49 3c 5c ad 7b 3b 7d 61 34 3b
       -0.023648735 0.012297482 0.003840289 0.0027523928
0000d0 60 47 7f 3c c1 ee 81 bb 31 89 aa 3b b6 7d 43 3c
       0.015580982 -0.0039652293 0.005204343 0.011931827
0000e0 70 2f 4e 3c 55 e3 dc bb 15 08 3b bc aa 43 61 bc
       0.012584552 -0.0067409673 -0.011415501 -0.0137490425
0000f0 5a bc fa 3b 26 8e d8 ba ee 5d a5 3b b1 ae 41 3c
       0.007651848 -0.0016521856 0.0050465977 0.011821435
000100 4e 1e a3 bb 0e b5 a6 3c 6f cb 8c bc b7 a7 46 bc
       -0.004977978 0.020350005 -0.017186848 -0.012124947
000110 e0 e9 85 3b ea db 19 3b f7 15 67 bb 5b 14 a8 ba
       0.004086718 0.0023477026 -0.0035260895 -0.0012823449
000120 84 87 93 ba de 64 55 3a 51 13 40 3b f4 62 0d 3b
       -0.0011255597 0.00081403356 0.0029308388 0.0021573873
000130 cd e7 8b 3c 4b 7c df ba f4 4b 94 ba 97 79 66 bb
       0.017078305 -0.0017050592 -0.001131414 -0.0035167688
000140 ae a8 42 bc 3a 2e ad 3b 05 57 64 3c ae 0c d7 3b
       -0.011881037 0.0052850517 0.013936763 0.006562791
000150 c7 61 d7 3b 26 2e 9c bb d8 37 62 bc e0 75 87 38
       0.0065729353 -0.0047662435 -0.0138072595 6.4592576e-05
000160 59 4c 2c 3c bc 8a 21 bc 06 c8 57 3c 5d cd 11 bb
       0.01051625 -0.009859737 0.013170248 -0.002224765
000170 83 0d 7f bb 96 2a 81 bb 22 37 0c bc b7 47 9c bb
       -0.0038917966 -0.003941844 -0.008558067 -0.0047692913
000180 ef 63 39 ba 49 26 1d bc 01 4e 65 bb 76 0b 1f 3b
       -0.0007072081 -0.009591647 -0.003498912 0.0024268306
000190 a7 a5 20 bb 90 0d a0 bb 72 be 41 3b 19 b4 bf bc
       -0.00245128 -0.0048844293 0.0029562977 -0.023401307
0001a0 6c 1a 1e 3c 1e c1 08 bc ec fc f0 3b d6 2e dd 3b
       0.009649854 -0.008346824 0.0073543694 0.006749968
0001b0 6d 06 cc 3b fb 84 76 bc 99 9a a8 3a 5e af 77 ba
       0.006226352 -0.015046353 0.0012863457 -0.0009448434
0001c0 77 d4 8d 3c 6b 44 fc ba a2 ac 85 bb e6 b1 80 3c
       0.017313225 -0.0019246464 -0.0040794173 0.015709829
0001d0 b7 66 85 bc 0e 42 77 bb 8b b6 61 3c e0 63 68 bc
       -0.01628433 -0.003772858 0.013776432 -0.014183968
0001e0 e5 6e be 3a 76 b5 97 3b d1 2d 53 3b 0b 93 f4 bb
       0.0014528899 0.004629786 0.0032223354 -0.007463818
0001f0 06 e5 dc 3b ba 95 62 3c 60 66 35 bc 7a f3 9d 3c
       0.006741169 0.013829643 -0.011071771 0.019281138
000200 fe 20 78 bb 70 b3 51 3c f1 7b f5 ba 0f b3 05 3c
       -0.0037861462 0.012799129 -0.0018728954 0.008160367
000210 6e fe e4 3b 6c b3 71 3c ee 92 25 bc 22 ff 49 bc
       0.006988338 0.01475225 -0.010105832 -0.012328895
000220 ac c8 04 3b 96 19 b6 3b 86 50 0d bc 3e 7c ee bb
       0.0020261211 0.0055572493 -0.008625155 -0.0072779944
000230 98 1a 37 3c e3 a4 bf 3b ee 72 54 38 46 32 b7 bc
       0.011175774 0.0058485135 5.0651775e-05 -0.02236284
000240 39 93 04 3c 14 35 3a bc af c7 0a 3c c3 f4 09 3c
       0.008091741 -0.011365194 0.00847046 0.008420172
000250 ec 48 8a 3b 4f 71 33 bc d2 18 a1 bc 0d 40 90 3c
       0.0042201187 -0.010952308 -0.019665156 0.017608667
000260 ae 73 1b 3b cd 85 df 3c 17 7c 08 3c db 33 63 3c
       0.0023720074 0.02728548 0.008330367 0.013867344
000270 0d f4 92 bb ce 35 58 bb a3 09 e9 3b cf 6e 69 ba
       -0.0044846595 -0.0032991054 0.0071117445 -0.00089047564
000280 b4 51 a4 3b da 88 94 3b b4 bf 69 bb 71 01 0e bc
       0.0050146226 0.0045329155 -0.0035667242 -0.008667336
000290 48 bf ad 3c fe e7 81 3b fc 48 0f 3d 27 f5 35 bc
       0.021209374 0.003964423 0.034981713 -0.011105812
0002a0 db dd 26 3c 9f f2 37 3b 6a f2 19 3c d5 b1 19 3b
       0.01018473 0.0028068197 0.009396175 0.0023451943
0002b0 75 69 1c 3a 48 8c 93 3c aa ce 75 bc 46 5d 9d 3c
       0.0005966642 0.018011227 -0.015002886 0.019209515
0002c0 c9 4c 9b 3b 33 53 59 bc 7d 33 92 bc 64 37 15 bc
       0.004739378 -0.013264465 -0.017846817 -0.009107444
0002d0 b7 d2 0e 3c 8a e3 0b bc ca ba 8a bb e2 42 34 bc
       0.0087172305 -0.008538136 -0.004233693 -0.011002274
0002e0 4d dc e5 bb e7 ef 2a 3c db 04 d8 ba 0a 23 8a 3c
       -0.0070147873 0.010433174 -0.0016480939 0.016862411
0002f0 aa ab 97 bc d7 71 06 3c 6f 1a d8 ba a3 c7 5b 3b
       -0.018514473 0.0082058525 -0.001648737 0.003353574
000300 89 0c 74 3b 2e 3d 36 bc 90 72 cc 3c ea 3e af ba
       0.0037238917 -0.011122985 0.024956971 -0.001337019
000310 4a b4 1a bb c3 80 5a 3c ed e2 13 3c 39 75 39 3c
       -0.0023605996 0.013336363 0.009026271 0.011319452
000320 1a 59 e1 37 b2 c3 31 3c 01 1e 8a bc 10 b2 40 bc
       2.6863581e-05 0.01084988 -0.01686001 -0.011761203
000330 73 23 eb bc 31 99 06 3c f1 5c a7 ba 08 bb c1 3a
       -0.028703427 0.008215235 -0.0012768788 0.0014780471
000340 16 81 a3 bc 6b 2a 13 3c 22 dd bc 3b 11 97 30 bc
       -0.019959014 0.008982281 0.005763666 -0.010778205
000350 b9 2f ea b8 86 bb 94 3c 4d 0d 33 3b 77 50 96 3c
       -0.000111668785 0.018155824 0.002732116 0.018348916
000360 2d 86 d7 3b ad 03 2b 3c f7 99 e5 ba b2 bc a7 bc
       0.0065772743 0.010437888 -0.0017517199 -0.02047572
000370 28 f1 84 3a 70 1c a9 bc ef 13 81 3c 46 b2 45 bc
       0.0010142671 -0.020643443 0.015756575 -0.0120664295
000380 3d 70 e4 3b 11 8e 96 3c 40 c5 84 3a 4f b3 62 3c
       0.0069713877 0.01837829 0.0010129586 0.013836696
000390 55 9a 80 bb 03 b4 27 3a b0 60 b0 3b 9b 8c 92 3b
       -0.003924648 0.0006397368 0.00538262 0.004472328
0003a0 fc c2 28 3c 1b 7a 6b 3b e5 3c ba 3a 23 c3 06 3c
       0.010300394 0.0035930935 0.0014208822 0.008225235
0003b0 17 0a 32 bb f0 b5 b0 3b 1a 37 04 3c f3 cc 0d bb
       -0.0027166659 0.0053927824 0.008069778 -0.0021637052
0003c0 36 18 96 bb 70 78 1c 3b 2b cb 19 3c 52 02 49 bc
       -0.004580523 0.0023875497 0.009386818 -0.01226862
0003d0 cc 46 a9 3b f5 a0 2c 38 25 0e 6a ba 7a 9f 64 3c
       0.0051659103 4.11579e-05 -0.00089284993 0.013954038
0003e0 ab a2 4a 3c 32 d0 d4 3a 00 e8 4c 3c 95 db 53 3c
       0.012367885 0.0016236363 0.012506485 0.01293077
0003f0 af b2 12 3c cb f5 c0 bc 36 75 df bb f7 fb 7d bc
       0.008953734 -0.023554703 -0.0068193926 -0.015501968

discrete_action_output_shape f4 [1, 5]
000000 00 00 40 40 00 00 00 40 00 00 00 40 00 00 00 40
       3.0 2.0 2.0 2.0
000010 00 00 00 40
       2.0

network_body._body_endoder.seq_layers.0.bias f4 [128]
000000 09 51 a2 3a ac 8d ad bb 1c 8f 72 3c 42 05 17 3b
       0.001238377 -0.0052964296 0.014804628 0.0023043905
000010 99 40 18 3b 49 76 f0 bb 8e d8 f9 3b 88 c4 db bb
       0.0023231863 -0.0073383194 0.0076246923 -0.006706778
000020 0e f5 41 bc c7 8b 80 bb 71 e3 ba 3b b7 08 33 3c
       -0.011838211 -0.0039229128 0.0057033827 0.010927371
000030 55 b9 3e 3b 2f 14 5d 3b 07 a1 70 bb 66 1b d9 ba
       0.0029102166 0.0033733954 -0.0036717074 -0.0016563952
000040 e0 5d d6 3b 7b 26 64 3b ac dc 0a bc 5b 6f 59 bb
       0.0065419525 0.0034812975 -0.008475464 -0.0033177945
000050 1a 9f 32 b8 60 8f 0a bb 5d 09 89 3c 36 64 d1 bb
       -4.2586682e-05 -0.0021142587 0.016728098 -0.00639012
000060 de 64 21 bb b0 d8 0a 3a c5 d1 ac 3b 51 6e 79 bb
       -0.0024626772 0.0005296571 0.00527403 -0.0038060138
000070 7f 01 19 3c 0f 47 41 bc e1 23 32 ba fe b9 ec 3b
       0.009338736 -0.011796727 -0.00067955075 0.0072243204
000080 86 d1 b7 ba d3 83 19 3b 34 d0 9e bb 87 24 b7 bb
       -0.0014024235 0.002342452 -0.004846597 -0.005589071
000090 45 17 8e bb b7 21 fd bb c6 8e c7 bb 0a 0f 0c bb
       -0.00433627 -0.0077249664 -0.006090018 -0.0021371269
0000a0 ef 96 05 bc 0c e4 bf bb ac f2 de ba d3 80 96 bb
       -0.008153661 -0.0058560427 -0.0017009578 -0.0045929938
0000b0 a9 8d 93 bb ee 90 0b bc d1 a1 d4 bb 3b 28 8b 3b
       -0.004502971 -0.008518441 -0.0064890166 0.004246739
0000c0 d6 d2 e5 ba 37 e0 d2 bb 2d 13 94 3b 52 5e c3 3b
       -0.0017534147 -0.00643542 0.0045188875 0.0059621716
0000d0 71 fc a6 ba da e0 aa bb f5 b4 4c 3a 7e 62 80 bb
       -0.0012740028 -0.0052147927 0.0007808947 -0.003917991
0000e0 c0 14 50 3b ec a1 79 bb 59 ab c5 bb e2 96 ae bb
       0.003175065 -0.0038090898 -0.006032389 -0.005328045
0000f0 52 1a 4a bb 26 a8 f7 3a 90 b2 5a 3b a0 cf 8d bb
       -0.0030838442 0.0018894717 0.0033370592 -0.0043277293
000100 97 33 02 bc 23 7a 14 bc cd 30 4a bc fc 5e e0 3b
       -0.00794687 -0.009062323 -0.012340737 0.0068472605
000110 89 f4 9e 39 ad 93 3c ba 6b f8 f2 bb ec 22 2f bb
       0.000303183 -0.0007193636 -0.0074148676 -0.0026723696
000120 3b 5c d7 ba 29 97 c6 3b 95 2b 2c 3c fa ce 21 bc
       -0.0016430685 0.0060605 0.010508438 -0.009876007
000130 76 d1 d1 bb 23 8b 0d bc e4 89 c6 39 8e f1 38 bc
       -0.0064031435 -0.00863913 0.0003786824 -0.01128806
000140 5e 42 85 ba ec 98 d8 3a 8b d5 26 bc 7e 1a 33 3c
       -0.0010166874 0.0016525066 -0.010182749 0.010931609
000150 b8 a8 c7 3b 3e e6 be 3a 49 d7 33 bc d4 8b 9a 3b
       0.006093111 0.0014564467 -0.010976621 0.004716376
000160 af 91 bd ba 9f 61 90 39 c4 1b 17 3c a2 77 55 b9
       -0.0014462973 0.00027538554 0.009222928 -0.0002035783
000170 7f 57 0f 3b ed 7e 11 3c b6 40 7f 3c 76 63 71 3b
       0.002187222 0.008880359 0.015579393 0.0036832965
000180 84 12 5a 3a 79 f0 8d bb 2d 4b 0b bb 59 1a 50 3b
       0.0008318799 -0.004331645 -0.0021254525 0.0031753986
000190 73 78 1f bc b0 2b ae ba a9 4b 7b 3b 34 63 07 bb
       -0.009733307 -0.0013288166 0.0038344658 -0.0020658495
0001a0 1c 17 88 bb ae 46 13 38 51 a8 8a bb a1 d9 f6 3b
       -0.0041531455 3.5113357e-05 -0.0042314907 0.0075332676
0001b0 5d cd 8c 3b ac 1f 03 ba 31 a9 a5 bb c5 15 be bb
       0.004296942 -0.0005001973 -0.0050555696 -0.005800935
0001c0 35 1a 25 3b 5b ec e5 3b 4d 8c d9 3b 58 49 8f 3a
       0.0025192623 0.007016701 0.0066390396 0.0010931892
0001d0 0e 7e d5 bb 3b f1 b8 bb 80 d5 5e bc 23 41 b3 bb
       -0.006515271 -0.0056439913 -0.013600707 -0.0054704114
0001e0 26 f4 66 3b 5d ed 0e bc 77 70 f7 39 1f fe e7 bb
       0.0035240739 -0.008723584 0.00047195304 -0.007079854
0001f0 32 90 21 3c 77 92 81 ba b3 cf 0c bc 0c 5f 84 bb
       0.009861039 -0.0009885569 -0.008594441 -0.004039651
