results/dad_ate_dog/LearnFightStandard/LearnFightStandard-196561.onnx (onnx, 82205 bytes, 16 tensors)

action_model._continuous_distribution.log_sigma f4 [1, 2]
00000000: ecce 873e e289 183e
0.26525056 0.14896348

action_model._continuous_distribution.mu.bias f4 [2]
00000000: 5b5f d4bc f76e fcbd
-0.025924375 -0.12325852

action_model._continuous_distribution.mu.weight f4 [2, 128]
00000000: ebe0 163c 603e cbbc 85cc dcb8 fce4 97bc
00000010: b8ce 44bb 757c 333c a62e 01bd 6a4e 4bbc
00000020: f91e 8cbc b977 483d 9264 debc fd4b e83c
00000030: 43bf b4bc be1a b439 4dbf 6abd f216 0c3c
00000040: be1f d53a 3bd0 143d 7c83 f23b 4b0a 5fbc
00000050: d112 253c 3776 94ba 1473 ccbb ec7c ccbc
00000060: 356d 09bc b4d2 c8bc efda 543d c628 b73c
00000070: 0415 bbbc 8744 d1bb 0d6e aabd cd7c 243b
00000080: 9f7d ef3c 4bc2 00bd 304f 063c 19d9 febc
00000090: 2933 a93b 3bc7 cabb 9372 bdbd e128 133d
000000a0: 352f f9bc b9bb 1e3c d563 a7bd 03b8 4bbd
000000b0: 79d3 fe3c 3e46 ab3c d370 e8bb 22c7 92bd
000000c0: d6a0 cd3b 7cfe fabc dfb8 d5bb fe91 adbc
000000d0: beb8 f23b fa8f b1bb dee2 6dbd 8ab6 22bb
000000e0: ec52 29bd fca7 1fbc 531d 1ebd 913c aabc
000000f0: 0993 75bc e09d a3bc 3989 8c39 b338 513a
00000100: 2088 93bc dfc5 3c3c 54d4 803c 0ef5 e0bc
00000110: bb9f 00bc e309 debc 333c 26bd 7d24 91bc
00000120: ac15 443c 4baa 1a3d 91c1 e03b 6597 86b9
00000130: 2e95 dfbd 04fd a2bc 6262 00ba 6abd 8bbb
00000140: 9ef6 a33c fae9 fdbb fb23 6e3d 9f62 debc
00000150: f152 28bd 6166 96bc 8833 4fbd 267f a2bc
00000160: 9bb7 823c cf43 0e3d 63c1 133b 4057 91bd
00000170: 0578 3ebd aaab 9bbd 01c5 913c b7dd cabc
00000180: c5ca afbc 6043 c9bc b649 30bc 375b 4dbd
00000190: d0e6 0fbc 3c40 07bd 60ff 41bd c36d 31bc
000001a0: 25cb 353d c57d 263c 4c07 0dbd e9ce d93c
000001b0: 9d88 95bd 082a d5bc 0c5e 953c 0dd2 013c
000001c0: a374 14bc c58f df3c 87fa c3bc ea9a 1d3d
000001d0: 1f55 6a3c 8d9f 31bd bff5 0d3c de51 1e3d
000001e0: 3835 e13c 2b92 1dbd c16c 3f3d ff15 68bd
000001f0: c97d afbd 0105 fabb 5044 18bc 43f9 f8bc
00000200: 4640 85bd 7b6d c8bb 37c4 453d 3b18 543d
00000210: 32e3 79bd 64f1 aebb a347 023d 18af bf3c
00000220: 5cc5 84bd 9afc 3fba fda2 20bc ab47 053d
00000230: 00c0 303d e25e 0dbc 6721 613b 91b5 a3ba
00000240: 6db2 5abb 4ec3 093d 9f45 2a3d 1350 d63d
00000250: 25d4 d83b 8abd 12ba 1ba1 493c c484 aa3b
00000260: 0b0f 973c 0fae 363d 4fbc f2bc a678 163d
00000270: 3fc5 853a c762 77b9 dad2 663c 85c9 e2bb
00000280: 9ec7 333c 0d33 2a3d f574 113d 5a6d 5e3d
00000290: 21a8 8f3c 94fb eabc 4a60 3ebd fb24 82bc
000002a0: 011d 73bd 2f37 943b 4d09 1dbd 1a35 83bc
000002b0: 4e79 993b c8f7 88bc 84c0 28bd 6af1 2abd
000002c0: 76f1 83bd e5c7 4bbc 4d03 ca3c aade d3bc
000002d0: 9462 f63b 0262 d93b be76 a4bc 1791 9bbb
000002e0: 0d29 02bd 2016 95bd 4d16 ae3d bc0a 78bc
000002f0: 9768 c1bc 528c 9bbc 80cb 863b 5462 033d
00000300: 6123 1d3d 18ff 0e3d 78ca 36bd 5240 ea3b
00000310: 0457 023a 4faa 963d 3977 653d 1b78 263d
00000320: dbe5 953c a01a 24bc 0362 143b e73c 963c
00000330: c411 ce3c 7c6d 1e3d 185c a9bc a0c2 02bc
00000340: 289b c63c e361 913d 0741 cd3d e172 323d
00000350: 68a7 4abd 08c1 a33c 6218 e83b ea73 13bd
00000360: 3d7f 3d3d 7a70 393d 3ce1 893d 6748 513d
00000370: c286 09bd 6cda 673d e9e9 103c 2080 9a3b
00000380: e172 dc3c b288 f8bb 8499 dabc c715 7d3d
00000390: abcb 3f3d 134b e6bc 94b0 883c 51c2 d73c
000003a0: bbb8 ac3c 4fbd 073d a2e4 a8bb 1336 043c
000003b0: 0663 6d3d 7263 523c 7f72 2c3d 0e33 583d
000003c0: 4d81 b53c 3b61 2ebb 4d41 dabc d7e1 32bc
000003d0: 81cc 653c 805d 3dbd dc7d adbc 86ee daba
000003e0: 98b5 373d a84f b23d 794b a83c 1c14 a63c
000003f0: 3f7a 083d e658 6fbb dd0e 41bc daba c23d
0.009208898 -0.024810016 -0.00010528512 -0.018541805 -0.003003044 0.010954966 -0.031538628 -0.012408832
-0.017104613 0.0489423 -0.027147565 0.028356547 -0.022063857 0.000343522 -0.057311345 0.008550392
0.001626007 0.036331397 0.007400928 -0.013613294 0.010075287 -0.0011326735 -0.0062393043 -0.024961911
-0.008387853 -0.024514534 0.051966604 0.02235831 -0.02283717 -0.006386343 -0.08321772 0.00250988
0.029234705 -0.031435292 0.008197591 -0.03110938 0.0051635695 -0.006188301 -0.09250369 0.035927657
-0.030418018 0.009688311 -0.08173338 -0.049736034 0.031106697 0.020907518 -0.007093528 -0.07166888
0.0062752767 -0.030638926 -0.0065222825 -0.021187779 0.007407277 -0.0054187747 -0.058077686 -0.002482804
-0.041338846 -0.00974464 -0.038602185 -0.020780833 -0.014988669 -0.019972742 0.0002680512 0.0007981166
-0.018009245 0.0115217855 0.015726246 -0.027460601 -0.007850583 -0.027104324 -0.040584754 -0.017717594
0.011968058 0.03776006 0.0068590124 -0.0002567127 -0.10917126 -0.019896038 -0.00048974727 -0.0042645233
0.020015057 -0.0077488394 0.058139782 -0.027146636 -0.041094724 -0.018359365 -0.050586253 -0.01983602
0.01595669 0.034732636 0.0022545687 -0.0709672 -0.04650118 -0.07601102 0.017794134 -0.024763925
-0.021458993 -0.02456826 -0.010759762 -0.050135817 -0.008783057 -0.033020243 -0.047362685 -0.010829392
0.044383187 0.010161822 -0.034430787 0.02658792 -0.073014475 -0.026021019 0.018233322 0.007923615
-0.0090610115 0.027290234 -0.023923172 0.038477816 0.014302521 -0.04336505 0.0086645475 0.038652293
0.027491197 -0.038469475 0.046734575 -0.056661602 -0.085689135 -0.007629991 -0.009293631 -0.030392295
-0.065064 -0.0061165667 0.04828283 0.05178092 -0.061007686 -0.0053388346 0.0318066 0.02339892
-0.06482956 -0.00073237123 -0.009804484 0.03253905 0.043151855 -0.008628579 0.0034352185 -0.0012490024
-0.003337051 0.033633523 0.041570302 0.10464492 0.0066170865 -0.00055977015 0.012306477 0.005203815
0.01843979 0.04459959 -0.029630808 0.036736153 0.0010205879 -0.00023592553 0.014088357 -0.0069209957
0.010972885 0.041552592 0.03551193 0.054303505 0.017536225 -0.028684415 -0.046478547 -0.015886774
-0.059353832 0.00452318 -0.038338948 -0.016016532 0.00468365 -0.016719714 -0.041199222 -0.041734137
-0.064425394 -0.012437795 0.024659777 -0.02586301 0.0075190756 0.006633998 -0.020076152 -0.0047475207
-0.03177743 -0.07279611 0.08500347 -0.015139278 -0.023609443 -0.018987808 0.0041136146 0.032076195
0.038363818 0.034911245 -0.044626683 0.007148781 0.0004972073 0.073567025 0.056021903 0.040641885
0.01829808 -0.0100161135 0.0022641427 0.018339587 0.025154956 0.03867863 -0.020673797 -0.0079809725
0.024243906 0.070987485 0.100221686 0.04356659 -0.049476057 0.019989505 0.007082985 -0.035999216
0.046263922 0.04527328 0.06732413 0.05109444 -0.03357578 0.056604788 0.008844831 0.0047149807
0.026910247 -0.0075846547 -0.02668453 0.061788347 0.046825092 -0.02811197 0.016685762 0.026337774
0.02108418 0.033139523 -0.0051542083 0.008069533 0.057955764 0.012841092 0.04210138 0.052783065
0.022156382 -0.0026608247 -0.026642466 -0.010918102 0.014025808 -0.046231747 -0.021178178 -0.0016703166
0.044850916 0.087065995 0.0205438 0.02027326 0.033319708 -0.0036521493 -0.011783329 0.09508295

action_model._discrete_distribution.branches.0.bias f4 [3]
00000000: a0d6 b63d 445b aebc b8e5 67bd
0.08927655 -0.021283753 -0.05661556

action_model._discrete_distribution.branches.0.weight f4 [3, 128]
00000000: 780d b13d 1ff8 f5bd 99a3 56bb e045 523d
00000010: ed16 403d e916 d83c fd62 afbc cebe f2bd
00000020: 7f45 d63c 8cf5 19bd 69c6 b6bc fbfe 26ba
00000030: ff74 d63b a700 39be 5056 99bc 5d16 9e3d
00000040: 6e81 2cbd bb15 90bc 7c3b dbbc 809b 00bc
00000050: 8112 86bd 9c55 e9bd e491 b3bd 7341 08be
00000060: 1649 37bd 090e 09be ae86 24bd 6f99 64bd
00000070: e362 3dbd 7a6f c6bc 3689 4cbd b6ef c5bc
00000080: c952 e0bd e4d5 d9b8 be97 ddbc 84e4 27bd
00000090: 8dd8 bcbc f533 38bd 8b9e d5bd dc61 bfbd
000000a0: e048 a53c 54ff 85bc 7890 f93a 5af4 e23c
000000b0: 2d23 94bd f49b c8bd 263c 1ebe a034 14bd
000000c0: 5179 e3bd 7aa2 86bd 8546 693d afac 43bd
000000d0: f67a 1a3c fe9f 2cbd 90d7 f8bc 2ffc 573c
000000e0: ec0b 903d ca09 263d 5edb dc3c a010 41bd
000000f0: ae72 48be f737 c1bd 41b6 b3bb 39e4 c0bd
00000100: c471 9d3d 9764 b93b 0104 613c db2f a6bd
00000110: bd51 72bc b05d 83bd 2103 32bd d4f1 37bb
00000120: 045d 1b3c 37a2 c43b 3f0b eebc 5f3f e5bc
00000130: bae3 c7bd 7c20 1ebd 5c94 ddbc 23fc e8bd
00000140: 0060 37bd 6a6a 213d e6cc 92bd 9c97 143d
00000150: 1f33 67bc 845d 7bbd ea17 d1bd d070 a83b
00000160: 0e00 debd 0869 be3c e4d2 f7bd f319 d0bd
00000170: b302 b1bc 2a76 c7bb ba6b 11bd 55f0 5dba
00000180: dd17 d63b 9fe5 3ebb 4e08 0abd f446 b2bb
00000190: ff5c 0cbd 3159 1dbd f90d 66bd 115c 56bd
000001a0: fcf3 0fbe f78f a9bd 61cd a7bd 9e08 c7bd
000001b0: 5753 89bd 9529 a1bd 6af7 f3bc 3c57 e0bd
000001c0: 195b 27bd 492e 60bd 52a5 44bd 9482 91bc
000001d0: 2f35 8abd 99b7 13bd 4bb5 e1bb 99f9 16bd
000001e0: b550 81bd d5c9 b9bd 59cb 81bc b113 5dbd
000001f0: cb34 82bd 0065 14be 55fe e9bd bd12 f8bd
00000200: 5ce1 a8bd d9f3 c53c c30f 16bd b1ed 2abb
00000210: 6f5b 5ebc 679a 9f3d 4d80 dd3c 18ae 8ebc
00000220: e4bf c539 de75 1fbd 0f8b 5b3d c330 59bc
00000230: fa8d 39bd a66e a03d 05cc 30bd 2648 c13d
00000240: 9786 383c 85b8 05bd 8112 0fbd d494 4abd
00000250: 3f6b 593d ac51 b43d 65fe 263c 5e04 863d
00000260: c28f ad3d 68eb 813d 35c9 34bd e308 913c
00000270: 0e5b 643c 87e7 693c f5e9 733c 9940 b53d
00000280: 1d7c a2bd 1a96 d4bb 217c 493c 5f2c f73d
00000290: fa81 cf3c 4fbc e73c 1388 933d da2e b63c
000002a0: edfa 503c 7292 653d d0a3 42bb 43c1 9d3c
000002b0: 3027 093d a08c d73d d2db 933c d148 8fbd
000002c0: a5cf 523c ec99 1a3b a468 11bd caa8 533c
000002d0: ed3c 833d 3b83 29bc b3be 37bd 392a bfbc
000002e0: 46f6 5bbc 25df 513b 7dc7 9bbd 33c7 653d
000002f0: 6262 073e 9a92 d13d 094d e4bc 911c 073e
00000300: 8d22 5f3c 8e01 5e3c ef33 5abd 62e1 e23d
00000310: 30ce 643d 8c8b ad3d e3bb 4cbc 3565 cbbc
00000320: bf6f 69bd 88a1 80bc dcb0 c13c 1b39 7d3b
00000330: 4914 5e3d 0b54 17bd ba15 ea3c 58fb 4f3d
00000340: 0783 043e 1d95 93bc beb0 a13c 7493 203c
00000350: c076 f53c f54f 2bbd e61d e4bb e276 e43c
00000360: 01c3 973d ca99 0c3d f7f9 77bd 5055 393d
00000370: 23ba a2bc 6b05 bc3b acdc c7bc 3e84 723d
00000380: ccb2 8e3d 6777 c83c 1290 1b3e a1f7 133b
00000390: 83e3 15bd 63ad 113d 601b bc3d 2b8a 803d
000003a0: 6230 523b 05b3 133e d0ee 643c e513 5c3d
000003b0: bbb6 b3bc fa2c 2f3d 3967 a7bc c12f 9abd
000003c0: e1e2 cc3c e240 9bbc c228 be3c 9203 7b3d
000003d0: 18bb 9f3c 3cee 9bbb 09ea 4dbc cb79 153c
000003e0: a7f1 cf3b 4755 fa3b 0c88 cc3c 2d34 24bc
000003f0: 56eb 453d 2cd2 21ba 9661 683d fa1d 7b3d
0.08645147 -0.12010216 -0.003275132 0.05133617 0.046896864 0.026378112 -0.021409506 -0.11852799
0.026156185 -0.037587687 -0.022311406 -0.00063703925 0.0065447087 -0.18066655 -0.018717915 0.07719109
-0.04211562 -0.017588487 -0.026761763 -0.007849574 -0.06546498 -0.11393282 -0.08768061 -0.13306217
-0.044747435 -0.1338426 -0.040167503 -0.05581039 -0.046236884 -0.024223078 -0.049935542 -0.024162155
-0.1095329 -0.000103872066 -0.027049895 -0.040989414 -0.023052478 -0.044971425 -0.1043063 -0.09344837
0.020176351 -0.016357102 0.0019040247 0.027704407 -0.07233272 -0.09795371 -0.15452632 -0.036183
-0.11107124 -0.06573959 0.05695202 -0.047772106 0.00942873 -0.042144768 -0.030376226 0.013182684
0.07033524 0.04053668 0.026960071 -0.047134995 -0.19574997 -0.094345026 -0.005484373 -0.0941853
0.07687715 0.005657743 0.013733865 -0.081145965 -0.014789996 -0.06414354 -0.043460015 -0.0028067725
0.009482626 0.006000783 -0.029058097 -0.02798432 -0.09760232 -0.0386052 -0.027048282 -0.11376216
-0.044769287 0.039408125 -0.071679875 0.0362774 -0.014111309 -0.06136848 -0.10209639 0.0051404014
-0.10839854 0.023243442 -0.12100771 -0.101611994 -0.021607732 -0.0060870843 -0.035503127 -0.0008466293
0.0065336064 -0.0029128564 -0.033699326 -0.005440587 -0.034268375 -0.038415138 -0.05616567 -0.052333895
-0.14057916 -0.08279412 -0.0819347 -0.097184405 -0.06705349 -0.07869259 -0.029781062 -0.10954139
-0.040858362 -0.05473164 -0.048009224 -0.01776246 -0.06748425 -0.036063764 -0.006888067 -0.03685913
-0.06314222 -0.090716995 -0.015844034 -0.053973857 -0.06357726 -0.14491653 -0.11425463 -0.12112949
-0.08246109 0.024164127 -0.036636125 -0.0026081617 -0.013571604 0.07793122 0.027038718 -0.017416999
0.00037717738 -0.038930766 0.053599413 -0.013256255 -0.045301415 0.078336045 -0.04316332 0.09437589
0.0112625575 -0.032646675 -0.034929756 -0.04945834 0.053080793 0.0880464 0.010192488 0.06543802
0.08474685 0.06343728 -0.0441372 0.017704433 0.013937725 0.014276392 0.014887323 0.08850212
-0.07933829 -0.00648762 0.012297661 0.1206901 0.025330532 0.028288035 0.072036885 0.022239137
0.012755138 0.056047864 -0.002969969 0.019257193 0.033484638 0.10524869 0.018049154 -0.069963105
0.012866889 0.002359028 -0.035500184 0.01291866 0.06408105 -0.010346229 -0.0448596 -0.023335563
-0.013425415 0.0032023874 -0.07606409 0.056098174 0.13221124 0.1023304 -0.027868764 0.13194491
0.013619077 0.013550175 -0.053272184 0.110781446 0.0558607 0.08473882 -0.012495968 -0.024828533
-0.056991335 -0.015702024 0.023643903 0.0038638774 0.054218564 -0.036945384 0.028574813 0.05077681
0.12940608 -0.018015439 0.019737598 0.009800781 0.029963851 -0.0418243 -0.006961572 0.027888719
0.07410241 0.034326352 -0.06054112 0.045247376 -0.019864148 0.0057379506 -0.024397217 0.059208147
0.069676965 0.024470998 0.15191677 0.0022578018 -0.036593925 0.035565745 0.09184909 0.062763534
0.0032072295 0.1442376 0.013972953 0.05372991 -0.021937719 0.042767502 -0.020434963 -0.075286396
0.025010528 -0.018951837 0.023212794 0.0612827 0.019498393 -0.0047586244 -0.012568005 0.009123276
0.006345946 0.0076395604 0.024967216 -0.010022205 0.048320137 -0.00061729806 0.05673369 0.061307885

action_model._discrete_distribution.branches.1.bias f4 [2]
00000000: b952 673e a252 67be
0.2259015 -0.22590116

action_model._discrete_distribution.branches.1.weight f4 [2, 128]
00000000: 06a2 d3bc b25a 70be eb80 a93c 35e0 0bbd
00000010: a5c7 c0bd ed42 0ebd 084e 1dbe c5de 11bd
00000020: 3b0e 6cbd 5324 15bc d8fc 9a3d 3605 28bc
00000030: b9c3 94bd 685a f0bd cdbc 80bd 822a 77bc
00000040: 55dd 35bd a4e4 193c 06a0 aabc 6f25 72bd
00000050: 06a8 fa3d 4c39 70be fed4 85be 0cec 78be
00000060: 4879 9ebe ea00 85be 3567 12bd ab60 193d
00000070: e103 01be a386 cbbd 853e 96be 416c ecbd
00000080: 8c96 ab3a 7219 093d 4279 3e3b be49 7ebd
00000090: 88bc a5bd eebd 4bbe 5788 1fbe d0f5 88be
000000a0: acb3 c7bd adec 79be 4e6c 33be eb5a 07bb
000000b0: e3d5 503d 6f0d 87be 5024 2cbe 15e1 cabd
000000c0: d666 ccbd f10b 25be d3cb f4bd 3c83 c4bd
000000d0: be14 533e bf59 99bd 370d 5dbc 3060 14bb
000000e0: b15e c7bd d5b3 4dbc 0157 dc3b a706 5cbe
000000f0: 08f3 55be bb49 3ebe 42ba 04bc bec6 d2bd
00000100: 2b1b dc3d 8876 0cbe 1957 b0bc d120 7fbd
00000110: 2842 96bd f8f8 14be c937 f6bc c436 03bc
00000120: b224 093d 8ad0 263e 0b6b 1f3d f7d4 81bc
00000130: 42ea cdbd 6214 a2bd 9cab 49bc c57e 7dbe
00000140: 3955 e5bd 5b1f 1abc 96d5 f1bc 48f0 17be
00000150: 2422 623e b0b3 bbbd 1bb4 d6bd 255c 523d
00000160: 4b90 72bd 2ec8 07bd 1309 9dbc 1a91 8cbd
00000170: 039b 0b3e 60c1 12be c2f4 2e3d ff69 07bd
00000180: 4eec 4ebe 0f82 0d3e f3ed f9bd 0193 acbe
00000190: 44b9 5b3d 581f df3d 2bd8 4dbe 8f25 2dbe
000001a0: a2a7 8f3d 4ea2 8b3c 113b 96be 2d61 483e
000001b0: 44f7 1abd 04ba 2dbe 705a 00be e2d3 df3c
000001c0: 54f3 7abe e166 77bb cdaa ce3d e2ec 37be
000001d0: 75a4 2a3c b690 8cbe dba7 63bd e683 96bd
000001e0: c904 14bd f9d7 dfbc 2576 823d 7643 c2bd
000001f0: 42db 01be 92c1 7abd 0c4b 31bd a17e b1bd
00000200: e115 bc3c 938f 643e e3e2 0abd a605 bb3c
00000210: 6185 9b3d 22be 453d be44 183e 52e5 d43c
00000220: 711a 7c3d c25a 123c 96b5 cbbd 76d5 103c
00000230: b42e 213d 4798 fe3d 8463 9c3d 4813 713c
00000240: 6af0 363d 08a9 4eb7 4537 de3c d669 893d
00000250: abc2 0cbe a025 7b3e 8e5d 883e 98ba 7e3e
00000260: 36f3 973e c7f3 793e d189 3e3d 8f1d 0abd
00000270: d4b6 193e 805e ca3d 8ed7 8b3e 8879 e43d
00000280: 9fb9 a9bb 1cb5 14bd 57f4 b33b 0e49 613d
00000290: 53da 953d b3ca 423e 86ba 313e 0e99 8e3e
000002a0: 72c6 e83d 43be 723e a45e 1b3e a057 3d3c
000002b0: 2b84 40bd c90e 873e fdcb 443e 0a56 d23d
000002c0: 3ad6 ab3d b1a1 333e 66c0 f73d 2927 cf3d
000002d0: 3523 66be 2684 a53d 61f4 3f3c 3c3a b1bc
000002e0: 6082 ad3d e7a8 9a3c 5340 5c3a d5b2 5a3e
000002f0: 0fd2 543e df4a 4b3e 77f4 783c 2f75 ba3d
00000300: 157a c4bd 8ada 043e a0df 513c 4385 5f3d
00000310: 7ad1 543d 3f94 033e 6711 393d a107 0fbc
00000320: 5605 a7bc 82b3 27be e4a7 3fbd 1ef5 f93b
00000330: 6ec1 e13d ce01 b73d 5ada 4fbb 0b4c 7b3e
00000340: 8841 d33d 9158 11bc a9e1 0f3d 649c 1c3e
00000350: 749a 55be 6eb8 e93d 103f f93d 99a6 37bd
00000360: 5846 683d 37cf 253d d4ed 49ba ac62 563d
00000370: 0778 0dbe 61d8 223e 5ba5 4fbd b3ec 483d
00000380: abb2 3c3e f9ad 05be 7988 e93d 6b3d a73e
00000390: 2145 8dbd 22e9 d4bd bb84 503e 89f4 433e
000003a0: d185 63bd 330f e3bc 7b22 9a3e 3272 46be
000003b0: 448c bd3c 3ff8 353e dd75 163e 6f24 36bc
000003c0: d26d 6e3e d3d2 ea3c 92dd babd 6905 443e
000003d0: 08b3 a1bc e998 8f3e 6620 5d3d a4ab 903d
000003e0: 5cb1 d33c 084f 133d f008 80bd a1f7 ba3d
000003f0: 137e e23d c3e5 453d c605 613d d084 5f3d
-0.025834095 -0.23472098 0.020691356 -0.034149367 -0.09413079 -0.034731794 -0.15361798 -0.03561284
-0.05763076 -0.009102899 0.07567757 -0.010255149 -0.07263894 -0.117359936 -0.06286011 -0.015085818
-0.04440053 0.009392891 -0.020828258 -0.05911773 0.12239079 -0.23459357 -0.26139063 -0.24308795
-0.30951905 -0.2597726 -0.035742957 0.037445705 -0.12599136 -0.09937789 -0.29344574 -0.11544085
0.0013091131 0.033471532 0.0029063975 -0.062082045 -0.080926 -0.19896671 -0.15579353 -0.2675004
-0.097510666 -0.24406691 -0.17521784 -0.0020653557 0.05098523 -0.26377437 -0.16810727 -0.09906212
-0.09980552 -0.16117837 -0.11952939 -0.095953435 0.20613381 -0.07487821 -0.01349192 -0.002264034
-0.09734858 -0.012555082 0.006724239 -0.21486913 -0.2089349 -0.18582813 -0.008101048 -0.10291813
0.107473694 -0.13717091 -0.021525906 -0.062287156 -0.07336837 -0.14548099 -0.030055897 -0.008008663
0.03348226 0.16290489 0.038920444 -0.01584862 -0.10054447 -0.07914044 -0.012308981 -0.2475539
-0.111978956 -0.00940689 -0.029520791 -0.14837754 0.22083336 -0.09165132 -0.10483571 0.051357407
-0.05921964 -0.03314989 -0.019169366 -0.068636134 0.13633351 -0.14331579 0.042713888 -0.03306007
-0.2020733 0.13819145 -0.12203588 -0.33705905 0.05364348 0.1089465 -0.20101993 -0.16908859
0.07014395 0.017045166 -0.2934194 0.1956832 -0.037833467 -0.1696549 -0.12534499 0.027322713
-0.24506885 -0.003775053 0.100911714 -0.17961457 0.010415186 -0.27454156 -0.05558 -0.073493764
-0.036137376 -0.027324663 0.063701905 -0.094855234 -0.12681296 -0.06121976 -0.04328446 -0.08666731
0.022959651 0.22320394 -0.033907782 0.022829842 0.075937994 0.048277028 0.14869973 0.025988255
0.061548654 0.008932771 -0.09946744 0.008839956 0.03935118 0.12431388 0.076361686 0.01471407
0.04466287 -1.23179125e-05 0.027125964 0.0670964 -0.13746135 0.24526072 0.26633877 0.24875867
0.29677743 0.244094 0.04651815 -0.033719596 0.1501115 0.09881306 0.27312893 0.11155993
-0.0051795985 -0.03630553 0.005491774 0.05500131 0.07317033 0.19022636 0.1735631 0.27851146
0.113659754 0.23705392 0.15172821 0.011556536 -0.047001045 0.26378468 0.1921844 0.10270317
0.0839047 0.17542149 0.12097244 0.10114891 -0.22474368 0.08081846 0.011715979 -0.021634214
0.08472133 0.018879367 0.0008401919 0.21357282 0.20783256 0.1985278 0.015195004 0.09104382
-0.09593598 0.12973991 0.012809664 0.054570448 0.051957585 0.1284952 0.04518261 -0.008729846
-0.020388287 -0.1637707 -0.046790972 0.007628097 0.11023222 0.08935891 -0.003171584 0.24540727
0.103152335 -0.0088712135 0.035127316 0.15294033 -0.208597 0.1141213 0.12170231 -0.044836614
0.05670771 0.04048082 -0.00077029807 0.052340195 -0.13815318 0.15902855 -0.050694805 0.04905386
0.18427531 -0.13054647 0.11402983 0.32664046 -0.06897951 -0.10396029 0.20363133 0.19136252
-0.05554754 -0.027717208 0.30104432 -0.193795 0.023138173 0.1777048 0.14693399 -0.011117085
0.2328408 0.028664982 -0.091242924 0.19142689 -0.019738689 0.2804635 0.053985976 0.07063988
0.025841407 0.035964042 -0.06251705 0.09129263 0.11059203 0.04831482 0.054937147 0.05457002

action_model._discrete_distribution.branches.2.bias f4 [2]
00000000: c9e3 bdbd dce3 bd3d
-0.09271962 0.09271976

action_model._discrete_distribution.branches.2.weight f4 [2, 128]
00000000: 52d2 893d ece1 983d 17df 34bc 8fd0 e83c
00000010: d44c 963d 8f8d 343c 1e66 bc3d 6e34 cd3c
00000020: 2c44 513b cd84 213d e4d1 31b9 4001 4a3b
00000030: 1e36 23bb 7587 003d 566b 9ebd e6d4 bfbd
00000040: be34 323c a209 443d d9e9 7d3d dd86 75bb
00000050: 8acd ffbd 8194 93bb 3290 0f3d 0c93 373d
00000060: a05b f83c 2edf be3d b87a 343d e7cc dfbd
00000070: 6113 e23c e43c c83d 266f 1c3e bfe6 fc3c
00000080: f65b c2bc 1022 c6bc aee8 e73b 700b 3b3d
00000090: f28c c43c c511 1abd b526 bb3d 0487 8b3c
000000a0: a629 bf3d f45e ba3d 94e5 1e3e f4ba da3c
000000b0: 5b0c 75bc 26d1 0a3d e9bc fa3c 4d46 dabc
000000c0: 1484 c23c d85e 433c d098 c63d 1c80 3c3c
000000d0: b4ff 85bd 6728 b03b 651c 33bd 16f1 0abd
000000e0: a49e 9b3c 5f2c 83bc f562 9f3c 8942 093d
000000f0: fe24 da3b 2a82 9b3b 05f0 7c3d 511c 9d3d
00000100: 3a3d 70bd 779a c23d e274 8c3c 1389 ac3d
00000110: 6bc4 533d 73d3 5a3d 62f9 09bd 52ee 403c
00000120: 1867 763c 4d37 7bbd 8f2d f8bd 5e92 083d
00000130: 5361 f43d da5a 263d 68b9 15be 8bc7 133c
00000140: 19d2 f93d 2a1d 79bb ddad 40bd 6583 c33d
00000150: 252f 06bd aa30 b03c 0dd2 bb3d 0e99 54bb
00000160: 9a89 f53c 4dda aabd 3119 49bd e321 cc3c
00000170: 4c99 bcbd d284 733d 55a6 863d 2836 1a3d
00000180: 29a4 cd3d cc10 89bd 825c d83d be25 a4bb
00000190: 2954 e6bd 6cc8 32bd 1652 813d 5d78 493c
000001a0: 73cc afbc 7bd3 bf3c cb2b 423d 2906 b0bc
000001b0: 3e79 61bc 1361 503c 8cd1 46bd 27ae 2bbd
000001c0: b9ad 0d3e f340 67bd 90c0 343d 10f1 d1bb
000001d0: 67d9 8b3c 4625 883d 6689 8dbc 246b 6abd
000001e0: 14a5 203d 061e 8cbc da2c 04bc 1066 853b
000001f0: f59d b33d b31a 9ebd 0960 59bc 3884 20bd
00000200: 7ed0 30bd cb07 45bd 4a9e adbc e0a7 c8bc
00000210: 6c07 91bd 85db 0fbc 0e31 e1bd 17f2 efbc
00000220: 8179 c53b c7ae 36bd f3db 4bbb 2197 c73b
00000230: 2d9f 69bb b78c 0bbd ee5b cc3d d15c d03d
00000240: f426 8bbc ce22 40bd 747a a1bd fac9 b53c
00000250: 58c4 0a3e 905f 4e3c 9190 e9bc 4ae1 11bd
00000260: 8132 13bd 1403 c2bd a61d 3ebd 536f 033e
00000270: 9854 ddbc d052 b1bd 8e8e 1ebe a54e 6cbc
00000280: 95e2 863c 17a4 153d 0727 293c 1933 5cbd
00000290: 6853 2fbd 26df e03c a932 bdbd c39a 7bbc
000002a0: fd77 aebd 972b c6bd 9185 26be 65ba a4bc
000002b0: 73bf c33c 0e42 4cbd 1e4c 243a c878 66bb
000002c0: d939 b8bc d7b4 0abc b649 a0bd e2c1 163c
000002d0: 6106 2c3d 66b7 31bc ecb7 353d f54e 793c
000002e0: 91f0 ecbc f663 a23b b231 66bc 40bf 37bd
000002f0: f800 daba 0a03 203b ad45 35bd 47e6 bebd
00000300: 476e 293d 8499 a1bd 2866 03bd 8165 90bd
00000310: 385e 40bd e551 4cbd 23c0 e63c ff2c 69bc
00000320: 6fd5 54bc 906a c03d 750d d13d 18bb 0ebd
00000330: 2408 f1bd 6809 44bd d115 fa3d 5911 b2bc
00000340: 6830 e3bd 1a42 a63b 0d7f cd3c ac3d bdbd
00000350: 5258 d13c 6a24 21bd 4bed b5bd 9789 943b
00000360: c8b5 f3bc 533b b53d 37c6 dd3c b5e0 05bd
00000370: c3cd c93d feb4 7abd 63f0 6abd 6a3b 5abc
00000380: d844 c3bd bb08 8a3d daaf 08be e2e2 333b
00000390: a536 ee3d def7 453d cec8 56bd 0cb7 95bc
000003a0: 29b2 8c3c d098 a5bc 011a 50bd c84c df3c
000003b0: edc8 e33c eedb 37bc bfde cb3c 75b6 373d
000003c0: 72fd d3bd 8818 5d3d 87b5 1ebd 33f8 c9bb
000003d0: 8822 8ebc e64b 59bd cc2f 483c 85f4 8d3d
000003e0: 72a5 1bbd 3eec 863c 5e9b cb3c 4e54 97bb
000003f0: 69f2 88bd e8e2 a83d 7437 c83c 4b28 a83c
0.067295685 0.07464966 -0.011039517 0.028419761 0.073388726 0.011020078 0.09199165 0.025049414
0.0031931503 0.03943329 -0.00016958226 0.00308235 -0.0024904083 0.031379182 -0.077353165 -0.09366779
0.0108768325 0.04786075 0.061990593 -0.0037464418 -0.12490375 -0.004503787 0.035049625 0.04481797
0.030317128 0.09319912 0.044062346 -0.10927754 0.027597131 0.09777239 0.15276775 0.030871747
-0.023725491 -0.024186164 0.007077298 0.045665205 0.02399299 -0.037614603 0.09138242 0.017032154
0.09334116 0.09100142 0.15517265 0.026700474 -0.014956559 0.033890866 0.030607658 -0.02664485
0.02374462 0.011924468 0.096971154 0.011505153 -0.06542912 0.00537591 -0.04372825 -0.033921324
0.018996544 -0.016012369 0.019456366 0.03351072 0.006657242 0.0047457414 0.061752338 0.076714166
-0.05865214 0.09502118 0.017145578 0.08424582 0.05170099 0.05342431 -0.033685096 0.01177557
0.015039228 -0.061332036 -0.121180646 0.03334271 0.119326256 0.040613987 -0.14621508 0.009019743
0.12198276 -0.0038011768 -0.04704081 0.09546546 -0.032759804 0.02150758 0.091709234 -0.003243986
0.02997284 -0.08342419 -0.04909629 0.024918502 -0.092089266 0.05945284 0.06574694 0.037649304
0.10041077 -0.06692657 0.105645195 -0.005009382 -0.11246521 -0.04364817 0.06314485 0.012296763
-0.021459794 0.023416271 0.047405045 -0.021487312 -0.013761817 0.012718457 -0.048539683 -0.04191413
0.13835801 -0.056458425 0.044128954 -0.0064069107 0.017071439 0.06647734 -0.01727743 -0.057231084
0.03921993 -0.01710416 -0.008067334 0.0040710047 0.08770362 -0.07719936 -0.0132675255 -0.039188594
-0.043167584 -0.048103135 -0.021193642 -0.024494112 -0.07081494 -0.008780365 -0.109956846 -0.029290242
0.0060264473 -0.044600274 -0.0031106442 0.006091014 -0.0035647855 -0.034069743 0.09978472 0.10173953
-0.016986348 -0.046908192 -0.07884684 0.022191036 0.13551462 0.012596026 -0.028511317 -0.035615243
-0.035936836 -0.09473243 -0.046414994 0.12835436 -0.027017877 -0.08658373 -0.15484068 -0.014423047
0.016465465 0.03653344 0.010324246 -0.053759668 -0.04280415 0.027450155 -0.09238178 -0.015356722
-0.0851898 -0.09676283 -0.16261889 -0.020108411 0.023895001 -0.049867682 0.0006267446 -0.0035167206
-0.022488521 -0.008465967 -0.07826559 0.009201499 0.04199827 -0.010846948 0.044364855 0.015216579
-0.028923305 0.004955764 -0.014049934 -0.044860125 -0.0016632369 0.0024415874 -0.0442559 -0.09321266
0.041364934 -0.07890609 -0.032079846 -0.0705061 -0.046964854 -0.04988279 0.02816779 -0.014231919
-0.01299034 0.09395325 0.10207645 -0.034846395 -0.11769131 -0.047860533 0.122111924 -0.021736788
-0.11093217 0.005073798 0.025084997 -0.092402786 0.02555481 -0.039341368 -0.08883151 0.0045330036
-0.029749766 0.08849206 0.027072055 -0.032685 0.09853699 -0.061207764 -0.057358157 -0.0133198295
-0.09534615 0.067399465 -0.13348332 0.0027448465 0.11631516 0.048332088 -0.052437596 -0.01827576
0.017174797 -0.020214468 -0.05080605 0.027258292 0.02780577 -0.011221869 0.024886487 0.04485174
-0.10351075 0.053978473 -0.038747337 -0.006163621 -0.01735045 -0.053050898 0.012218427 0.06931404
-0.037999578 0.01647007 0.024854358 -0.004618204 -0.06686861 0.08246404 0.024440505 0.020527026

action_model._discrete_distribution.branches.3.bias f4 [2]
00000000: 2e26 883d 2826 88bd
0.06647907 -0.06647903

action_model._discrete_distribution.branches.3.weight f4 [2, 128]
00000000: 9914 afbb d575 e9bc d8b2 08bd ceb0 8ebc
00000010: 6e92 9bbd d9d2 39bd 5ff5 0a3c 92bf 83bc
00000020: 57e8 a9bc 5cd5 a63c f152 e03b 1ba3 0a3d
00000030: 0fbe 4e3d a186 9ebc f688 2a3d b536 b63c
00000040: a239 9bbc 1d29 74bc 37f5 13bd 8a7b 6bbd
00000050: 9513 023e 77a9 ac3c 020d 263c bb2b 3abd
00000060: 929c 1b39 e7c5 8d3c c6c4 153d 5490 643d
00000070: c736 4fbd 545d 2cbc 7bd9 8fbd 5fd0 f1ba
00000080: cc62 06bd 7048 243d 997d b63b c9a3 cfbd
00000090: 8532 e7bc f844 71bb be85 f23b e2cc b6bc
000000a0: d0a2 efbd 36df f63a 0e6a 833a 1dda 98bc
000000b0: cdab 673d c66f 633d a52c 0c3d 0904 1bbc
000000c0: 7d6d f03c 9ab0 48bc e238 d53c d5ac b7bc
000000d0: 8c00 983d 03ce a33c 6d14 0bbc bba1 4dbd
000000e0: 74c4 fabd b67f 9cbc 2276 1c39 a9cf 90bd
000000f0: 511c 15bd 0f64 5e3c 3dda 8c3d be4f 91bd
00000100: 2f38 b3bc 63f8 34bd b3aa c23d 4379 a7bc
00000110: a1c9 dcbc e819 a63c 6ff4 7ebd 60a1 a93c
00000120: f627 96bb 43f3 df3a 09e4 063d 3143 393c
00000130: 3ac4 34bd 871a aabb 57fc 453d 8d22 d4bc
00000140: ad79 b7ba d616 37bd a120 163d 9c37 07bd
00000150: 082d 123d ad0d b9bc c6a0 5cbd a25e 36bb
00000160: 21a3 9a3b adc4 a43c e118 19bd 32cd 54bd
00000170: 4c42 123d 6be4 1b3d 24fd a03b 92d8 3c3c
00000180: d54f 2dbc 7828 8a3d 01dc 6fbd b99b c0bd
00000190: 0a16 003e 6a7b 203d 2652 f3bb 4c11 9c3c
000001a0: 20a2 753d 2559 b0ba 2b3a 31bd 0114 863d
000001b0: 8635 0b3d 97ad e0bd e686 0f3d 7198 d93b
000001c0: c3ec c1bc 03d6 eabc 1b03 013e 1a05 b3bc
000001d0: 4db0 3e3d 57af 93bd d4d5 703c 3887 46bb
000001e0: d0eb 9abc 67ec 3dbd 6c79 24bc 9e3a b33c
000001f0: 3f7a 93bd de5e 433d 3f6f 5cbd 7411 e4bd
00000200: 4e14 ad3a 8152 193d 44dd 4f3d a11f ea3b
00000210: e0c1 a83d 491e 133d f086 f6bc d865 133d
00000220: b351 9c3c 5d4f ddbc 38a5 63bc 4d4f cfbc
00000230: 1665 ebbc 25c9 063d 58d3 11bd a9c7 12bd
00000240: 40db 063c b576 0dbc fd89 283d 8fca 5c3d
00000250: e903 e8bd d44c 21bd 872e 9d3b 782a 3b3d
00000260: a339 b13b c003 03bb 9182 31bd 1e00 2cbd
00000270: 1d0c 253d 62ed b13c 4a53 a23d 1f8d 153c
00000280: e16f 263d 83e8 28bd a762 84bc d0f2 b03d
00000290: 5203 ba3c 069c f7ba 7ffe 91bc 6be1 843c
000002a0: a1ca f83d 7534 9e3b 1568 003c 4892 103d
000002b0: 75e4 84bd cc19 6ebd 47a0 6dbc a16b 873b
000002c0: b2f8 2abd 4217 6eba c16f 10bc d838 b43c
000002d0: a1e2 7fbd 5c28 61bc 4fdd df3a b681 593d
000002e0: c05c cd3d d01a cf3b 4efb c8bc 16fb 8b3d
000002f0: 9812 193d dc58 1ebd 94e4 b8bd fc7b 5a3d
00000300: b6b4 73bb 8b7f f33c 12ef a5bd dc1e a6ba
00000310: 43cf 1e3d ae84 f8bc 31f0 7d3d 0daa 483b
00000320: cb42 c93b 3338 d7bc 3513 bbbc 0949 9a3c
00000330: a1f2 dd3c 8f9d d23c 64cb 71bd 46a1 173d
00000340: ada8 c03b a689 3d3d 2bcb f9bc c522 803d
00000350: 4d5d 3cbd 81ff 493d 2fc7 8b3d 1545 5e3b
00000360: 7bd6 6e3c 5e90 28bd d33e 683d c9da 543d
00000370: 4b2a 96bc 3b6b 80bd 3e3d 3fbc 490e 673c
00000380: 6500 013d 54bc 88bd 62ec 593d 5ac5 9b3d
00000390: aebd f4bd 5631 2cbd e9cf b23c 936e dcbb
000003a0: 9a1d 66bd 9ea2 1c3c 7a10 f33c 574f b4bd
000003b0: 1a8d 8cbc b14f b63d c51e 8dbd a1aa 07bc
000003c0: 9b44 f73c b725 223d d3b8 fabd 8e56 8b3c
000003d0: f729 20bd d389 4e3d 05ad 78bc 2e7e 97bc
000003e0: 2004 913c d7e8 3c3d 3985 053c caf5 fbbb
000003f0: ed49 913d 1858 80bd 7d3f 313d 000a e53d
-0.0053430316 -0.02849857 -0.033373684 -0.017418291 -0.075962886 -0.045367096 0.008481353 -0.016082559
-0.020740671 0.02036541 0.006845825 0.033846956 0.050474223 -0.019351305 0.041634522 0.022242883
-0.01894838 -0.01490238 -0.036122527 -0.057490863 0.12702782 0.0210769 0.010134937 -0.04545186
0.00014840279 0.017306281 0.03656461 0.055801705 -0.05058935 -0.010520298 -0.07023903 -0.001844894
-0.032809064 0.040108144 0.0055691716 -0.101386614 -0.028222332 -0.003681479 0.007401197 -0.022314493
-0.11700976 0.0018834833 0.0010026114 -0.018658692 0.056560326 0.055526517 0.034222264 -0.009461411
0.029349083 -0.012249136 0.0260281 -0.02242128 0.07421979 0.019995695 -0.008488757 -0.050203066
-0.12244502 -0.019103866 0.00014921327 -0.07070858 -0.036403958 0.0135736605 0.06877563 -0.07095288
-0.021877376 -0.044182193 0.095052145 -0.020443564 -0.026951613 0.020276025 -0.06224483 0.020706832
-0.0045824004 0.0017086047 0.032932315 0.011307524 -0.04413245 -0.0051911506 0.048336353 -0.025895381
-0.0013998054 -0.044699512 0.03665221 -0.033012018 0.035687476 -0.022589529 -0.053864263 -0.0027827402
0.0047191535 0.020113314 -0.037377242 -0.051953502 0.035707757 0.038059633 0.004912989 0.011526244
-0.0105781155 0.06746 -0.05855942 -0.09404702 0.12508407 0.039180197 -0.0074255643 0.019051217
0.059969068 -0.0013454302 -0.043268364 0.06546784 0.03398659 -0.1097061 0.03504076 0.006640487
-0.023672467 -0.028666502 0.12598841 -0.021853019 0.046554852 -0.07211178 0.014699418 -0.0030293
-0.018911272 -0.04636803 -0.010038715 0.021878537 -0.07201051 0.047697894 -0.05381703 -0.111361414
0.0013204904 0.037432197 0.050748125 0.0071448837 0.08240104 0.035917554 -0.03009364 0.035985798
0.019081926 -0.027015382 -0.013894372 -0.025306368 -0.028734725 0.03290667 -0.035601944 -0.035834942
0.008230984 -0.008634259 0.04114722 0.053904112 -0.11328871 -0.03937991 0.0047968063 0.0456948
0.005408482 -0.001999125 -0.04333741 -0.0419923 0.040294755 0.021719638 0.079260424 0.009127884
0.04063404 -0.041237365 -0.016160322 0.08640063 0.022706661 -0.0018891103 -0.017821549 0.016220769
0.121480234 0.0048280307 0.007837315 0.035295755 -0.06488887 -0.05813007 -0.014503545 0.0041327034
-0.04174108 -0.0009082445 -0.008815707 0.021999761 -0.06247199 -0.013742533 0.0017079505 0.053102218
0.10027456 0.006320335 -0.024533894 0.06835 0.037371248 -0.03865896 -0.09027973 0.053340897
-0.003718657 0.029723903 -0.0810224 -0.0012673992 0.03877188 -0.030336704 0.061996643 0.0030618936
0.0061419955 -0.026271915 -0.022836307 0.018833654 0.027093234 0.025709895 -0.05903186 0.037019037
0.0058794827 0.04627385 -0.030492386 0.06256632 -0.045987416 0.049315933 0.06825101 0.0033915688
0.014577503 -0.041153304 0.05670054 0.051966462 -0.018330714 -0.062704526 -0.011672316 0.014102527
0.031494517 -0.06676546 0.053203948 0.07606001 -0.11950241 -0.042039238 0.021827655 -0.0067270487
-0.056180574 0.009560255 0.029670943 -0.088041954 -0.017157126 0.08901919 -0.068906344 -0.008280427
0.03018408 0.03958675 -0.12242284 0.017009046 -0.03910252 0.05042441 -0.01517797 -0.018492784
0.017702162 0.04612049 0.008149439 -0.0076892124 0.07094178 -0.062668025 0.043273438 0.11183548

discrete_action_output_shape f4 [1, 4]
00000000: 0000 4040 0000 0040 0000 0040 0000 0040
3.0 2.0 2.0 2.0

network_body._body_endoder.seq_layers.0.bias f4 [128]
00000000: 2991 f03d 90c7 b8bc 320c 43bd f8f2 35bb
00000010: b469 2ebd 3f41 41bc 651c 9cbd a674 4e3d
00000020: 830f 39bd 1fba 36bd 149c a0bc 4e16 083d
00000030: 6470 5c3c faa1 6fbd c3ff 07be d8a5 933d
00000040: ebae fc3c 5402 75bd 1a20 a6bd c4df 903d
00000050: 68c9 a7bd 2e1d 9b3c ba55 7abd 167d fa3a
00000060: bc77 26bd f112 bebc af72 fcbc dd9f 2fbe
00000070: 98fe 003c e426 b23d 8c51 1cbc b2b0 e8bd
00000080: c243 81bd 823a b8bd 0655 c8bc 1d7b 97bd
00000090: a043 133e 0498 4fbd 7289 6d3c d277 513d
000000a0: 587c 3c3d 400f 36bd bd6f d23a 979e a2bc
000000b0: d871 cfbc b2b6 f4bc 3ece 7c3d 2f9c df3d
000000c0: 9704 64bd 3477 a6bd 30fb f73c a770 76bd
000000d0: 1057 0ebe 0915 87bd c9c7 96bc 0ff7 153d
000000e0: a670 943c 8fc4 88bd 4cc4 90bd bfd3 05bd
000000f0: 6f5f 39bd 5efc ef3d 19e7 85bd 768d 773b
00000100: fb80 49bc c3f8 9e3c 79fc 793c eccc 20bd
00000110: cfc2 b1bd 28f2 feb9 a298 23be c7d1 95bd
00000120: 1690 283e ee29 183d 0820 033b b4ac a7bc
00000130: 4f06 d23c ee25 87bd c15f 3c3d ab9d 0c3e
00000140: 5bc1 24be 091f a3bb a8d3 14be e55b 95bd
00000150: 0df4 9dbc d0d1 973c 451e 83bd e071 97bd
00000160: 95d3 f43c 019f 78bd 8dcd f9bd 1761 62bd
00000170: b9a0 223d d16c 15be bed0 1dbc 3cd5 ccbd
00000180: 4789 a0bd 5618 1bbd 34df 9d3d 4d18 0abd
00000190: 9da7 fdbc d533 90bd 663c a83d e4ba 913d
000001a0: 58a7 18be 20bb 13bb 0ca9 51bc 9b45 96bd
000001b0: 9ddb 9f3c abfd 453d 04f5 0cbc f348 0fbe
000001c0: 4f90 8fbd e4a4 dbbd a4eb 3cbd f712 ff3c
000001d0: 906a a33d b59a 843d 569c 2d3d cd63 c7bd
000001e0: 11ab e6bd b683 e7bd 9a0d 4b3d 153c cebd
000001f0: 28d9 1ebe e54a 23bd 13ad 7ebd f2ef 3abd
0.11746437 -0.022556096 -0.047619052 -0.002776323 -0.042581275 -0.011795341 -0.07622603 0.050404213
-0.04518081 -0.044611093 -0.019605674 0.033224396 0.01345453 -0.058504082 -0.13281159 0.072093666
0.030845126 -0.059816673 -0.08111592 0.0707393 -0.08192712 0.018934812 -0.06111691 0.0019110765
-0.04064153 -0.023202391 -0.030816404 -0.17150827 0.0078732 0.08698824 -0.009540927 -0.11361827
-0.06311752 -0.089955345 -0.024454605 -0.07396529 0.14381266 -0.050682083 0.014498102 0.05113966
0.04601702 -0.044448137 0.0016055029 -0.019851012 -0.02532284 -0.029872272 0.061720125 0.109184615
-0.05566844 -0.08128205 0.030271143 -0.060166027 -0.13900399 -0.06595809 -0.018405812 0.036612567
0.018120121 -0.066781156 -0.07068691 -0.03267264 -0.04525703 0.11718057 -0.06538219 0.0037773526
-0.012298818 0.019405728 0.015257948 -0.03925793 -0.08679735 -0.00048627076 -0.15976194 -0.073154025
0.16461214 0.037149362 0.0020008106 -0.020468093 0.025637774 -0.065990314 0.045989756 0.1373202
-0.16089384 -0.004978065 -0.14533865 -0.07292918 -0.019281412 0.018532664 -0.06402258 -0.07394767
0.029886046 -0.060698513 -0.12197409 -0.055268373 0.03970406 -0.14592291 -0.009632288 -0.10001609
-0.078386836 -0.037865005 0.07708588 -0.03371458 -0.030963713 -0.07041136 0.08214645 0.07115725
-0.14907587 -0.0022541955 -0.012796652 -0.07337495 0.0195139 0.04833762 -0.008603338 -0.13992672
-0.070099466 -0.1072481 -0.046123162 0.031136973 0.079793096 0.064748205 0.04238542 -0.09735832
-0.11263097 -0.11304419 0.04957352 -0.100700535 -0.15512526 -0.039866347 -0.062176775 -0.045638986

network_body._body_endoder.seq_layers.0.weight f4 [128, 8]
00000000: aff0 003f 1011 fabe 9978 f0be a854 043e
00000010: 4fbf 573d e775 dd3e c469 62be 1532 82bf
00000020: 4d45 823e 4905 c4be ecbc b2be b097 77be
00000030: 8dd1 85be 1309 15bf 850c 85be 625a 22be
00000040: 4e52 02bf 7d36 bfbe 5e49 dc3e f796 39be
00000050: 2a86 903d 4073 89be bf4a d6be ce3d afbe
00000060: c286 9abd 2a73 82bd 906b a6be 8dd6 f83e
00000070: 76f2 f53d b2ac babe 541b ae3e 5d77 29be
00000080: 7e96 01bd a5db 433e e30f b9bc 9f28 fb3d
00000090: 30a9 f9bd 4a35 973e a68d 6a3d 2d7d 4a3f
000000a0: 3e1b 053d 1b40 df3e 1016 693e 5696 c93e
000000b0: e482 81be 503f 08bf 9459 a63e e264 89be
000000c0: 3c2d cf3e ca20 81bd 9a95 37bf aa64 49bf
000000d0: 3658 84bf 6436 87bd 67e5 2cbf fd3e be3e
000000e0: ac9f 2b3d 9072 b23e 2ca4 433c c590 aa3e
000000f0: c4c0 443e 0585 3fbe 3c72 3f3f 1732 e2bd
00000100: aa49 0d3b e83d cdbd bea9 e53d a337 0fbf
00000110: 09d0 8d3c ef58 a13c 3e9d b83d d30e bfbe
00000120: 5199 2bbf 228e a6bc e474 41bf a641 c33e
00000130: 0621 b73e e260 a9be 6d94 913b cd2e a33d
00000140: d352 0f3e 6575 173f 8f68 f0bd 2fff 4e3f
00000150: 4e80 b4bd 622c 34bd fb24 a33d e1f0 373f
00000160: da2a 04bf b5ba d2be 3155 6cbe e6a1 9abe
00000170: 5d68 93bd 3079 12bf efc1 123e c110 2a3f
00000180: ae95 e3be a3c7 81bd 65fa 3abf 8d4d c4be
00000190: 3148 013e 0a4d b4bb 6435 4e3e 5150 9cbe
000001a0: 39cc c23e f7c6 fe3e 9b11 31be 498c 9e3d
000001b0: f4ed 323e 28ba 3b3e d6ef 9f3d 94fd 973d
000001c0: 2d57 e0bd 3a9b adbe d2d1 953d a9ff f7bd
000001d0: 959d 38be 20c7 57be d6b5 ef3e c09f eabc
000001e0: c42f 003f d0f2 fe3c 5dba 15bb b422 ed39
000001f0: f9d1 e13d 0b5f a3be 6320 a83e 26f1 d9be
00000200: 3ac0 8e3e 083d 6b3e 4dda 453d 5f64 9abe
00000210: e7bd 28bf 663f a3be d945 bcbe 7816 4bbe
00000220: bf22 193f 41c5 13be 2c17 553e a986 f4bd
00000230: c8c1 b23e 3ba1 1c3f 7142 8abe 7935 f43d
00000240: ec08 863b 464e f0bd 3767 b73d 0747 35be
00000250: 7e72 bdbe 325b 1dbc b2de 9cbc 7dd4 f5bd
00000260: 3962 9b3e fd82 38be cae6 fa3d 403e 873e
00000270: 38d7 773e 57f4 14bc 01aa d4be 1bc1 b23d
00000280: 8f6a 383f 7d22 363f cab6 2b3f b1de a73d
00000290: 860f 54be 92e4 04bd c87b bebe b1d1 253e
000002a0: 2b0a 3abf eaea 503d 317d 1f3e 0122 6a3e
000002b0: a798 36bd 39a5 1fbe ca64 713e 99bf 35bd
000002c0: b295 f7bd 6911 953c c474 373d 933a f03d
000002d0: 29cd d0be ece9 0f3e 8481 503e 6047 55be
000002e0: 6189 fe3c 2283 01be 2fd3 0f3d 9864 39be
000002f0: 2fe1 a5be 998b debe c8e2 9cbd a7f2 ccbe
00000300: 5820 d5be 42ab 593f 2846 8dbe 106b 793e
00000310: d198 9dbe 5f4b 9cbe 8b18 e0be 884b 63bf
00000320: 6c05 9a3e bf56 88be 816b 0fbe 4a62 80bd
00000330: 1a29 453f 4798 b63d c85b d13c 205f e93c
00000340: 224f 8bbe 6bfc 2f3e 5150 123f 1070 56be
00000350: a5fa 503e a089 70be b92f 00bf 43a9 923d
00000360: 3f3d 943d dcb8 cd3d 5704 b53e aad5 72bd
00000370: e58e 8c3d d056 17bf 4f24 57be 1e04 a13d
00000380: 6c59 e33e c9e2 f83e 8ce3 01be a15f 1bbf
00000390: 2fa7 5ebe deda f7be 4f79 fc3d d275 1f3f
000003a0: 9248 483e 2b16 87be 38a7 08be 9c32 e1be
000003b0: f90e 3c3b 34ea c2be 1cbb a6bc a1a5 71bd
000003c0: 15c1 31bd 7c87 6d3f e114 a03e ef0f 1bbd
000003d0: ca1c f53d a80c d1be 26ed fabe 4d23 043f
000003e0: 2001 693e 0bc5 d53e dae7 7b3e 6d82 2f3e
000003f0: d879 793e 8f6c abbe b90b a1be b513 5f3e
0.50367254 -0.48841143 -0.4696701 0.12922919 0.05267268 0.43254015 -0.22110659 -1.0171534
0.25443497 -0.38285282 -0.3490976 -0.24178958 -0.26136437 -0.5821697 -0.25986114 -0.15854791
-0.50906837 -0.3734626 0.43024725 -0.18123995 0.0705684 -0.2684574 -0.41853902 -0.3422684
-0.07545234 -0.06369622 -0.3250394 0.4860119 0.120091364 -0.3645988 0.34005225 -0.1654944
-0.03163766 0.19126756 -0.022590583 0.12263607 -0.12190473 0.29532844 0.057263993 0.79097253
0.032496683 0.43603596 0.22762322 0.3937251 -0.25295174 -0.5322161 0.32490218 -0.2683478
0.404642 -0.06305082 -0.7171265 -0.78669226 -1.033942 -0.06602171 -0.6753754 0.3715743
0.04190032 0.3485303 0.011940997 0.33313575 0.19214159 -0.18703087 0.7478368 -0.1104471
0.00215588 -0.10021573 0.112140164 -0.5594427 0.017311113 0.019695727 0.090143666 -0.37315997
-0.6703082 -0.020331446 -0.75568986 0.38136023 0.35767382 -0.33081728 0.0044427426 0.07967911
0.13996439 0.59163505 -0.11738693 0.8085813 -0.08813535 -0.04398764 0.07966038 0.7185193
-0.51627886 -0.4115807 -0.23079373 -0.30201644 -0.0719764 -0.5721617 0.14331792 0.66431814
-0.44450134 -0.06336906 -0.7303832 -0.38340417 0.12625195 -0.005502348 0.20137554 -0.30530027
0.38046435 0.49761173 -0.17291872 0.07741601 0.17473584 0.18332732 0.07809417 0.07421413
-0.109541275 -0.3390749 0.07315411 -0.1210931 -0.18028863 -0.21072054 0.46818417 -0.028640628
0.50072885 0.031121641 -0.0022846677 0.00045230018 0.11026377 -0.3190845 0.3283721 -0.42566794
0.27881032 0.229725 0.04830389 -0.30154702 -0.6591477 -0.31884307 -0.3677204 -0.1983279
0.59818643 -0.14430715 0.2080962 -0.11939747 0.34913468 0.6118352 -0.27003816 0.119242616
0.004090419 -0.117336795 0.089552335 -0.17702876 -0.37001413 -0.009604262 -0.019149158 -0.120034195
0.30348375 -0.18018718 0.12251051 0.2641468 0.24203193 -0.009091458 -0.41535953 0.08728238
0.72037596 0.71146375 0.6707579 0.08196772 -0.20709047 -0.032444544 -0.37203813 0.16193272
-0.72671765 0.05100528 0.155751 0.22864534 -0.044579174 -0.15590371 0.23573604 -0.044372175
-0.12089099 0.018196778 0.04478909 0.11729922 -0.40781525 0.14054078 0.20361906 -0.20828009
0.031071367 -0.1264768 0.03511351 -0.1810478 -0.32398364 -0.4346588 -0.076604426 -0.4002888
-0.4162624 0.85026944 -0.27592587 0.24357247 -0.30780652 -0.30526254 -0.43768725 -0.88787127
0.30082262 -0.26628682 -0.14005853 -0.06268747 0.7701584 0.08915763 0.02555646 0.028487742
-0.2720881 0.17186134 0.57153803 -0.20941186 0.20408113 -0.2349 -0.5007282 0.0716119
0.07238244 0.10045025 0.35354874 -0.059285797 0.068631925 -0.5911684 -0.21009944 0.078621134
0.4440416 0.48610523 -0.12684458 -0.60692793 -0.21743463 -0.4840917 0.12327825 0.62289155
0.19558933 -0.263841 -0.13345039 -0.43983924 0.0028695448 -0.38069308 -0.020352893 -0.058995847
-0.043397028 0.9278486 0.3126593 -0.037856992 0.11968382 -0.40829968 -0.49009055 0.51616365
0.22754335 0.41751894 0.24600163 0.17139597 0.24362886 -0.3348126 -0.31454256 0.21784861

network_body._body_endoder.seq_layers.2.bias f4 [128]
00000000: 5317 313d ed13 54bd af42 34bc 7640 9fbd
00000010: 5bb5 03bd 5b77 54bd ab7b 94bd 1ddf b33c
00000020: 2f45 073d 6479 40bd 8d59 dd3c 1f98 04be
00000030: 38cd b7bc a6cd 03bc 0c9f 3a3d ccc6 0e3e
00000040: 26eb 3f3b d6a5 61bd ddcb c7bd 7f92 fe3c
00000050: 1ed0 f93d f03a 8abd 2131 d9bd 80d9 d0bc
00000060: f357 7a3d c6e2 a1bc 56e8 abbc 5716 95bc
00000070: eb94 eebc c0c6 9a3c 5dd2 18bd bf8a 9bbd
00000080: d420 3c3c 2e01 b83c 6909 8cbd 4c5d e73c
00000090: b50a 68bd 565e 7bbd 9693 223c d395 1abc
000000a0: 0bf3 40bc bbba 65bd 9103 7dbd 69a1 d6bc
000000b0: bae7 5939 9384 21bc 1e27 84bd 8b65 f73c
000000c0: 7fb1 9e3c 491d b3bc 2ffa 41bd 078e debc
000000d0: 291b 193e c7ef 7abd 1f6f 613d 315b 9d3c
000000e0: 149f 853d 2118 4a3d 48ad 243a 06f5 32bd
000000f0: c818 99bd aa93 97bc 80ec 66bd cc00 d13b
00000100: cafa 023e 3d17 92bc b6b1 eabc 87d7 45bd
00000110: f4a8 3cbd a4e2 51bd 1cbe 193b ae39 263c
00000120: e6a5 9fbd 402a 103e 0d47 023d 2968 bfbd
00000130: d0de f13b 1271 57bd 7968 13bc 96fa 81bd
00000140: eaf0 48bd ad30 a7bc f67a 403c d076 f0bc
00000150: e682 dd3d e1a7 08bd 0b1e 10bc da2b 083d
00000160: 7fb3 d4bd 64bc 353d 472a 7c3c e0db d6bb
00000170: 8d36 0d3e 993b cd3c 7725 4abd 7a6f 0c3c
00000180: f411 63bc 360c 96bb 2be7 bdbd ccf1 683c
00000190: 0810 ac3d c440 573d f169 72bd c0e3 82bd
000001a0: 913e 9abc b1ce 193d 2859 4ebd 3e62 263d
000001b0: bce5 033d 2c8c 08bd acab 5dbc 085f a33d
000001c0: e953 89bd 270b c6bd ff4d ae3d f397 623b
000001d0: 9ee2 e1bc 55da 9b3c 13aa b4bc 61b7 e9bc
000001e0: 08f2 38bd c28d a13c 54dc c5bc 6bb1 993c
000001f0: 8a0c a9bc 1d1b 25bd 847e e7bc ce0a 983c
0.043235134 -0.051776815 -0.011002227 -0.07775967 -0.032155376 -0.05187164 -0.0725015 0.021956975
0.033024963 -0.046990767 0.02702024 -0.12948655 -0.022436723 -0.008044636 0.045561835 0.13943022
0.0029284447 -0.055089794 -0.09755681 0.031075714 0.12197898 -0.06749523 -0.10605074 -0.025494337
0.06111903 -0.019761454 -0.02098481 -0.018199129 -0.029123744 0.0188936 -0.037309993 -0.07594823
0.011482436 0.0224615 -0.06837732 0.02824273 -0.056650836 -0.061369263 0.009922883 -0.009435135
-0.011776696 -0.056086283 -0.06177098 -0.026200013 0.00020781058 -0.009858268 -0.064527735 0.030199787
0.019371746 -0.02186455 -0.047357734 -0.027167333 0.14951767 -0.061263826 0.055037614 0.019208523
0.06524482 0.049339417 0.00062819244 -0.043690704 -0.0747543 -0.018503029 -0.056377888 0.006378269
0.12790981 -0.017833347 -0.028649192 -0.048301246 -0.046059564 -0.051241532 0.0023459261 0.010145588
-0.077953145 0.14078617 0.03180604 -0.09346039 0.0073812976 -0.052598067 -0.008997076 -0.063466236
-0.04905788 -0.020408953 0.011748066 -0.02935353 0.108159825 -0.033363227 -0.008796225 0.033244945
-0.10385799 0.044369116 0.015390939 -0.006556973 0.1379034 0.025052832 -0.049352136 0.0085715
-0.013859261 -0.0045790924 -0.092726074 0.014217805 0.08401495 0.052552 -0.059183065 -0.06391096
-0.018828662 0.037550632 -0.050377995 0.040621035 0.032201514 -0.033336803 -0.013529699 0.0797711
-0.06705458 -0.09670096 0.0851097 0.0034575432 -0.02757388 0.019025007 -0.022053754 -0.028529825
-0.045152694 0.019720916 -0.024152912 0.018761357 -0.020635862 -0.04030906 -0.02825857 0.01855984
